cifar_net.pth (torch_old, 249582 bytes, 10 tensors)

conv1.weight f4 [6, 3, 5, 5]
0.20261773 -0.13117026 -0.19003314 0.1143766 0.1090765 0.27904892 -0.19926439 -0.3377503
0.21146975 0.19141193 0.3111744 -0.39594987 -0.3063315 0.3128688 0.09875692 0.20048237
-0.3293316 -0.14691493 0.24096349 0.06516962 0.054028504 -0.1935513 -0.10285235 0.11431647
-0.07020984 0.024238035 -0.20014875 -0.3775327 0.10858561 -0.06624459 0.3279907 -0.21429221
-0.4364595 0.11078149 0.09256098 0.421581 -0.36140442 -0.4796517 0.29341286 0.035756893
0.32411492 -0.29537758 -0.3174168 0.16840231 0.01815069 0.05458742 -0.15012076 -0.19631249
0.046846054 -0.0073318956 0.046281658 -0.17518622 -0.19538113 0.18724841 -0.028842293 0.19999506
-0.10346262 -0.2124814 0.31993198 0.122077666 0.1929083 -0.32840887 -0.15834203 0.32219934
0.024035513 0.21852742 -0.30452013 -0.17082347 0.33503717 -0.015814312 0.00894971 -0.03910463
-0.06697506 0.13092451 0.025037518 -0.087304115 0.035581045 0.029877063 -0.16230294 -0.07471285
-0.114339925 -0.39146322 -0.037168637 0.15333128 0.122515656 -0.07476671 -0.0342413 -0.082439244
0.20854396 0.15197617 -0.025930133 -0.11926928 -0.14625287 0.100067794 0.263946 0.2149429
-0.10840285 0.016277742 0.10952843 0.053010844 0.1111978 -0.065759204 -0.020147657 -0.11614697
0.051914554 -0.018527342 -0.2148272 -0.08562548 0.2794898 0.33663172 0.051286884 0.07708664
-0.029077196 0.26975134 0.25757825 0.17400615 0.12711005 -0.09983169 0.18948051 0.22051391
0.34008688 -0.13310598 -0.06148191 0.28075194 0.060171314 -0.18594617 -0.25615177 -0.13247217
-0.16344023 0.023352824 -0.09740248 -0.4012941 -0.015747672 -0.04670672 0.18773839 -0.19607762
-0.23210807 -0.23930013 0.06514957 0.093141004 -0.05821529 -0.20503885 -0.26732156 -0.015346167
0.1571559 -0.0040090326 -0.27487722 -0.17240897 -0.05657279 -0.05506708 0.08560346 0.15425476
0.07193067 -0.006270958 0.07446835 -0.12548468 -0.00039184256 -0.08392934 -0.012965638 -0.10793873
-0.047550745 -0.16603336 -0.26205602 -0.11127143 -0.09768333 -0.16520558 -0.30312607 -0.13223645
-0.19418535 -0.14787713 -0.35307497 -0.34855318 -0.2752044 -0.13790154 -0.20554471 0.050308008
-0.0027645933 0.012386558 0.16636415 0.10454887 -0.11479791 0.02802966 0.1056454 -0.046219405
0.0046654986 -0.13097969 -0.082569905 -0.124186434 -0.002527588 0.04058203 -0.084575586 0.052935556
-0.013795193 -0.02710377 0.20308453 -0.18679333 0.020625181 -0.186164 -0.105119735 0.10585214
0.1283066 -0.0048510665 0.14274445 0.03581602 -0.022321323 -0.08270082 0.019476097 0.18694323
0.059570607 0.13487704 0.16474661 0.057403643 0.0040632887 0.11966091 0.14456144 0.12739141
0.081438124 0.1471659 0.18740863 0.13528834 0.11761405 0.0090041645 0.090396784 0.016500091
0.09123676 0.06368342 0.20174818 0.2664628 0.41243055 0.32032663 0.12198593 0.21168357
0.27180162 0.36327553 0.30045125 0.12739766 0.037481796 0.10547408 0.12357162 0.32075542
0.09713106 -0.019325878 0.041661754 0.10174982 0.15015836 0.074702606 -0.024782177 -0.0064856266
-0.0074942675 -0.065499485 -0.18004073 -0.18433012 -0.19244596 -0.10970939 -0.15974557 -0.09632161
00000000: 067b 4f3e 7f51 06be 0c98 42be 473e ea3d
00000010: 8063 df3d 80df 8e3e f70b 4cbe 9bed acbe
00000020: 878b 583e 7d01 443e 4052 9f3e f1b9 cabe
00000030: 7bd7 9cbe 5730 a03e 1141 ca3d 404b 4d3e
00000040: 279e a8be de70 16be 22bf 763e a677 853d
00000050: fe4c 5d3d 5032 46be 41a4 d2bd c11e ea3d
00000060: 2dca 8fbd d88e c63c cbf3 4cbe f74b c1be
00000070: 2262 de3d 3eab 87bd 66ee a73e 6b6f 5bbe
00000080: 9f77 dfbe 68e1 e23d 9c90 bd3d 77d9 d73e
00000090: 000a b9be e894 f5be 363a 963e d275 123d
000000a0: 64f2 a53e bb3b 97be 7484 a2be a871 2c3e
000000b0: c1b0 943c 0f97 5f3d 42b9 19be 2406 49be
000000c0: a6e1 3f3d 6640 f0bb d691 3d3d 0464 33be
000000d0: fe11 48be 0cbe 3f3e ac46 ecbc 81cb 4c3e
000000e0: 36e4 d3bd b994 59be 20ce a33e db03 fa3d
000000f0: c189 453e 3525 a8be 6a24 22be 50f7 a43e
00000100: 20e6 c43c a7c5 5f3e 10ea 9bbe 59ec 2ebe
00000110: fe89 ab3e 048d 81bc cea1 123c 2d2c 20bd
00000120: 382a 89bd 1311 063e 7b1b cd3c 80cc b2bd
00000130: 6ebd 113d bec0 f43c be32 26be 0d03 99bd
00000140: 0d2b eabd de6d c8be 243e 18bd e002 1d3e
00000150: 7de9 fa3d 4a1f 99bd 9b40 0cbd e8d5 a8bd
00000160: 8c8c 553e a49f 1b3e 6e6b d4bc 7443 f4bd
00000170: 50c3 15be 58f0 cc3d ee23 873e fe19 5c3e
00000180: 5002 debd e658 853c 7150 e03d e621 593d
00000190: acbb e33d c3ac 86bd b30c a5bc 76de edbd
000001a0: 5ba4 543d a7c6 97bc a9fb 5bbe 695c afbd
000001b0: 4919 8f3e fe5a ac3e 3212 523d 9adf 9d3d
000001c0: 4d33 eebc d91c 8a3e 4ce1 833e ab2e 323e
000001d0: 2329 023e 8f74 ccbd 2e07 423e 66ce 613e
000001e0: de1f ae3e ef4c 08be 75d4 7bbd b8be 8f3e
000001f0: 3276 763d ac68 3ebe 5326 83be c9a6 07be
00000200: e05c 27be 6c4e bf3c f47a c7bd 6c76 cdbe
00000210: 4301 81bc 8c4f 3fbd 7e3e 403e 92c8 48be
00000220: bdad 6dbe 180b 75be 236d 853d b6c0 be3d
00000230: 2873 6ebd b4f5 51be 5fde 88be 7d6e 7bbc
00000240: 7aed 203e 345e 83bb b5bc 8cbe fa8b 30be
00000250: dfb8 67bd 058e 61bd de50 af3d f6f4 1d3e
00000260: 6350 933d 9c7c cdbb dd82 983d 0e7f 00be
00000270: 3870 cdb9 25e3 abbd d46d 54bc fb0e ddbd
00000280: 92c4 42bd a604 2abe 352c 86be 47e2 e3bd
00000290: 330e c8bd a72b 29be 5733 9bbe fe68 07be
000002a0: 86d8 46be 1a6d 17be 3ec6 b4be 9075 b2be
000002b0: 97e7 8cbe 1036 0dbe 507a 52be c50f 4e3d
000002c0: 2e2e 35bb fdf0 4a3c 5d5b 2a3e b81d d63d
000002d0: 2b1b ebbd 759e e53c 9e5c d83d 8f50 3dbd
000002e0: 0ae1 983b 8a1f 06be 691a a9bd 7555 febd
000002f0: e4a5 25bb 5839 263d f735 adbd f4d2 583d
00000300: 3c05 62bc ba08 debc 64f5 4f3e c046 3fbe
00000310: 24f6 a83c c7a1 3ebe 0449 d7bd 02c9 d83d
00000320: ce62 033e b2f5 9ebb 9a2b 123e d2b3 123d
00000330: 35db b6bc 0c5f a9bd 568c 9f3c 0c6e 3f3e
00000340: 4f00 743d 351d 0a3e 56b3 283e 1520 6b3d
00000350: 5625 853b c710 f53d ea07 143e e572 023e
00000360: 08c9 a63d a8b2 163e 0ce8 3f3e 0789 0a3e
00000370: a3df f03d 3486 133c f321 b93d 332b 873c
00000380: 57da ba3d 746c 823d 1397 4e3e d06d 883e
00000390: 192a d33e da01 a43e c2d3 f93d 94c3 583e
000003a0: 9529 8b3e 40ff b93e bfd4 993e 8874 023e
000003b0: 8386 193d cb02 d83d 1e13 fd3d 0e3a a43e
000003c0: a6ec c63d 4e51 9ebc 84a5 2a3d 3662 d03d
000003d0: 1dc3 193e aefd 983d fe03 cbbc 6185 d4bb
000003e0: 7992 f5bb 9824 86bd 995c 38be 09c1 3cbe
000003f0: 8e10 45be 51af e0bd 5894 23be 4444 c5bd

conv1.bias f4 [6]
-0.19263828 0.067327484 0.19626005 -0.3127532 0.0471269 -0.39843595
00000000: f842 45be fee2 893d 65f8 483e 3021 a0be
00000010: 2308 413d ccff cbbe

conv2.weight f4 [16, 6, 5, 5]
0.014184304 0.036981415 0.038280822 -0.00033218373 -0.04082764 -0.008264026 0.09493967 0.055211205
0.008178451 0.064541474 0.015601799 0.03179956 -0.006662707 0.08356557 0.04337478 0.048401967
-0.095147625 -0.094911665 0.02968253 0.053006675 -0.12601121 0.0054328325 -0.03882336 -0.014251779
-0.013034083 -0.09346267 0.049675047 0.00960107 -0.097626925 -0.22278763 0.07602199 0.03035633
-0.06788014 -0.15829758 -0.16813575 0.10460184 0.010837296 -0.10089737 -0.19392025 -0.08853369
-0.088460796 -0.19651558 -0.11075236 0.0022811263 0.2895565 -0.28717008 -0.2252467 -0.05514368
0.15493779 0.14325811 -0.019329917 0.116484195 0.06748426 0.025066225 0.11990363 -0.0027366483
0.017515447 0.012701949 0.09128501 0.12491869 -0.04308349 -0.12438649 0.034152538 0.0025484846
0.088839166 -0.05982068 -0.036299165 0.115944706 0.0972323 -0.016645525 0.055681724 0.010183786
0.051248416 0.046367355 -0.051793896 -0.019367917 0.01805077 -0.031103453 0.06843401 0.19271386
-0.033809617 0.04067006 0.06701843 0.13346788 0.11559616 0.024858788 0.12588814 0.009765965
0.098822355 -0.030136455 -0.02734623 0.08988637 0.06318511 -0.16140994 -0.25346586 0.06477139
-0.1335118 -0.15958725 -0.24203742 -0.33913404 0.07575354 0.051639814 -0.025541203 -0.06863551
-0.188799 0.035259802 0.032727107 0.08324785 -0.037936736 -0.12737045 0.078327045 0.03760754
-0.13397579 -0.21894793 -0.23092544 0.13200639 -0.10054564 -0.16270551 -0.12303267 -0.048362497
0.025649024 -0.077492476 -0.06393998 0.014053401 -0.028952276 -0.0074745817 -0.11592164 -0.08752571
0.03179367 0.08934698 -0.09633869 0.006352978 0.046820953 0.075168915 -0.051270317 -0.009985575
-0.00951133 -0.07430815 0.14262155 -0.03399382 -0.011353453 0.12027165 0.1780848 -0.018826634
-0.25449157 0.26261345 0.23060073 0.031354673 -0.119120054 -0.3096015 -0.07993116 -0.16383523
-0.03378503 -0.11465484 0.023347443 -0.03998592 -0.056551613 -0.008158271 -0.0535754 -0.08619292
0.16071379 0.07699102 -0.02527811 0.06721458 -0.016159229 0.027089048 0.24652246 0.006941106
0.13414949 0.10277961 -0.08527893 0.0773108 0.08546592 0.10882823 0.053672515 0.073113665
-0.045733336 0.04306001 0.0061637154 0.029548945 0.0062718173 -0.07077375 -0.07989795 -0.051709745
-0.08092496 0.048192635 -0.05341101 -0.09697294 -0.03245586 -0.02121675 -0.015710402 0.13718201
-0.06297755 0.043865956 0.028124286 -0.34160897 -0.029572247 -0.051566515 0.027453626 0.14082275
-0.14054248 0.06301348 -0.061391477 -0.08489521 -0.10446847 -0.04128945 -0.0033440918 -0.057579234
-0.06681477 -0.051574614 -0.04942968 0.08616783 0.05167644 -0.048586648 -0.019564329 -0.03041064
0.09207369 0.0057763592 0.06861467 0.09248017 -0.20024744 -0.04601898 0.05474996 0.10989817
0.043257903 0.10545681 0.08870545 0.13120869 0.17882119 0.22724785 0.17660862 -0.023504399
0.004630628 0.10735297 0.1746567 0.12988184 -0.044616837 0.05234465 0.0026647144 0.026839303
0.15413587 0.08019378 0.005431683 0.009412943 -0.035261277 0.04492397 -0.16798173 -0.14113167
-0.21926107 -0.18089165 -0.02005108 -0.044620562 0.003618612 -0.061572406 0.08261959 -0.123547755
00000000: 4865 683c d379 173d 5acc 1c3d f228 aeb9
00000010: e23a 27bd d665 07bc bb6f c23d 2525 623d
00000020: e9fe 053c 522e 843d b09e 7f3c 4140 023d
00000030: d652 dabb 6d24 ab3d c1a9 313d 2441 463d
00000040: c2dc c2bd 0c61 c2bd c728 f33c 871d 593d
00000050: 1509 01be e705 b23b 3e05 1fbd 4b80 69bc
00000060: e88c 55bc 5b69 bfbd 1078 4b3d ce4d 1d3c
00000070: a0f0 c7bd 7122 64be 6bb1 9b3d d7ad f83c
00000080: be04 8bbd c318 22be c72b 2cbe 7d39 d63d
00000090: ea8e 313c 48a3 cebd 0893 46be 2751 b5bd
000000a0: ef2a b5bd 613b 49be 22d2 e2bd f37e 153b
000000b0: c040 943e f507 93be 12a7 66be 57de 61bd
000000c0: 03a8 1e3e 41b2 123e c659 9ebc 448f ee3d
000000d0: 3035 8a3d af57 cd3c 0990 f53d 5759 33bb
000000e0: 8e7c 8f3c d61b 503c a3f3 ba3d 5fd5 ff3d
000000f0: 5078 30bd 58be febd 88e3 0b3d 7a04 273b
00000100: 4ff1 b53d 8806 75bd 6fae 14bd 6b74 ed3d
00000110: ba21 c73d 325c 88bc 8512 643d e5d9 263c
00000120: dce9 513d b2eb 3d3d d625 54bd 77a9 9ebc
00000130: 35df 933c abcc febc 2127 8c3d c856 453e
00000140: f47b 0abd a695 263d f540 893d ceab 083e
00000150: aebd ec3d a8a4 cb3c d2e8 003e 6d01 203c
00000160: 6063 ca3d bae0 f6bc 3305 e0bc 5816 b83d
00000170: 3267 813d a648 25be 47c6 81be dda6 843d
00000180: 51b7 08be d76a 23be a8d8 77be faa2 adbe
00000190: ac24 9b3d 4584 533d c93b d1bc c690 8cbd
000001a0: 8654 41be 956c 103d dc0c 063d d97d aa3d
000001b0: 8d63 1bbd 666d 02be ee69 a03d 5d0a 1a3d
000001c0: f330 09be e333 60be b877 6cbe af2c 073e
000001d0: dfea cdbd 469c 26be 8df8 fbbd c117 46bd
000001e0: e71d d23c 60b4 9ebd f7f2 82bd 3c40 663c
000001f0: 532d edbc 56ed f4bb 5368 edbd ae40 b3bd
00000200: 143a 023d 8dfb b63d 384d c5bd a42c d03b
00000210: 54c7 3f3d 29f2 993d d300 52bd 8a9a 23bc
00000220: 69d5 1bbc df2e 98bd 620b 123e 1b3d 0bbd
00000230: d503 3abc fc50 f63d dd5b 363e 503a 9abc
00000240: b84c 82be 4575 863e 9922 6c3e c26d 003d
00000250: 37f5 f3bd 1684 9ebe f3b2 a3bd 6cc4 27be
00000260: 2c62 0abd 28d0 eabd 2343 bf3c 47c8 23bd
00000270: aaa2 67bd 45aa 05bc e171 5bbd ea85 b0bd
00000280: 2892 243e 78ad 9d3d 0a14 cfbc cca7 893d
00000290: 5c60 84bc dae9 dd3c 6270 7c3e 3872 e33b
000002a0: 7c5e 093e 1e7e d23d b8a6 aebd 2055 9e3d
000002b0: c208 af3d 56e1 de3d b6d7 5b3d 9ebc 953d
000002c0: e152 3bbd b15f 303d fef8 c93b a110 f23c
000002d0: d183 cd3b d4f1 90bd 89a1 a3bd 99cd 53bd
000002e0: fcbb a5bd a465 453d 81c5 5abd c099 c6bd
000002f0: 70f0 04bd c0ce adbc 1ab3 80bc 7179 0c3e
00000300: 60fa 80bd caac 333d e764 e63c 5fe7 aebe
00000310: 7f41 f2bc 6937 53bd 6de6 e03c d733 103e
00000320: 5eea 0fbe 360d 813d a175 7bbd 8add adbd
00000330: 91f3 d5bd 201f 29bd 8d28 5bbb 34d8 6bbd
00000340: 2fd6 88bd e73f 53bd c776 4abd c278 b03d
00000350: adaa 533d cb02 47bd 5f45 a0bc bc1f f9bc
00000360: 2191 bc3d 9d47 bd3b d985 8c3d 3e66 bd3d
00000370: aa0d 4dbe 667e 3cbd 7e41 603d 4b12 e13d
00000380: 332f 313d bdf9 d73d 34ab b53d 925b 063e
00000390: e71c 373e a9b3 683e e4d8 343e 4c8c c0bc
000003a0: 86bc 973b e0db db3d 35d9 323e bfff 043e
000003b0: 25c0 36bd 5867 563d 7da2 2e3b 19de db3c
000003c0: cbd5 1d3e a33c a43d 42fc b13b bf38 1a3c
000003d0: 216e 10bd 3202 383d 6703 2cbe d284 10be
000003e0: f985 60be a93b 39be 2a42 a4bc 0dc4 36bd
000003f0: 3c26 6d3b 5933 7cbd 7634 a93d 9b06 fdbd

conv2.bias f4 [16]
-0.009029404 -0.29971406 0.34563592 0.15622753 0.55464673 0.10041791 -0.24945675 -0.40193745
1.0229231 -0.050913803 0.11234997 0.2756103 -0.30308565 0.037893567 -0.39022988 -0.2829886
00000000: 11f0 13bc 1f74 99be 31f7 b03e 1cfa 1f3e
00000010: 54fd 0d3f e8a7 cd3d 9771 7fbe bfca cdbe
00000020: 25ef 823f fe8a 50bd be17 e63d cb1c 8d3e
00000030: 0b2e 9bbe 4936 1b3d 36cc c7be e2e3 90be

fc1.weight f4 [120, 400]
-0.014569111 0.03904001 -0.030662363 -0.030082805 -0.024372106 0.04710379 0.015852218 0.02169696
0.051133446 0.011706668 -0.015011812 0.037769765 0.028513538 -0.026090955 0.00461331 0.013420622
-0.017800586 0.0028760051 -0.031055748 0.027503522 0.00636388 0.027870664 -0.05784789 0.02677451
-0.018619252 -0.04357982 0.020601017 0.032427836 -0.012118146 0.022452943 0.032095697 0.015845641
-0.0051632416 0.038427696 -0.046461143 -0.03736068 0.017386708 0.016396308 -0.0421245 -0.0658715
0.010998214 -0.030763486 0.015854219 -0.06771821 -0.023153873 -0.04413388 -0.049943767 -0.0030269928
0.008076242 -0.058198832 0.00815952 0.024575021 0.017550917 -0.04731582 -0.055974938 -0.04708661
0.0033151666 0.012649989 -0.04380113 0.011810284 0.027551653 0.045225844 -0.03022439 0.031732
0.014021578 -0.029559346 -0.009494728 -0.036740486 -0.017220668 -0.025094785 -0.02544549 -0.026675062
-0.009081881 0.028171994 0.01991423 -0.0437258 0.02943032 -0.024763355 -0.016581703 -0.0319026
-0.024119642 0.018612545 -0.027949935 -0.038574226 -0.011584258 0.016430808 -0.0012500496 -0.020751586
-0.0076752156 -0.04391534 0.009002257 -0.041649062 -0.034091394 0.041760623 -0.031955782 0.026970925
0.029791327 0.01430263 0.050600156 0.0024578955 -0.00036688492 -0.0061524124 -0.02007493 -0.052992217
-0.017304655 -0.06220907 -0.016508145 -0.041650943 -0.053731896 0.0010738614 0.045908798 0.0021382745
0.0020840934 0.023071976 0.010994848 -0.010474787 0.002545595 -0.027311612 0.03447408 0.013302967
0.041810498 0.010079328 -0.015084584 0.055964686 -0.024882292 -0.043078694 -0.012652469 -0.019498521
0.018751565 0.0030223983 -0.016959881 0.0592483 0.019580932 0.062150385 0.04233577 -0.023729568
-0.015839502 0.038449496 0.054338302 -0.014312391 0.009991027 -0.030951247 0.01796515 0.03707152
0.047442783 -0.02407998 0.0061041615 -0.038214345 -0.04982867 0.0064676236 -0.029814128 0.014648553
0.020497141 -0.04522727 0.061193354 -0.058799107 -0.059095252 -0.045455627 0.049873 0.05233893
-0.049084984 0.041979946 -0.027777754 -0.027469413 -0.034940295 -0.027974755 -0.013126677 0.025235826
0.019345699 0.05166406 -0.011362461 0.009009972 -0.028599482 0.0006413121 0.0020125965 0.027459653
0.010766977 -0.013332095 -0.033146158 -0.015579717 -0.049086202 -0.046718005 -0.054062255 0.021263178
0.01237605 -0.0174716 0.014879099 -0.0096926745 -0.05454568 -0.04533793 -0.04504493 -0.031258725
-0.0011928487 -0.044787325 -0.038751997 0.0034953484 -0.05205816 -0.039109636 0.015341027 -0.031719755
0.027812734 0.028941533 -0.053578377 -0.028604098 0.046245698 -0.016409425 -0.001155179 0.03809877
-0.05341591 -0.0069671464 0.005178468 -0.044227194 -0.012016367 -0.033596024 0.0051225675 -0.02279773
0.03097865 -0.034577556 -0.025380144 0.021325056 -0.010006774 -0.05380193 -0.035707146 -0.04614159
0.01771274 0.008540037 -0.03998392 -0.0056721536 0.025941407 -0.0117496485 0.012858666 -0.03670935
0.017380007 -0.016715717 -0.0155290365 -0.009942785 0.02967611 -0.029974807 -0.001974356 0.05294101
0.015261599 0.04703862 0.05189089 0.032046743 0.01952307 0.03901764 -0.025315467 0.0059992485
0.049967498 -0.0024208282 0.03551939 -0.05646546 -0.011057423 -0.030263951 -0.008936257 -0.033977695
00000000: 48b3 6ebc 6be8 1f3d a32f fbbc 3770 f6bc
00000010: 03a8 c7bc e7ef 403d 83dc 813c d3bd b13c
00000020: 4e71 513d 53cd 3f3c 1af4 75bc 78b4 1a3d
00000030: 3995 e93c b3bc d5bc 402b 973b 2be2 5b3c
00000040: 89d2 91bc 5c7b 3c3b a068 febc 114f e13c
00000050: 1888 d03b 0551 e43c e9f1 6cbd 3856 db3c
00000060: 6787 98bc c180 32bd 77c3 a83c 0dd3 043d
00000070: 308b 46bc 3cef b73c c776 033d b8ce 813c
00000080: 6930 a9bb 5c66 1d3d 0a4e 3ebd 8307 19bd
00000090: 926e 8e3c 8d51 863c bd8a 2cbd a3e7 86bd
000000a0: da31 343c b503 fcbc b5e0 813c d8af 8abd
000000b0: 31ad bdbc bac5 34bd d691 4cbd 8360 46bb
000000c0: 3752 043c e661 6ebd 82af 053c 8e51 c93c
000000d0: f1c6 8f3c 3cce 41bd fa45 65bd e4dd 40bd
000000e0: 4443 593b e641 4f3c d068 33bd ec7f 413c
000000f0: 01b4 e13c bc3e 393d 2499 f7bc 6af9 013d
00000100: c3ba 653c 7126 f2bc c78f 1bbc 317d 16bd
00000110: 5c12 8dbc 9493 cdbc 0f73 d0bc a985 dabc
00000120: 2bcc 14bc f4c8 e63c 2b23 a33c d319 33bd
00000130: db17 f13c 85dc cabc 5ad6 87bc 4dac 02bd
00000140: 8e96 c5bc 5679 983c 43f7 e4bc 0200 1ebd
00000150: e6cb 3dbc e799 863c b4d8 a3ba 3bff a9bc
00000160: 6080 fbbb 92e0 33bd 347e 133c 3598 2abd
00000170: 6ba3 0bbd 300d 2b3d 11e4 02bd 21f2 dc3c
00000180: f10c f43c 9455 6a3c 1c42 4f3d a514 213b
00000190: 765a c0b9 2d9a c9bb 2e74 a4bc 5e0e 59bd
000001a0: 7ec2 8dbc f0ce 7ebd 173c 87bc 2e9a 2abd
000001b0: fa15 5cbd cfc0 8c3a dd0a 3c3d 4b22 0c3b
000001c0: 4995 083b 7101 bd3c bc23 343c 719e 2bbc
000001d0: ffd3 263b 9abc dfbc b134 0d3d b0f4 593c
000001e0: 7c41 2b3d c423 253c 5525 77bc 3a3b 653d
000001f0: f3d5 cbbc 4973 30bd 4d4c 4fbc 5dbb 9fbc
00000200: e29c 993c 6e13 463b 73ef 8abc 58ae 723d
00000210: 3168 a03c 6791 7e3d 4668 2d3d 8364 c2bc
00000220: d8c1 81bc 387d 1d3d d791 5e3d 857e 6abc
00000230: 68b1 233c 788d fdbc a62b 933c 4ed8 173d
00000240: 5d53 423d 6143 c5bc 6b05 c83b a586 1cbd
00000250: 2619 4cbd 5cee d33b c23c f4bc 7c00 703c
00000260: 9fe9 a73c 3b40 39bd e2a5 7a3d 55d7 70bd
00000270: dd0d 72bd ae2f 3abd a147 4c3d 5961 563d
00000280: 560d 49bd 2af3 2b3d 2c8e e3bc 8907 e1bc
00000290: 8e1d 0fbd 502b e5bc 4611 57bc 5dbb ce3c
000002a0: df7a 9e3c b29d 533d 9e29 3abc 909e 133c
000002b0: 7649 eabc ba1d 283a c4e5 033b 11f3 e03c
000002c0: fa67 303c dc6e 5abc 44c4 07bd 1242 7fbc
000002d0: 9d0e 49bd 615b 3fbd 6270 5dbd 1e30 ae3c
000002e0: ebc4 4a3c 9a20 8fbc 77c7 733c 06ce 1ebc
000002f0: 4a6b 5fbd 44b4 39bd 0881 38bd 2609 00bd
00000300: 5c59 9cba ea72 37bd 6aba 1ebd 3712 653b
00000310: f03a 55bd 6d31 20bd ee58 7b3c 93ec 01bd
00000320: 88d7 e33c cb16 ed3c 0075 5bbd 2453 eabc
00000330: 216c 3d3d 0f6d 86bc 6069 97ba 750d 1c3d
00000340: a4ca 5abd a94c e4bb 23b0 a93b 9327 35bd
00000350: 4ce0 44bc fc9b 09bd 36db a73b 4ec2 babc
00000360: f0c6 fd3c 32a1 0dbd 05ea cfbc e2b1 ae3c
00000370: 74f3 23bc 6a5f 5cbd a841 12bd f7fe 3cbd
00000380: 4f1a 913c 83eb 0b3c 2ec6 23bd 79dd b9bb
00000390: 1383 d43c 9981 40bc 27ad 523c 8b5c 16bd
000003a0: 8460 8e3c 66ef 88bc 806d 7ebc 10e7 22bc
000003b0: 501b f33c ba8d f5bc 3264 01bb acd8 583d
000003c0: c90b 7a3c 91ab 403d 8b8b 543d 7243 033d
000003d0: d8ee 9f3c f6d0 1f3d 6262 cfbc 5895 c43b
000003e0: b8aa 4c3d c2a6 1ebb c87c 113d 5448 67bd
000003f0: 322a 35bc 1bec f7bc 6169 12bc 322c 0bbd

fc1.bias f4 [120]
-0.0052992143 -0.16415384 -0.0156189725 0.10725667 0.004120426 0.0097834775 -0.054884076 0.12978733
0.066398375 0.16562174 -0.018778697 0.020159127 0.0025114825 -0.06839544 -0.040560484 0.10258761
-0.03683509 0.2507551 0.0056844912 0.02834366 0.10565749 0.20671503 0.120445885 0.020399107
-0.03422936 -0.114736475 0.071972184 0.021778088 0.041462723 -0.048479155 -0.11610029 -0.17367274
0.08957031 -0.13601322 -0.2228468 -0.028730575 0.027806025 -0.008822843 0.101101145 0.006252107
-0.003720303 0.07124235 0.024328656 -0.092957124 0.062398348 -0.01705884 0.055605225 0.16764595
-0.070320316 0.027427739 0.075898536 0.25153333 0.10139336 -0.014089278 -0.0050230343 0.11516498
-0.049162406 -0.00067041663 0.20480528 0.0013889486 -0.12093121 -0.110194355 0.10279873 0.0002933267
-0.05867171 0.07015282 0.13590074 0.028481683 0.04198746 -0.010916087 -0.060776632 0.0720365
0.033874102 -0.014656712 0.069035 0.02488534 0.014275346 0.23617066 0.06643466 -0.020414524
0.16546062 0.14013742 0.027882306 -0.03583245 -0.114326894 -0.12593837 0.04998413 0.021880895
-0.020156158 -0.015322879 -0.0041145952 0.113496445 -0.023266993 -0.036761135 0.07749164 0.28085423
0.1001598 -0.04289936 0.0045571984 -0.020557629 0.034425844 0.0029105751 -0.044936147 -0.04415565
-0.064478375 -0.0287914 -0.035012383 0.06649492 0.019417815 -0.18142813 -0.027232168 -0.04315495
0.031478506 0.10525093 0.25345176 0.0422932 0.05513065 -0.04667157 -0.19818434 -0.03138264
00000000: 08a5 adbb f217 28be b8e6 7fbc 63a9 db3d
00000010: a304 873b e14a 203c 20ce 60bd f8e6 043e
00000020: dffb 873d bf98 293e c8d5 99bc c124 a53c
00000030: af97 243b e912 8cbd c022 26bd 7419 d23d
00000040: 64e0 16bd f962 803e f844 ba3b f730 e83c
00000050: f462 d83d 1bad 533e 55ac f63d 071c a73c
00000060: 1634 0cbd f5fa eabd 2766 933d f667 b23c
00000070: d1d4 293d 1492 46bd fdc5 edbd 44d7 31be
00000080: a470 b73d 0d47 0bbe f431 64be 625c ebbc
00000090: 76c9 e33c b08d 10bc 1e0e cf3d 7ade cc3b
000000a0: 54d0 73bb 82e7 913d e44c c73c 4e60 bebd
000000b0: 6995 7f3d fbbe 8bbc 4ec2 633d 61ab 2b3e
000000c0: 1904 90bd 23b0 e03c b170 9b3d fac8 803e
000000d0: 52a7 cf3d b7d6 66bc 4498 a4bb 9edb eb3d
000000e0: 855e 49bd e6be 2fba 7ab8 513e 620d b63a
000000f0: c8aa f7bd 94ad e1bd 2488 d23d a5c9 9939
00000100: bf51 70bd 48ac 8f3d 9029 0b3e 6b52 e93c
00000110: 0bfb 2b3d 63d9 32bc ebf0 78bd df87 933d
00000120: 92bf 0a3d b522 70bc 3962 8d3d 57dc cb3c
00000130: 24e3 693c b9d6 713e e50e 883d 5c3c a7bc
00000140: 826e 293e 2f80 0f3e 6f69 e43c 0cc5 12bd
00000150: 3824 eabd fdf5 00be 29bc 4c3d 903f b33c
00000160: 871e a5bc d00c 7bbc bad3 86bb d370 e83d
00000170: 6c9a bebc d892 16bd f0b3 9e3d 20cc 8f3e
00000180: 9520 cd3d 3db7 2fbd 8d54 953b 7968 a8bc
00000190: 1d02 0d3d 59bf 3e3b f70e 38bd 8edc 34bd
000001a0: 3d0d 84bd f1db ebbc 2569 0fbd 7d2e 883d
000001b0: 1c12 9f3c 4cc8 39be ff15 dfbc 3fc3 30bd
000001c0: 9bef 003d cd8d d73d 6ec4 813e a23b 2d3d
000001d0: add0 613d b02a 3fbd d6f0 4abe 158b 00bd

fc2.weight f4 [84, 120]
0.061234307 -0.0056048143 -0.022888523 -0.09567216 -0.05230083 -0.09248011 0.01658409 -0.10605975
-0.10326457 0.005828953 0.0039561563 -0.10717342 -0.056020163 0.012906125 0.04922097 0.08025027
0.11488709 -0.13461462 -0.12838669 0.022305533 -0.07417876 -0.095166795 -0.021966446 0.038429312
-0.06819623 0.06462631 -0.0070200455 0.030007612 0.079861596 0.01610616 0.030038014 0.038390752
-0.10076335 0.07115601 -0.024193732 -0.06540903 0.08065156 -0.04887064 0.027440839 0.015571806
0.0064506326 0.013530636 0.095884666 0.094666064 -0.020106485 -0.025234718 0.082467444 0.06267577
0.09112546 0.02402816 -0.06266688 -0.08087361 -0.029377699 0.13996789 0.037668422 -0.16874
-0.019525368 -0.046227764 -0.07947027 0.03478522 0.04865906 0.071088456 -0.022893751 -0.010600755
-0.030402118 -0.04169322 -0.097556755 0.19938387 -0.0042983433 0.12529536 -0.052546278 0.068733394
0.021033254 -0.0056373295 -0.10657481 0.027673483 0.0212019 -0.11570388 0.08254977 -0.04913517
0.10839518 -0.04928252 -0.07856567 -0.02214718 0.06431629 0.16866703 0.014576744 -0.069889255
0.043821562 -0.03485226 0.08219574 0.04625164 0.061005075 0.03786425 0.10899384 0.0023589286
0.0459076 -0.056452658 -0.050653026 -0.07514554 0.1368187 -0.09031971 0.054908827 -0.08545497
-0.0058925035 0.08943452 -0.009162285 0.03641491 0.07082458 0.10743854 -0.10310208 -0.0516738
-0.05937986 0.014441603 -0.058687065 0.07475176 0.0737092 -0.05241481 0.09757247 0.022592569
-0.091167204 0.09983741 -0.094448075 -0.022386214 -0.0922025 -0.016537966 -0.13523383 -0.0033880302
-0.023600304 -0.09966969 -0.010021679 -0.04032465 0.07282861 -0.012345106 -0.063463874 -0.009855868
0.049165744 -0.09880896 -0.07052894 0.05174454 0.09198026 -0.1002323 0.0021596653 -0.021064768
0.06454621 -0.14009702 0.07835609 0.0033031497 -0.029434312 -0.042449694 0.03985824 0.13607939
-0.10647173 0.0024817747 -0.09088843 -0.02638657 0.08161969 0.024046496 -0.025075113 0.047062255
0.086749904 0.039662804 -0.072860286 -0.035887565 0.0835592 0.0403319 0.04481512 0.12602463
0.027047457 -0.0011321491 -0.04991644 0.045819044 -0.15450911 -0.009919819 0.1810797 0.0061166133
0.04819201 0.014876919 -0.06555324 -0.09197858 0.058988918 -0.06597112 0.042924073 0.038348433
-0.06399438 -0.13713743 0.00067941943 0.08215693 -0.0659837 -0.0013821519 0.0016397875 -0.017276175
0.005184533 0.051258147 -0.13413294 0.07912944 0.17036225 -0.018011387 0.111263074 0.089779384
0.024728755 -0.03139446 0.05915377 0.036676798 -0.110659994 -0.07772342 0.0147807915 -0.008457519
0.047566663 -0.13171759 -0.00023356585 -0.108063966 -0.01403582 0.11425376 -0.099469736 -0.062077533
0.03713788 0.07599758 -0.012128771 -0.027595274 -0.09239713 0.09209024 -0.05379042 0.047427915
-0.0018845206 0.08520868 0.02420231 -0.023490243 0.011912377 -0.088050626 -0.0714548 0.018198922
0.006211139 0.012512873 -0.12143552 0.04612116 0.09672156 -0.026225418 0.006506976 0.15281177
-0.021015286 -0.07854801 0.106459066 -0.03773617 0.006860253 -0.08648982 0.026240384 -0.042968865
-0.022438573 -0.07988432 0.05213815 -0.042399812 -0.060461313 -0.072979145 -0.08832731 -0.07896291
00000000: d3d0 7a3d 97a8 b7bb b680 bbbc c4ef c3bd
00000010: 6539 56bd 3666 bdbd 5cdb 873c db35 d9bd
00000020: 607c d3bd cd00 bf3b a5a2 813b bd7d dbbd
00000030: 6675 65bd 3674 533c ee9b 493d 415a a43d
00000040: ec49 eb3d 6ad8 09be cd77 03be 18ba b63c
00000050: 09eb 97bd cfe6 c2bd faf2 b3bc 0e68 1d3d
00000060: 77aa 8bbd cc5a 843d 6908 e6bb 86d2 f53c
00000070: 7a8e a33d 11f1 833c 4812 f63c 9f3f 1d3d
00000080: 045d cebd 3eba 913d ef31 c6bc 2bf5 85bd
00000090: a52c a53d 952c 48bd 9ccb e03c e320 7f3c
000000a0: d45f d33b 9aaf 5d3c 2e5f c43d 48e0 c13d
000000b0: 5bb6 a4bc 0ab9 cebc b1e4 a83d 275c 803d
000000c0: fc9f ba3d b4d6 c43c 7e57 80bd 10a1 a5bd
000000d0: 80a9 f0bc be53 0f3e 344a 1a3d 2eca 2cbe
000000e0: aaf3 9fbc 5359 3dbd 4fc1 a2bd f27a 0e3d
000000f0: b94e 473d d396 913d ad8b bbbc caae 2dbc
00000100: dd0d f9bc 83c6 2abd d6cb c7bd 492b 4c3e
00000110: 1ed9 8cbb 6d4d 003e c43a 57bd 18c4 8c3d
00000120: ee4d ac3c 59b9 b8bb e543 dabd 80b3 e23c
00000130: 9baf ad3c 28f6 ecbd db0f a93d f641 49bd
00000140: 4bfe dd3d 78dc 49bd 0ae7 a0bd 016e b5bc
00000150: 42b8 833d 0db7 2c3e 4cd3 6e3c 1922 8fbd
00000160: 3d7e 333d 3ec1 0ebd 3d56 a83d 5c72 3d3d
00000170: 75e0 793d 8b17 1b3d 2a38 df3d 4198 1a3b
00000180: 9c09 3c3d e73a 67bd 8c79 4fbd e8e5 99bd
00000190: 341a 0c3e 8af9 b8bd 14e8 603d 0403 afbd
000001a0: e715 c1bb 7229 b73d 691d 16bc cd27 153d
000001b0: 7a0c 913d bd08 dc3d 2f27 d3bd e8a7 53bd
000001c0: 4c38 73bd 799c 6c3c d961 70bd 7317 993d
000001d0: d9f4 963d e9b0 56bd 13d4 c73d 0d14 b93c
000001e0: dfb5 babd 8e77 cc3d fe6d c1bd 4b63 b7bc
000001f0: aad4 bcbd a17a 87bc bd7a 0abe b709 5ebb
00000200: 6d55 c1bc 9f1f ccbd f831 24bc 762b 25bd
00000210: 2b27 953d 2143 4abc 59f9 81bd 827a 21bc
00000220: 0562 493d 5a5c cabd 7a71 90bd 15f2 533d
00000230: 2660 bc3d 9846 cdbd 2c89 0d3b 0590 acbc
00000240: ce30 843d 9875 0fbe 2879 a03d a879 583b
00000250: 3a20 f1bc bbdf 2dbd 6542 233d 6558 0b3e
00000260: da0d dabd 45a5 223b b723 babd a628 d8bc
00000270: 3928 a73d 28fd c43c 536a cdbc 5ac4 403d
00000280: efa9 b13d 7775 223d c637 95bd d7fe 12bd
00000290: 1621 ab3d 1033 253d 0f90 373d 9a0c 013e
000002a0: a192 dd3c 9f64 94ba 2e75 4cbd c0ac 3b3d
000002b0: a337 1ebe bd86 22bc f56c 393e df6d c83b
000002c0: fc64 453d 52be 733c c740 86bd 445f bcbd
000002d0: 5d9e 713d de1b 87bd 27d1 2f3d 3f13 1d3d
000002e0: 7c0f 83bd c16d 0cbe 111b 323a e441 a83d
000002f0: 7622 87bd 5229 b5ba 23ee d63a c486 8dbc
00000300: 04e3 a93b 10f4 513d 255a 09be 9e0e a23d
00000310: 7173 2e3e 9e8c 93bc e5dd e33d 41de b73d
00000320: f593 ca3c 7a97 00bd 394b 723d 693a 163d
00000330: b5a1 e2bd 752d 9fbd 222b 723c 6891 0abc
00000340: 43d5 423d fae0 06be 5be9 74b9 a450 ddbd
00000350: 7ff6 65bc e0fd e93d cab6 cbbd 0345 7ebd
00000360: e41d 183d 9fa4 9b3d c1b7 46bc 7c0f e2bc
00000370: b53a bdbd cf99 bc3d 5853 5cbd c643 423d
00000380: 0502 f7ba e381 ae3d ec43 c63c 9c6e c0bc
00000390: 212c 433c e353 b4bd e556 92bd e815 953c
000003a0: cf86 cb3b cb02 4d3c 30b3 f8bd 8be9 3c3d
000003b0: f415 c63d b0d6 d6bc 7938 d53b b07a 1c3e
000003c0: 4028 acbc c7dd a0bd 3607 da3d 3e91 1abd
000003d0: f9cb e03b 9321 b1bd 13f6 d63c 1f00 30bd
000003e0: 19d1 b7bc 649a a3bd d08e 553d 6dab 2dbd
000003f0: 48a6 77bd 1776 95bd f3e4 b4bd 4eb7 a1bd

fc2.bias f4 [84]
-0.11869572 0.15980282 -0.07310547 -0.048765782 0.008551115 0.14000902 0.032235213 0.036158018
-0.099970035 0.031521402 0.03157796 -0.06873965 -0.036651745 -0.16460991 0.0718106 -0.016183197
0.1814591 0.04840088 0.07679575 -0.0010104309 -0.0064743557 0.12249648 0.12224758 -0.032668453
0.049120385 -0.05142443 0.06444945 -0.07517641 -0.052884802 0.0679768 0.34795183 -0.011297552
-0.053073574 0.026555436 -0.02331157 0.27813518 -0.06928174 0.16347806 0.38506553 0.01497468
-0.084312454 -0.012454993 0.41370603 0.19725607 -0.06541721 -0.02439513 -0.008764927 0.29024956
-0.059492804 0.034102604 -0.17398402 0.23732442 -0.03194176 0.1714892 0.167803 -0.052623715
-0.0771182 0.10593214 0.14657609 0.087175265 -0.03506945 -0.05038554 -0.061124988 -0.07841066
0.3144925 0.12834197 -0.0074034687 0.24914254 0.06390134 -0.038811527 -0.14158876 -0.08327084
-0.08295167 0.030514121 0.4747746 0.06381045 -0.19057125 0.032786682 0.07216744 0.22510448
0.31044298 0.35174674 -0.052295845 -0.038217943
00000000: be16 f3bd 5aa3 233e 52b8 95bd a1be 47bd
00000010: fa19 0c3c 865e 0f3e 1209 043d 6e1a 143d
00000020: 17bd ccbd 961c 013d e457 013d 60c7 8cbd
00000030: 2420 16bd 808f 28be 7011 933d a092 84bc
00000040: 6ad0 393e 0040 463d 1747 9d3d 6f70 84ba
00000050: d526 d4bb 6fdf fa3d f05c fa3d 5bcf 05bd
00000060: 7532 493d 6ca2 52bd 13fe 833d 17f6 99bd
00000070: bc9d 58bd 6c37 8b3d be26 b23e 5e19 39bc
00000080: ad63 59bd c98a d93c e8f7 bebc bc67 8e3e
00000090: 96e3 8dbd cb66 273e 4f27 c53e 5c58 753c
000000a0: 02ac acbd 0710 4cbc 47d1 d33e 7ffd 493e
000000b0: 75f9 85bd 4cd8 c7bc c59a 0fbc 979b 943e
000000c0: baae 73bd 2caf 0b3d de28 32be 2c05 733e
000000d0: 5dd5 02bd dd9a 2f3e 8dd4 2b3e f78b 57bd
000000e0: 26f0 9dbd f3f2 d83d 0b18 163e f288 b23d
000000f0: fca4 0fbd 1161 4ebd 325e 7abd c595 a0bd
00000100: 2905 a13e 146c 033e cc98 f2bb 391f 7f3e
00000110: b5de 823d d6f8 1ebd a5fc 10be e789 aabd
00000120: 91e2 a9bd c0f8 f93c a815 f33e 0eaf 823d
00000130: 1c25 43be 544b 063d 86cc 933d ca81 663e
00000140: 62f2 9e3e 2618 b43e 2b34 56bd 6b8a 1cbd

fc3.weight f4 [10, 84]
0.1751515 -0.028742826 -0.048848245 0.1453207 0.079940125 0.014166134 0.19449924 -0.10254768
0.012587989 0.013608881 -0.13514063 -0.019861815 0.17397815 -0.16037264 0.11405653 -0.0632674
0.33135673 0.07455338 0.1754406 -0.003768283 -0.112289906 -0.1085371 0.18474478 -0.013224108
-0.14752406 0.07831046 0.05807713 0.10687047 0.26711673 0.24223024 -0.177812 -0.008216752
-0.07363454 -0.0025969625 0.06365903 0.20246744 0.0044506607 0.15066506 -0.2373663 -0.14992541
-0.061665755 -0.039452184 -0.08045728 -0.2521184 -0.03337989 -0.017152755 0.02791283 0.13522124
0.09101376 -0.109483406 0.054239847 0.036952354 0.14843868 -0.08070276 0.20576245 -0.085286
0.1284291 -0.19574012 0.060644533 -0.27619708 -0.092440836 -0.027268933 -0.0034234915 0.006391285
0.22248137 -0.15660405 0.07184529 0.13952109 0.07591269 0.2443079 0.061689828 0.076867595
0.14782166 -0.025042431 -0.21928602 0.002923827 -0.071218565 0.21705773 -0.05326344 0.13739806
-0.10499956 0.03984885 -0.036464095 -0.08409176 0.39450067 -0.19103442 0.009359961 -0.06430443
-0.035109732 -0.21379097 -0.028507799 -0.14659207 0.08843702 -0.0597633 -0.16845842 0.092699155
0.0030896983 0.23822045 -0.0175293 -0.034059808 -0.12095797 0.030982746 0.08471331 -0.065346554
-0.096434645 -0.094259866 -0.006430681 -0.1564287 0.04894974 0.07655089 0.23298952 0.006534329
0.112907946 0.3434257 -0.12671067 0.1821132 -0.023475891 0.07119579 0.29094157 0.0024927347
-0.032046482 -0.32491478 -0.13868453 0.055603135 -0.013062974 -0.05637266 -0.0060578207 0.07842884
0.084384605 0.022200225 0.065207705 -0.010957118 0.091221176 0.066873275 0.20176318 -0.31409448
0.12621853 -0.18027015 -0.072439454 0.22608368 0.042730827 0.004708054 -0.067082785 -0.0623154
-0.008426204 0.06550868 0.009544582 0.19411503 -0.24117854 -0.006829353 0.016032886 -0.08174767
0.10974357 0.08554955 0.19096026 0.038451746 0.0409766 0.15701392 -0.2244128 0.10517794
0.30462742 0.07020144 -0.105548926 -0.18977906 -0.17696354 -0.20246127 0.05153594 0.15694763
-0.035772815 -0.11711536 0.029334534 0.11282548 -0.10209354 0.0073085027 0.12562276 -0.12629032
0.055060662 -0.061963093 0.11890077 0.0035304907 -0.10262611 -0.06239315 -0.059536435 0.12295385
0.0053762207 0.06557468 -0.06422615 0.04192722 0.10060492 0.037834547 0.012729515 0.04607694
-0.08550621 -0.12684935 -0.023498263 -0.014958927 0.0012282121 -0.14925416 -0.062773935 -0.017442787
0.09838538 0.007907042 -0.20915951 -0.059088815 0.1560065 -0.09950371 0.18822011 -0.047748517
0.034061074 0.09919979 0.025316186 0.28880686 0.056605395 0.03708172 0.10085381 -0.18973514
-0.005505367 -0.030962616 -0.15774381 0.20266987 -0.07792323 0.056516994 0.17205036 -0.02622673
0.0646518 -0.09425448 0.1495101 0.10086074 -0.10487168 -0.20933475 0.112864785 0.1032085
0.41124916 -0.038338754 -0.074255735 -0.123059005 0.021482004 -0.004816919 -0.25548258 0.09126235
-0.08918969 0.114410944 0.07611027 0.03775678 0.03174513 0.057368953 0.09473848 0.10569868
0.12812684 0.29239574 0.0947285 -0.062179916 -0.14466827 -0.0707721 0.010195342 0.024779627
00000000: ea5a 333e 1376 ebbc 1915 48bd f3ce 143e
00000010: a6b7 a33d 1319 683c cf2a 473e 8504 d2bd
00000020: da3d 4e3c c9f7 5e3c 4e62 0abe 3fb5 a2bc
00000030: 5427 323e ba38 24be 7896 e93d 5792 81bd
00000040: 97a7 a93e 71af 983d b3a6 333e 4cf5 76bb
00000050: 40f8 e5bd b348 debd bc2d 3d3e eea9 58bc
00000060: 8c10 17be 3c61 a03d 49e2 6d3d e8de da3d
00000070: 86c3 883e 340b 783e 5914 36be 8e9f 06bc
00000080: b5cd 96bd cd31 2abb aa5f 823d a053 4f3e
00000090: d9d6 913b f147 1a3e 2710 73be 0c86 19be
000000a0: 3b95 7cbd 9d98 21bd c9c6 a4bd aa15 81be
000000b0: 5ab9 08bd ef83 8cbc 72a9 e43c 7077 0a3e
000000c0: 6c65 ba3d d638 e0bd 9a2a 5e3d 5a5b 173d
000000d0: 4f00 183e 7d47 a5bd 64b3 523e 6daa aebd
000000e0: eb82 033e 1970 48be 6766 783d b469 8dbe
000000f0: 9f51 bdbd 1963 dfbc a85c 60bb fc6d d13b
00000100: 28d2 633e d05c 20be a023 933d 9ede 0e3e
00000110: 1d78 9b3d da2b 7a3e 79ae 7c3d c26c 9d3d
00000120: 905e 173e c925 cdbc 848c 60be ad9d 3f3b
00000130: 0adb 91bd 6244 5e3e c42a 5abd 14b2 0c3e
00000140: 020a d7bd 8c38 233d 605b 15bd 4d38 acbd
00000150: fefb c93e 879e 43be 865a 193c 0ab2 83bd
00000160: 39cf 0fbd 05ec 5abe 3089 e9bc 3b1c 16be
00000170: 781e b53d 5dca 74bd 5d80 2cbe 0ed9 bd3d
00000180: 897c 4a3b 10f0 733e 9b99 8fbc 4c82 0bbd
00000190: d0b8 f7bd 87cf fd3c 2c7e ad3d 6ad4 85bd
000001a0: 877f c5bd 510b c1bd 76b8 d2bb d82e 20be
000001b0: 867f 483d b7c6 9c3d ce94 6e3e ed1d d63b
000001c0: 483c e73d 7ed5 af3e 71c0 01be e27b 3a3e
000001d0: 8350 c0bc 19cf 913d 4bf6 943e 265d 233b
000001e0: 2c43 03bd 3b5b a6be 5103 0ebe 1dc0 633d
000001f0: 1606 56bc 05e7 66bd af80 c6bb 4d9f a03d
00000200: d6d1 ac3d 3fdd b53c 9e8b 853d 7c85 33bc
00000210: 2bd2 ba3d dbf4 883d 029b 4e3e fed0 a0be
00000220: 6e3f 013e bd98 38be 235b 94bd 7b82 673e
00000230: 8506 2f3d 0546 9a3b b362 89bd 6f3e 7fbd
00000240: 100e 0abc 6a29 863d e160 1c3c 17c6 463e
00000250: 82f7 76be c4c8 dfbb 6657 833c 536b a7bd
00000260: 3dc1 e03d 9a34 af3d 168b 433e 947f 1d3d
00000270: 14d7 273d 42c8 203e 78cc 65be 8867 d73d
00000280: 20f8 9b3e c6c5 8f3d 092a d8bd 7155 42be
00000290: ee35 35be 0252 4fbe 5a17 533d e1b6 203e
000002a0: 8486 12bd 2eda efbd fa4e f03c 0c11 e73d
000002b0: 6b16 d1bd 2a7c ef3b 41a3 003e 4052 01be
000002c0: 4a87 613d 03cd 7dbd 3f82 f33d ce5f 673b
000002d0: a32d d2bd f68f 7fbd 7adc 73bd 3acf fb3d
000002e0: 022b b03b 054c 863d 0089 83bd e0bb 2b3d
000002f0: f409 ce3d 66f8 1a3d 758f 503c 2cbb 3c3d
00000300: e11d afbd cce4 01be 6e7f c0bc 4a16 75bc
00000310: f6fb a03a 15d6 18be 9f8f 80bd 2de4 8ebc
00000320: 467e c93d 8a8c 013c e92d 56be 1d07 72bd
00000330: 2bc0 1f3e 9ac8 cbbd c6bc 403e f393 43bd
00000340: a083 0b3d 4229 cb3d e463 cf3c 7ede 933e
00000350: 0fdb 673d 00e3 173d 718c ce3d ee49 42be
00000360: 5e66 b4bb 50a5 fdbc 9887 21be b188 4f3e
00000370: 3796 9fbd 5d7e 673d f82d 303e 70d9 d6bc
00000380: 2a68 843d 7e08 c1bd 2d19 193e 1390 ce3d
00000390: f7c6 d6bd d95b 56be a725 e73d fa5e d33d
000003a0: 408f d23e 1909 1dbd 6413 98bd 5c06 fcbd
000003b0: 07fb af3c 3fd7 9dbb 9dce 82be c1e7 ba3d
000003c0: 16a9 b6bd 4950 ea3d b4df 9b3d daa6 1a3d
000003d0: 2e07 023d b5fb 6a3d 4006 c23d 8d78 d83d
000003e0: af33 033e e5b4 953e 0401 c23d 5eb0 7ebd
000003f0: eb23 14be f6f0 90bd 5d0a 273c a5fe ca3c

fc3.bias f4 [10]
-0.13989101 -0.7045716 0.25499728 0.30526835 0.57476765 -0.11746465 0.24973686 -0.20465131
0.31365117 -0.41587397
00000000: 973f 0fbe ce5e 34bf 018f 823e 224c 9c3e
00000010: f923 133f 4e91 f0bd 05bb 7f3e 1d90 51be
00000020: e396 a03e 6fed d4be
