cifar_net.pth (torch_old, 249582 bytes, 10 tensors)

conv1.weight f4 [6, 3, 5, 5]
00000000: 58d3 8c3d efc4 dd3d f76d 9f3d b849 5a3d
00000010: 47f1 27bd 234b bbbe 3c3b 84be b9c6 63be
00000020: 6599 6dbe 1779 06be 0a53 b2be 805f 82be
00000030: ab46 b0be 51fa b6be 7ead 82be 8f26 7abc
00000040: bc1e 0abe 2306 b63c 0cbb ccbd 4fe7 e7bd
00000050: e9ff 81be e589 02be 01bd 9abe beec 98be
00000060: 21d8 35be 2144 f93d 2228 8a3e 3306 303e
00000070: 41c5 733d 571b 103e 81d5 2bbe e907 05be
00000080: 83f7 0bbe 939d f63c 8416 a43d 7afe 89bd
00000090: e210 5fbd 5c58 babd 6dc4 e3bd 4884 013d
000000a0: e440 893e d3ec f63d c93a 213e 5432 c53d
000000b0: 0901 8d3e e9c7 2bbe f812 12bd 98c5 db3c
000000c0: ed42 babd 4b53 a9bc c722 7d3e 353a 553e
000000d0: 75b1 583e e84d 313e 1dfa 5b3d e74f 76bd
000000e0: 8654 743c 6941 9e3d 920d ff3d 1734 a83d
000000f0: eef9 343e 1b9b dc3d 56e3 003e c899 1c3e
00000100: 8897 133e a839 aa3e 7086 d83e 8dfe b93e
00000110: 0115 b63e b9e6 933e c649 453c 97e6 853d
00000120: bdef fb3d 31d1 dc3d 5cef ae3d 6093 283e
00000130: 756e 943e 1d01 123f d7ad 983e 7e06 ac3e
00000140: 33fd 6e3e 3b65 0d3e 3361 843e f951 e43e
00000150: eb67 b13e b47f 883e 233a 3ebe d9f0 0fbe
00000160: 9a83 d43d 7dfe 7a3e 0bb7 e03c 2b68 84be
00000170: bdda eabe 52ab e7be e15b bfbd df5d babb
00000180: e2ab bdbd 33c3 f3be b55a aebe 8a14 b0be
00000190: 93f7 02bf 3100 ebbe 3070 a6bd 497b a0be
000001a0: 94eb c7be 673f 85be a5d9 fabe 06ea 1cbe
000001b0: a4e5 4b3c 40f6 8a3c 39bb b73d 3448 8cbe
000001c0: 3f73 a6be 4cd4 e7bd e3a9 08bd 61a9 383e
000001d0: ea4f 1bbc 90bb f8be 3923 9fbe 1b23 063d
000001e0: 1b1e e83e 5403 d53d f1f1 1ebe d190 a1bd
000001f0: ca61 203e eb3b eebd b22a 2abe 9a83 6f3d
00000200: 24e0 bd3c 950a 87bd 23c3 1c3c ea5a 98be
00000210: dbf6 a0bb 8170 523e f246 193e e7ab 983e
00000220: c3b8 0cbe cd24 82be e949 b2bc bd9b 893d
00000230: 1a7d e43e da19 4e3d dcd0 dcbe c88b 21be
00000240: b348 3abd a9a6 053f c1e3 ad3e 205f 27bd
00000250: c6eb b6bb 6ee7 133e 6243 483d 5944 0cbd
00000260: d5ea 7ebe c8cb 90be 4d6c 13be e8a1 5bbe
00000270: 188f 1bbf 0b15 e4be 02b0 37be da67 0fbe
00000280: dd3c 2ebd d8d7 513e 030f a13e 6e20 543e
00000290: cc9b 96bd 1032 253e 3796 043f 36b6 223f
000002a0: 70ff 8b3e 0169 3b3e 33db 493e 3e4e d6bd
000002b0: bb17 42be 527c b7bc 6b89 2b3e b518 8a3e
000002c0: 4f33 a6bc 7a5b 3cbe 8059 0ebd be0b 973d
000002d0: 8930 8fbe a30f c7be 6530 cdbe ef8d 86bd
000002e0: 573a 35bd 5aa1 bcbd 6d16 a03d 4c61 933e
000002f0: 7a67 203e aa1c 9c3c 9dbb d03d 84dd e33e
00000300: 8f01 0e3f 7a2c 9b3e f690 583d b81f 333d
00000310: 21fe 87bd 88f9 95be 2922 85be d7e6 5abe
00000320: e027 bb3e 907d fe3d 1f4e 60bd 2ea1 2a3b
00000330: 1d29 4d3e 1d2c a4be f4a4 cbbe bbb6 f2be
00000340: 8fc8 c7bd e89a 863d de02 8cbe 856f 5d3d
00000350: 3b88 b13e 0682 633e dc8d 07bc 23d6 95bd
00000360: f368 6c3e 02ce 9c3e 03e7 713e 113a a43d
00000370: 6521 263c d53a 20bd 6f15 90be 90ff 69be
00000380: 45ba 4abd 2edd 033e e88e 60be b03d 663d
00000390: 6df4 21be 3585 4e3e 0243 73be b2ec 843d
000003a0: 213e 8d3e 1be6 a2be f676 033e 8d53 25bf
000003b0: 2c17 ba3e 5142 f43e 0f72 0abf b97c 0a3d
000003c0: 96ae 59be 56cc be3e 7fe5 e63e d827 b7be
000003d0: 5ba2 08be 58d6 8abe 2ca7 40bd 8ba7 8b3e
000003e0: 9f1b 3cbe 4241 f8bc 2a4c 0b3d 40c3 63bd
000003f0: c1c8 9b3e e632 48be 02cd 523d a1c0 08be
0.06876248 0.10828578 0.07784646 0.05329296 -0.041001584 -0.36580762 -0.25826442 -0.22243775
-0.23203047 -0.1313213 -0.3482898 -0.25463486 -0.34428915 -0.3573785 -0.2552299 -0.015267982
-0.13488287 0.022219723 -0.09996614 -0.113234155 -0.25390556 -0.12747915 -0.30222324 -0.2986812
-0.17758228 0.12171198 0.26983744 0.17189865 0.059514288 0.1407293 -0.16780664 -0.12991299
-0.13668637 0.030104434 0.08012107 -0.06737991 -0.05445946 -0.090988845 -0.111214496 0.031620294
0.2680732 0.120568894 0.15745081 0.0962874 0.27539852 -0.16775478 -0.03566262 0.026827618
-0.09094796 -0.0206696 0.24720298 0.20822985 0.21161444 0.17314875 0.053705323 -0.060134795
0.01491273 0.0772732 0.1245376 0.0821306 0.17673466 0.107717715 0.12586722 0.15293038
0.14413273 0.33247113 0.42290068 0.3632702 0.355629 0.28886965 0.012041515 0.06538122
0.12301586 0.107820876 0.08541748 0.16462469 0.28990522 0.5703295 0.2982013 0.33598703
0.23338775 0.13808148 0.25855407 0.4459379 0.34649596 0.2665993 -0.18576865 -0.1405672
0.103766635 0.24511142 0.027431032 -0.25860724 -0.4587001 -0.45247895 -0.093436964 -0.00568746
-0.092613 -0.47609863 -0.3405358 -0.3439067 -0.5115902 -0.45898584 -0.08126867 -0.3134406
-0.3904692 -0.26024935 -0.48994175 -0.15323648 0.012444887 0.016963124 0.08971257 -0.27398837
-0.325098 -0.11319789 -0.03336514 0.18033363 -0.009479502 -0.485806 -0.3108156 0.032748323
0.4533547 0.104010254 -0.15521981 -0.0788895 0.15662304 -0.11632522 -0.1661785 0.058475114
0.023178168 -0.06593815 0.009568009 -0.29756862 -0.00491224 0.2055073 0.1496847 0.2981865
-0.13742356 -0.25418702 -0.021763759 0.06719158 0.44626695 0.050317623 -0.43128097 -0.15775979
-0.045479488 0.5220743 0.33962825 -0.040862203 -0.0055823056 0.14443752 0.048892386 -0.03424487
-0.24894269 -0.28280473 -0.14396782 -0.21448481 -0.6076522 -0.44547305 -0.17938235 -0.1400446
-0.042538512 0.20492494 0.31456766 0.20715496 -0.07353935 0.16132379 0.5179171 0.6355928
0.2734332 0.18301775 0.19712524 -0.10464142 -0.18954365 -0.022398148 0.1675164 0.26971975
-0.020288138 -0.1839427 -0.034753323 0.073752865 -0.27966717 -0.38879117 -0.40075985 -0.065700404
-0.04424509 -0.09210463 0.078167774 0.2878517 0.15664473 0.019056637 0.101920344 0.4450494
0.5547113 0.3030737 0.05287262 0.04373142 -0.06640268 -0.2929194 -0.26002625 -0.21377121
0.3655386 0.12426293 -0.054762002 0.0026036012 0.20035215 -0.32064906 -0.39774287 -0.47405037
-0.097550504 0.06572515 -0.27345937 0.05406143 0.34674248 0.22217569 -0.008273568 -0.07316234
0.2308691 0.3062592 0.2362328 0.08018888 0.010139798 -0.039118607 -0.28141353 -0.22851396
-0.049494047 0.12877342 -0.21929514 0.056211174 -0.15815897 0.20168002 -0.2375603 0.064904585
0.27586463 -0.31816182 0.12838349 -0.64580613 0.36345804 0.47706845 -0.5408029 0.03381035
-0.21258005 0.3726527 0.45096967 -0.35772586 -0.13343184 -0.27116656 -0.047034428 0.27276263
-0.18369912 -0.030304555 0.034008183 -0.055606127 0.304266 -0.19550666 0.051465042 -0.13354732

conv1.bias f4 [6]
00000000: 1e81 083e 5a83 17bf 7188 24be f276 2dbe
00000010: e32f b13d f4c8 93be
0.13330504 -0.591848 -0.16067673 -0.16939905 0.08651712 -0.28864253

conv2.weight f4 [16, 6, 5, 5]
00000000: ebf9 a2bc c6dc b2bc 0d1c ecbc c585 41bd
00000010: d39e 563d ee74 27be 5770 d33c 128f 76bd
00000020: 6aa3 5a3d 525f 153e 8af9 42be c9ea 1bbe
00000030: a556 7538 376b 383d e770 233e 940c abbc
00000040: 696c 68be cae3 043d bf0d 393e 5d8b 433e
00000050: a2a1 943d 1288 5ebe 7243 f9bd eb6e a93d
00000060: e579 133e 1394 933e 6954 dfbd 31a7 f9bd
00000070: 7944 cd3c e745 103d c328 b43e 9280 8c3e
00000080: 7f1a 95be bb88 6abe 567e 8cbc 2ea2 b33c
00000090: ca41 993e dc2b ac3e 8896 aebe cbae 48be
000000a0: 44ff b1bd c47e 32bd 5342 b13e 1c8d 9a3d
000000b0: 1fb8 55be 68a3 01be 50f0 1dbe c33b 5bbd
000000c0: ce53 4b3e 592e a3bd b763 febd 839f 14bd
000000d0: b390 42bc 7b78 edbc d66b 36bd 2cad 63bd
000000e0: d4c2 6dbe eed9 9ebd 6365 ebbc aac7 a63c
000000f0: a78c b33d 4d36 ffbc 6fd3 6dbe f7b3 2ebe
00000100: 7475 d7bd 4028 313d 2e72 9f3d cad2 50bd
00000110: 5af2 84bd 8627 dfbd 19ca 3ebe f656 413c
00000120: 7434 c93d 16e3 b03d def8 5b3c d1b1 c5bd
00000130: eec1 35ba 01f1 953d a8f3 2c3d 62c6 ca3d
00000140: a56b f9bd 5fb9 3dbe 1476 dd3d 2e2e 353d
00000150: 1e24 ce3c 1eac 173d fa2c 27be 8367 6dbe
00000160: 9bcd 333e 074f f13d df7c afbd b512 e13d
00000170: a018 33be 3eda 08be 6e68 033c 7bd0 99bc
00000180: 68a6 16bd 1e5c 3cbd f728 59be e03c 00be
00000190: 6254 10be ac8f 00bd 90c3 c1bc 92f0 06be
000001a0: 6a74 e8bd ff9a 32be 959f b3bd adb5 d33c
000001b0: 1a6b d93c 1ca1 99bc ac86 09bc 3ee1 2cbe
000001c0: 428e e83d 244c 423d 3ee5 1f3e e684 cabc
000001d0: c950 d2bd cba6 9bbd 51dc 103e 6ebd 433d
000001e0: 8150 0d3d beaf e73d 1a69 82bc 8dec 113d
000001f0: 1405 353e 50c9 393d f026 2b3d d910 c6bd
00000200: a784 d7bd a110 0f3e 3b51 663d 5abd 383d
00000210: befa 92bc f3b4 8abd e903 193d 355f 8e3d
00000220: 2c09 bfbb b884 763c 7507 03b9 e212 5dbc
00000230: cfec da3c f984 72bd fa19 77bd 74ee 253b
00000240: c19c 9f3d 2a24 82bd 18bd ca3d 4969 713c
00000250: c297 71ba 2c2d 80bc 8c63 3bbc 73f0 4f3d
00000260: 6f90 063e 484c 5e3e c529 8a3e aa0e 563c
00000270: b69e 72bd 79e2 22bc f417 853d d2b1 483e
00000280: 9935 9cbc 08b7 66bd 88e1 b5bb fd83 13be
00000290: 88d7 4a3d c744 dfbc c0ad a73c 81c0 31bd
000002a0: b136 babd e456 bf3d 4487 073d 3f14 ec3d
000002b0: f4a8 103d 90b6 543d 9e75 a13d dc12 9abd
000002c0: 66a2 1bbd 7f63 49bd 106f 843d d67c 963c
000002d0: a0f2 9fba aec4 38bd b69a f1bb 5ace 9abd
000002e0: 94d7 a33d 2731 3c3d 2548 6d3d 096d 943c
000002f0: 3e20 cbbc 1385 163e 0255 183d ebf3 3c3c
00000300: f750 59bd 75b7 c63a b34e f43c 69c3 a13d
00000310: 5a4f ea3b ed59 c63c fd6f 3dbd e395 2a3d
00000320: 997a de3d f6f4 4b3d e05a c0bc 30a1 05be
00000330: 930c 74bc f684 503e 2e90 873e c238 3a3e
00000340: e75e 2f3e f647 243e ceb8 e13c 33a7 a93c
00000350: 4cc1 303e a043 c03d e6d5 b23d 7cbc 2cbe
00000360: bfac aebd a6f0 1e3d ef58 683d b3fc 63bc
00000370: 6160 15be e020 2fbe 70ae 21be f681 03be
00000380: 60c6 febd 46fa 0fbd ce6a 12be b329 8bbe
00000390: a202 08be 0c6d 90bd fcb3 dcbd 1269 54be
000003a0: 53a3 55be 332b 86be 3cfd 62be 1c91 2bbe
000003b0: d5dd 05be f334 bfbd bd8d 12be c329 a8bd
000003c0: c824 c9bd dacf 15be 7a60 72bd 899d 5e3d
000003d0: d966 e63b 2154 f2bc 164e 65bd f4d4 63bc
000003e0: ee75 623d 41d3 8d3d 2607 97bd 178d 2cbe
000003f0: 5abf 93bd 17c1 183e ea70 513e 204d 283c
-0.01989456 -0.021833789 -0.02882197 -0.047246713 0.05239756 -0.16353199 0.025810404 -0.060195036
0.0533785 0.14587143 -0.19040504 -0.15226282 5.8493246e-05 0.045024123 0.15961038 -0.020880021
-0.22697605 0.0324438 0.1807165 0.19096132 0.072573915 -0.21731594 -0.12171067 0.08273109
0.14401968 0.2882391 -0.10904772 -0.12190092 0.025057064 0.035222914 0.3518735 0.2744184
-0.29121777 -0.22903721 -0.017150085 0.02192792 0.29933006 0.33627212 -0.3409922 -0.19597928
-0.08691266 -0.043577924 0.34620914 0.07546446 -0.20871018 -0.12659991 -0.15423703 -0.05352379
0.19856188 -0.079678245 -0.12421363 -0.036284935 -0.011875319 -0.028988114 -0.044536434 -0.05558507
-0.23218852 -0.077564105 -0.028734868 0.02035888 0.08767062 -0.031153822 -0.23225187 -0.17060839
-0.10520449 0.043251276 0.0778545 -0.050982274 -0.064915374 -0.1089621 -0.18631782 0.011800518
0.09824458 0.08637063 0.013426034 -0.096530564 -0.00069335 0.073213585 0.042224556 0.0990112
-0.12178735 -0.18527745 0.10813537 0.044233494 0.025163706 0.037029378 -0.16325751 -0.23184018
0.17558901 0.117826514 -0.08568739 0.10989896 -0.17489862 -0.13364503 0.008020503 -0.018776169
-0.03677979 -0.045986287 -0.21207033 -0.12523222 -0.1409469 -0.031387016 -0.023652822 -0.13177708
-0.11350329 -0.17441939 -0.08770672 0.025843466 0.026540328 -0.01875358 -0.008393925 -0.16882798
0.113552585 0.047435895 0.15614793 -0.024721574 -0.10269315 -0.076001726 0.14146544 0.047788076
0.034500603 0.11312817 -0.015919257 0.035625983 0.17677718 0.045358002 0.04178518 -0.09671182
-0.10523348 0.13971187 0.05622981 0.045102455 -0.017941829 -0.067727946 0.037357245 0.06951753
-0.005829951 0.015046291 -0.00012495912 -0.013493272 0.026724247 -0.059208844 -0.060327508 0.002531913
0.0779357 -0.06354554 0.09899348 0.014734575 -0.0009216034 -0.01564654 -0.011437308 0.05076642
0.13141035 0.21708786 0.26984993 0.01306502 -0.05923339 -0.009941691 0.06498709 0.19599083
-0.019068526 -0.056326896 -0.005550567 -0.14405818 0.049521953 -0.027254475 0.020468593 -0.043396477
-0.09092463 0.09342745 0.033087984 0.11527299 0.035317376 0.051931918 0.07883762 -0.075231284
-0.037996672 -0.049167152 0.06466496 0.018370073 -0.0012203045 -0.045109443 -0.0073731793 -0.0755889
0.08000103 0.045945313 0.05793013 0.018118398 -0.024795648 0.14699201 0.037190445 0.011532764
-0.05305573 0.0015160876 0.029822683 0.078986 0.0071505727 0.024212802 -0.04624938 0.04164685
0.108632274 0.04979416 -0.023480833 -0.1304977 -0.014895576 0.2036322 0.26477188 0.18185714
0.17126046 0.16043076 0.027553942 0.02070961 0.17261237 0.093878984 0.08732204 -0.16868776
-0.085290425 0.03880372 0.05672544 -0.013915229 -0.14587547 -0.17102385 -0.15789199 -0.12842545
-0.12440181 -0.03515079 -0.14298555 -0.2718025 -0.13282254 -0.07052049 -0.10776517 -0.20743206
-0.20863084 -0.26204833 -0.22166914 -0.16754574 -0.13072903 -0.09336271 -0.14311881 -0.082110904
-0.098214686 -0.1463007 -0.05917404 0.054349456 0.0070313034 -0.029581131 -0.05598267 -0.013905752
0.055288248 0.06925059 -0.0737441 -0.16850697 -0.07214232 0.14917408 0.2045323 0.010272294

conv2.bias f4 [16]
00000000: 6767 c13d b169 9dbd 6366 60be d139 c73e
00000010: 377b 54bc 5dc5 43be cc7d 58bf 87a8 783f
00000020: 0c6e 61be a250 84bd 5717 74be 9f78 3ebf
00000030: 16c1 90be 6351 2c3f 900d 4c3f b1ea 9f3e
0.094435506 -0.07686175 -0.21914057 0.38911298 -0.01296883 -0.19118257 -0.8456695 0.9713215
-0.22014636 -0.06460692 -0.23837028 -0.74402803 -0.28272313 0.67311686 0.79708195 0.31233743

fc1.weight f4 [120, 400]
00000000: 042f 723d 38e4 0a3e fbb9 1b3e 93d9 3c3c
00000010: 7ae2 163d 5cec 2fbd 3bd2 0b3a b524 803d
00000020: f650 62bd 2c9d 383d 1128 99bd 5479 333c
00000030: c17b efbc d89c 10bc 8bfa fc3c 23c8 a5bd
00000040: 7f50 f93c 7779 3bbc 1fe8 5e3d 6362 e53d
00000050: 7a60 55bc 3ad5 05bd 0f36 da3d f219 7a3d
00000060: 231a 1fbd 6b5c cc3c d87d 59bc d96a d2bc
00000070: 5b3f 3abd 019c 133a 9c7c 16bd 5d74 a53d
00000080: 3ccd abbc 98b9 72bd 5dd2 f13c 7741 bc3d
00000090: a951 9ebb 2c4f aabc 94b9 46bd 765c 8aba
000000a0: e8e7 a3bc ab3e 94bd de88 9ebd 4b06 6abd
000000b0: 5be3 fc3c 5ce1 a0ba 72df cbbd 2fd4 f0bd
000000c0: 149f 1cbe 1f96 24bd ea74 333d 8cfe a4bc
000000d0: 3154 04be d616 81ba da11 5a3d 0948 c53d
000000e0: 4b67 983c 189c 193d 0ea8 933d 8cd8 503d
000000f0: 06db 9e3d 9906 e73d 8c92 803d 3080 153e
00000100: 8493 7f3d 380f 613d e230 6a3d c4b2 7f3d
00000110: b475 efbb 4584 79bd 9c74 c63c d57d 9bbc
00000120: d656 65bd 1708 bdbc 089b 8ebd 1509 5cbd
00000130: 51e7 7cbd 0e9d e83c 53d5 68bd 971b 86bd
00000140: 29d0 1e3c ea04 023d 38fa 463c d523 a93c
00000150: 72a5 47bc 9e2d be3b 8861 f73a f2d2 7c3c
00000160: 74e9 3a3b bd63 29bd b5dc 463d f837 943d
00000170: 4c74 e33c eb7b c23d da9b 003d 2a5c 78bd
00000180: f961 563d 01cc 0d3b 07b3 8a3d fcb4 173d
00000190: b82d 003e 7ac8 44bd 73d8 85bd 41dd 6c39
000001a0: 2e5e 7bbc 1c5c 333d 9b54 fbbc 35e0 35bd
000001b0: 7ca1 3a3d 4699 023d a0d9 7a3d eb45 7a3d
000001c0: 98b5 2b3d e26d cc3d 8f38 a33d 6e7c 5b3c
000001d0: f2e7 a6bc 34f7 82bb 87fe ae3d ac73 713d
000001e0: 9921 333d bba6 533c 670d 0d3d c9a1 fd3c
000001f0: ee86 b43c 5655 84bc 74cb 5a3c 4e01 95bc
00000200: 43c5 11bd 3797 e8b8 5414 233d ff49 5bbd
00000210: 5171 913d 4075 533c 9167 1d3c d676 733c
00000220: b34c af3c e80f 9e3d e829 a93c 046f 72bb
00000230: f93d 813c a24b 3b3d a703 d5bc 1d78 893c
00000240: ffb6 843d 128b ee3c 2cb5 ab3d 73b6 b7bc
00000250: c198 d53c 5092 463d 6423 143c e2e3 6abd
00000260: 346e 0bbd 5601 fabb 0e1c ae3c affe 113d
00000270: fd4c b53c eda1 c1bc bc57 2bbc 4e57 83bc
00000280: d02f 25bd 0647 c83c 3e18 ccbc ba17 0d39
00000290: 9775 a9bc 8296 543d 29e1 103d 1c1b 4ebd
000002a0: b6b3 8bbd b240 17bd 9ffb cbbc 3d25 0ebd
000002b0: 43ba 633c 9743 883b 8e2f 52bd d540 003d
000002c0: f745 a63d 7894 b23c 2267 b7bb 93e3 9bbd
000002d0: f1c4 62bc 8d50 453d a414 673c d3c4 30bc
000002e0: 87ef 813d 669d 23bc ae52 b33d 5d6b 79bc
000002f0: 8654 74bc 0d2f b43d bdad 8cbb 9852 783d
00000300: c6e4 843d 0da7 b2bb b984 6e3d 7202 9d3c
00000310: 2d47 6c3d 9389 103d 50a4 d8bc 671b 6c3d
00000320: 4e0b 23bd a85f fabc f806 b1bd 6d31 57bc
00000330: 8d5e a73c ef37 843d f16f 483d 169f 36bd
00000340: ed03 93bb fe2e 123d 3a09 0b3d 27eb 963d
00000350: cf29 033d 765f 8fbb ec35 3c3d 13ad b53b
00000360: 1aa8 1a3d f3a8 c2bb 2b80 8c3d 424f 403d
00000370: b2e2 cc3a efb9 19bd 0524 a2bc ba27 5c3d
00000380: 6c93 e7bb 417c 873d 58dc 0d3d 9efb 4cbd
00000390: 9074 8e3b b38e 053d 278d 5c3d c1e5 8e3d
000003a0: 5fc6 a53d ebdb 353d b5ce f13c 8e50 a63c
000003b0: a66a b23d b1e8 673d 245a a63d 32e9 21bb
000003c0: a30b 563d b59d 3e3d 850f bd3c a50c bb3d
000003d0: ae25 4a3d 38e5 b73c 2275 513d 30c1 c93c
000003e0: 325a 72bd 0681 9c3c 9713 983a 6c4d 29bd
000003f0: 9089 23be 4c94 85bd 5a21 81bc 71ab 5c3d
0.05912687 0.13563621 0.15207665 0.011526483 0.03683708 -0.04295002 0.0005333756 0.06257001
-0.05525299 0.045071766 -0.07478345 0.01095422 -0.029233815 -0.008826457 0.030881187 -0.08094814
0.030433891 -0.011442534 0.054420587 0.112004064 -0.01302349 -0.03267405 0.10654842 0.0610599
-0.038843285 0.024946412 -0.013274632 -0.025685715 -0.045470577 0.00056308514 -0.03673993 0.08078835
-0.020971887 -0.059259027 0.029519254 0.09192174 -0.004831512 -0.020789705 -0.048516825 -0.001055612
-0.020008042 -0.072385155 -0.07740949 -0.057134908 0.03087013 -0.0012274194 -0.09954728 -0.11759221
-0.15295058 -0.04018223 0.04381267 -0.020140909 -0.12922741 -0.0009848725 0.05323968 0.0963288
0.018603941 0.03750238 0.07209788 0.050987765 0.07756619 0.11280555 0.062779516 0.14599681
0.06239654 0.054946154 0.057175525 0.062426344 -0.0073077325 -0.060917158 0.024225526 -0.0189809
-0.055991016 -0.023075147 -0.069631636 -0.0537196 -0.061744038 0.028395202 -0.056844067 -0.06548231
0.009693184 0.031742968 0.012144618 0.020646969 -0.012185441 0.005803778 0.0018873671 0.015431153
0.0028520497 -0.041354883 0.048550326 0.07237238 0.027765416 0.09496292 0.03139863 -0.06063477
0.052339528 0.0021636488 0.06772428 0.037037835 0.1251744 -0.04804275 -0.06535425 0.00022589137
-0.015342278 0.043789014 -0.030679991 -0.044403274 0.04556416 0.031884454 0.0612427 0.061101835
0.04192123 0.09981896 0.07969772 0.013396366 -0.020374272 -0.003996754 0.08544641 0.058948204
0.043733213 0.01291817 0.03443661 0.030960934 0.022036996 -0.016153973 0.013354171 -0.018189099
-0.035588514 -0.00011090788 0.03981431 -0.053537365 0.071016915 0.012906373 0.009607212 0.014859876
0.021398878 0.077178776 0.020649865 -0.003699244 0.015776621 0.045726426 -0.026002718 0.016780907
0.06480216 0.029119048 0.08384165 -0.022425866 0.026073815 0.04847938 0.009041641 -0.057346232
-0.034040645 -0.007629554 0.021253612 0.035643276 0.022131437 -0.023636783 -0.010457929 -0.016032841
-0.0403288 0.02444793 -0.024913903 0.00013455647 -0.020685954 0.051901348 0.03537098 -0.050318822
-0.068213865 -0.036926933 -0.024900256 -0.034703482 0.013899389 0.004158448 -0.051314883 0.03131183
0.081188135 0.021799311 -0.005597011 -0.07611766 -0.0138409 0.048172522 0.014104042 -0.010789114
0.06344514 -0.009986257 0.08756004 -0.015223351 -0.01491273 0.08798037 -0.004293172 0.060625643
0.064889476 -0.005452043 0.058232043 0.019166205 0.057685066 0.03528745 -0.026445538 0.05764332
-0.039805703 -0.03056319 -0.08643907 -0.013134343 0.020430828 0.06455981 0.04893488 -0.04458531
-0.004486552 0.035689346 0.033944346 0.073690705 0.032022294 -0.0043753935 0.04594986 0.0055443137
0.03775797 -0.0059405505 0.068603836 0.046950586 0.0015631525 -0.037530836 -0.019792566 0.053748824
-0.0070671346 0.066154964 0.034633964 -0.05004465 0.0043473914 0.03260679 0.05384555 0.06977416
0.08094477 0.044399183 0.02951751 0.020302083 0.08711748 0.056618396 0.08122662 -0.0024705646
0.05225719 0.04653712 0.02307869 0.09133271 0.04935234 0.022448167 0.051137097 0.024628252
-0.05916805 0.019104492 0.0011602518 -0.0413336 -0.15970445 -0.06522426 -0.015762974 0.053874437

fc1.bias f4 [120]
00000000: c085 44bd 627d 443e 0663 6e3d 9795 1e3e
00000010: 9765 41bd b0d6 01bd 8ac7 5e3e 0348 b1bd
00000020: bfd5 ddbc d535 31bd 85fb dbbc ba24 87bd
00000030: 6ff1 523e 6800 f33a c134 ee3d f7c5 07be
00000040: d9e4 53bd 210b af3d 500b a6bc ce99 03bd
00000050: 8ff4 933b f178 3fbc 451c f43d 5652 083d
00000060: 52ec 1d3c 2de1 5a3e 08b6 083e 94cc 503d
00000070: eaa0 f73b dd49 babd 2046 47bc 28ab cdbb
00000080: 1595 753e 2358 fa3d 6bd4 e8bc af58 8b3d
00000090: 6901 913d cf9d eebc cdb1 90bd 3087 b3bd
000000a0: 9a87 1e3d c021 ef3b 5ecf 7f3d d49d 683d
000000b0: b422 213d 8dba 453d cacc a5bc 6cb3 a7bc
000000c0: d580 fd3c 9c29 5b3c 2796 ef3c 23f3 67bd
000000d0: 20ac e93c cf70 4e3c 0361 56bc 9ae1 0b3d
000000e0: 87cf 733e 903a 803d ad34 eebc 7558 c13d
000000f0: 167e 1cbd 622e 0b3e a49b c43d fcaf 863d
00000100: 79f9 193d 035f b1bd 2175 163e a8d2 2bbd
00000110: e87f 913d 270a 9f3d c3a1 fbbc a1fc 083d
00000120: 0194 0bbd bfa6 26bc 010e e6bc 1aa1 88bd
00000130: 070f 13bc 1e55 033e bfa8 11be 916b 5f3c
00000140: 0104 83bc 1962 523d efea 7b3d a1a0 813d
00000150: 8dd0 1b3d ebdf 1d3c 268c 4dbd 1539 183e
00000160: 0578 dcbc effb 5dbd 20f1 41bd a270 b5bd
00000170: 8ef9 7f3d bba7 e13b a68d dfbd 6556 343e
00000180: 3eef 8a3d ac42 fabd b178 06bd a7f1 663e
00000190: 949a 953d 46ee d1bd 41dc 1bbd 8ab3 a8bc
000001a0: d46c b63d 2101 53bd e49f 853c 5bf3 f43d
000001b0: b195 743d 04dc 833c 62ff c0bb 7661 683d
000001c0: ee9f 713e 8e96 3c3c 94f5 96bc 1f88 32bd
000001d0: 77c1 c23d ef4f 0b3e e81d 1b3d bddb e6bc
-0.047979116 0.19188455 0.058199905 0.15486751 -0.047216024 -0.031698883 0.21755806 -0.08656313
-0.027079461 -0.04326423 -0.026853332 -0.06598802 0.20599912 0.001853955 0.11631156 -0.13259111
-0.051731918 0.085470445 -0.020269066 -0.0321291 0.0045152376 -0.0116865495 0.119194545 0.033281647
0.009638863 0.2137496 0.1335069 0.05097635 0.0075570242 -0.090961196 -0.012162715 -0.006276507
0.23982652 0.12223842 -0.028421601 0.068040244 0.07080347 -0.029127983 -0.07065163 -0.08766019
0.03870354 0.0072977245 0.06245362 0.05679114 0.039339736 0.04827361 -0.020239253 -0.020471297
0.030945221 0.01337662 0.029246403 -0.056628358 0.028524458 0.012600138 -0.013084653 0.034150697
0.23809634 0.0626117 -0.029077852 0.094407 -0.038206182 0.13591912 0.095999986 0.06576535
0.03759143 -0.086607 0.14693119 -0.041948944 0.07104474 0.07765608 -0.030716782 0.03344405
-0.034076694 -0.010171591 -0.02808285 -0.06671353 -0.008975751 0.12825438 -0.14224528 0.013636486
-0.01599312 0.051363084 0.061503347 0.06329466 0.038040686 0.009635906 -0.050182484 0.14865525
-0.026912699 -0.05419534 -0.047349095 -0.08859374 0.062493853 0.00688645 -0.10915689 0.17611082
0.06783913 -0.12219748 -0.032829944 0.2255312 0.07304874 -0.10250525 -0.038051847 -0.020593423
0.08907476 -0.05151475 0.016311593 0.11960479 0.05971307 0.016096123 -0.005889819 0.05673357
0.23596165 0.011510504 -0.018427648 -0.043586846 0.09509557 0.13604711 0.037870318 -0.028180951

fc2.weight f4 [84, 120]
00000000: b12d 0ebb b961 b1bd ff8c d4bd 4cbc 883d
00000010: f48b d9bd 1b43 1ebe f7fd 10be d4d9 1a3c
00000020: fb02 98bd 178b 57bc 897c e3bc a090 cfbd
00000030: ad6f ebbd ca43 983c 08c3 d0bd 8d98 65bd
00000040: 8f46 e6bc 7df4 15bd ab5a 263d b319 a9bd
00000050: 9979 18bd 8ba6 8ebb f93c 6d3e b45b 983d
00000060: 6081 e53b 82c9 6ebd 90b4 8bbd 2c55 da3d
00000070: b675 663c 2644 ee3d fc61 86bd fc1e 9fbd
00000080: 5122 73bc 7600 d6bb 29cf e33b 1fab 153e
00000090: 4ce4 6cbd 102a 81bd 97b1 8abd 744e adbd
000000a0: c3df aabc 58ad 113d 2703 c03d 12dc abbd
000000b0: 36aa 0ebe 22ba 80bd 01ac f2bd f996 b53d
000000c0: d267 b63c 6600 2ebd 555a a2bd 9882 31bd
000000d0: bd74 83bd 0d06 0e3d 35f3 f4bb 536b dcbd
000000e0: dc15 643c ebe4 a2bd 0a44 4c3c 3614 1c3d
000000f0: a75e f5bd c40f 6b3c 75ae d13c 6422 823d
00000100: a46d 8b3d eb14 883d ce59 cd3d 42c2 b5bd
00000110: 1260 04bd 0e2a 4d3c d610 9c3d 05ae 1cbd
00000120: 9328 193d 6578 843d 5fb9 73bb 9899 2e3d
00000130: 2c14 71bd 2c17 81bd 87c5 08bd 38e5 b8bd
00000140: 8d3f 103e d26a f83d 5f66 5b3d 1b70 94bc
00000150: 3e65 583b 01ef 743d 7a17 993d 4958 583d
00000160: f678 8fbd 8aad 453d 9674 fe3d f694 b03d
00000170: d8bf bf3d 579c cc3d 5fcc df3c c339 103d
00000180: e8b7 863d 6410 59bd e3bd a9bd 98a4 443d
00000190: af6e c03d 52f9 84bd f0e0 ea3d 0f40 893c
000001a0: 43b3 93bd 2fd3 cf3b 65db fd3c c6a7 debd
000001b0: 2ebd 153d 45a6 713c 1e88 5fbd 893c 67bd
000001c0: 6086 9bbd 59c7 443e 579b a13c 2fdd 98bd
000001d0: 0ff8 d93d fb9a debd ef70 b13d e1f9 c2bd
000001e0: 1f87 cd3d dda8 013b 6339 44bd 9224 d2bd
000001f0: 07ec db3d 684f b8bb fa1b 333d 9189 c1bd
00000200: dc79 943c fff3 55bd cc68 e03c e4b1 11bd
00000210: 6f4d 6c3c be98 393c ff70 1cbd 9f77 29bb
00000220: ffa2 6a3d 3afb babd 25eb 56bd 178b a7bd
00000230: 7cc6 81bd 3024 b2bc 682e b8bd c5bd 2b3c
00000240: ecd2 8fbd d1f0 0b3d 4fb7 d5bd 53a7 3cbd
00000250: bbe8 c73c 33c4 e33d 9a30 debd cecd 003d
00000260: 0288 9dbd 1bdb 16be f876 6e3d 8656 a53d
00000270: 3c21 613d e137 053c abbd ba3d 4318 acbc
00000280: 5f8a 3c3d 8b7b 6e3d a22c 243b 6025 2a3b
00000290: 4b3c b2bc 3d6d a03d ec92 8d3d 91df eabd
000002a0: 5dae 9c3d b83c 8a3d 204b 4bbd db24 a5bd
000002b0: bcf3 b13d c0bd b4bc cb63 903d 81da b7bd
000002c0: 1100 233d 7d7a bcbd 4c4d 323c 3d15 fcbd
000002d0: 5192 5d3d d5b9 6dbd 89d4 b9bc 39d2 27bc
000002e0: 73b7 793d 6ee6 bc3c 8cce 403c 0b49 353d
000002f0: d000 fd3a 073e 99bc bd78 27bd 682f c03c
00000300: 2d6b 933d a8bb 7a3c b269 74bd 2260 d0bd
00000310: 711b a7bd b271 5dbc bd3b f1bc 2bf6 0c3d
00000320: 1fc4 6b3d 5980 b2bb f616 6bbd 5863 8b3d
00000330: a354 703d 0ba2 abbd 46b7 25bd 7308 dd3c
00000340: c708 3bbd 1b90 d13d 3935 973c bf33 d63d
00000350: 0328 0cbd 1210 00be 21f6 dd3d dfd1 923c
00000360: 158d 02bd c536 8dbc efc1 593d a66c 7b3d
00000370: 3ec1 31bb 1025 31bd f0eb 2ebd a571 9aba
00000380: 5823 21bc ba16 e73c 9586 f33d aa1a 08bd
00000390: 8b80 283d b06d d6bd f539 1f3d c9ff a5bd
000003a0: 5914 163c 1219 edbd 99fa e03d 37d7 ce3d
000003b0: 63ed dabd 5961 fa3d 462e 1abd cb49 4e3c
000003c0: 708f a93d ae51 483d b00b 59ba 2bef 033c
000003d0: 8859 85bc 6e04 92bc 72ef bd3d 662a 103e
000003e0: 3942 dd3c bb48 893d fb1c 7dbc 68a4 9a3d
000003f0: 7130 403b a41b 96bd 109e 8d3d 72bd 513c
-0.0021694715 -0.08661217 -0.10378455 0.0667654 -0.10622397 -0.15455286 -0.1415938 0.009451348
-0.074224435 -0.01315572 -0.027769344 -0.10135007 -0.1149591 0.018587012 -0.10193449 -0.056053687
-0.028109817 -0.036610115 0.04061381 -0.08256855 -0.03722534 -0.0043533496 0.2316779 0.07439366
0.007003948 -0.05829764 -0.06821549 0.106607765 0.01406615 0.11634092 -0.06561658 -0.07769582
-0.014839725 -0.0065308167 0.0069521856 0.14616059 -0.05783491 -0.06306851 -0.06772154 -0.08462229
-0.020858651 0.035565704 0.09375601 -0.083915845 -0.13932118 -0.06285502 -0.118492134 0.088666864
0.022266302 -0.04248085 -0.07927386 -0.043337435 -0.064187504 0.03467374 -0.0074752816 -0.10762658
0.013921227 -0.07953819 0.012467394 0.038105212 -0.11980944 0.014347021 0.025595883 0.06354216
0.06808022 0.06644615 0.100268945 -0.08874942 -0.032318182 0.012522234 0.07620399 -0.038251895
0.03739221 0.06468276 -0.0037189347 0.042626947 -0.058857128 -0.06303248 -0.0333915 -0.09028095
0.14086743 0.12129749 0.053564426 -0.018119862 0.003301933 0.059798244 0.07475181 0.05281857
-0.07005493 0.048261203 0.12424581 0.08622162 0.09362763 0.09990757 0.027319131 0.035211336
0.06578046 -0.052994147 -0.08288171 0.04800853 0.09396111 -0.064928666 0.11468685 0.016754178
-0.07211926 0.0063423137 0.030988405 -0.10871844 0.03655737 0.014749114 -0.05457317 -0.056454215
-0.07593989 0.1921667 0.019727392 -0.074640624 0.106430165 -0.10869404 0.086641185 -0.09520317
0.10035538 0.0019784488 -0.04790629 -0.102608815 0.10738378 -0.0056247003 0.043727852 -0.09450067
0.018124513 -0.052234646 0.027393721 -0.03557004 0.0144227585 0.0113279205 -0.0381937 -0.0025858653
0.05728435 -0.09129949 -0.052470345 -0.08180826 -0.06336686 -0.021745771 -0.08993226 0.010482256
-0.07022652 0.034165207 -0.10435354 -0.04605801 0.024402967 0.111214064 -0.10849114 0.03144627
-0.07691957 -0.1473202 0.058218926 0.08073144 0.054963335 0.008130998 0.091182075 -0.021007663
0.0460304 0.05822329 0.0025051017 0.0025962219 -0.021757266 0.078333355 0.06912789 -0.11468423
0.07650445 0.067498624 -0.04963219 -0.0806367 0.08689067 -0.022063136 0.07050284 -0.08977223
0.039794985 -0.0920305 0.010882687 -0.123087384 0.054094616 -0.05803855 -0.022684352 -0.010242992
0.060965966 0.023059096 0.011767995 0.044259112 0.001930261 -0.018706335 -0.04088663 0.023460105
0.071981765 0.01530353 -0.05967111 -0.10174586 -0.08159531 -0.013515877 -0.02944743 0.03441445
0.057560083 -0.005447429 -0.057394944 0.06806058 0.058674466 -0.083805166 -0.040457986 0.026981568
-0.045662668 0.10232564 0.018457996 0.104590885 -0.034217846 -0.1250613 0.10837961 0.01792234
-0.031872828 -0.01723803 0.053163465 0.061382912 -0.0027123238 -0.043248236 -0.042705476 -0.0011783136
-0.009835087 0.028209079 0.11890904 -0.033228554 0.041138213 -0.1047014 0.03887363 -0.08105428
0.009160125 -0.115770474 0.10985298 0.10099643 -0.10689809 0.12225599 -0.037641786 0.012590836
0.08279312 0.04890602 -0.00082796346 0.008052628 -0.016278043 -0.017824378 0.09274186 0.14078674
0.027009116 0.06703325 -0.015448804 0.07550889 0.0029325748 -0.07329491 0.06914914 0.012801515

fc2.bias f4 [84]
00000000: acdf 053d b82b 07be 8ee9 783d 62be 793d
00000010: b48d 033d 4a51 ebbd e139 463e 9963 2bbd
00000020: fb21 f23c f5f5 db3d 8ef6 fcbd e74b 353e
00000030: 73fc c53d 4247 b4bd cb5f e33e aed4 a8bb
00000040: fc3f 083e 84a3 ec3d 730f 3f3e aab3 113f
00000050: bae2 46bd 06b5 a1bd d5a8 84bc 0db3 b13d
00000060: aaf7 3abd f7fe d83d c858 313e 9ecb 8abc
00000070: a5db a03e 7daa aebc 35bc 4c3e 3cb7 c93d
00000080: 5b49 a73d b8eb 043d b570 93bd f935 e03d
00000090: 8a4d d83d fe4b 91bd 50cf c2bd 11fe a1bd
000000a0: ad9d 77bb b031 b63e af68 a3bc b3ac 283e
000000b0: bbce d6bd 71f3 1ebd c477 9cbd 878e 943b
000000c0: e001 2a3e 8497 ae3d 61ca 313d 5fde 52bd
000000d0: 2442 803c 3213 b1bb c63a 833d b5f8 16bc
000000e0: 6750 71be 19e0 9b3e 8900 033c 5f0f 3a3e
000000f0: e91a afbd 9b06 cb3d a193 87bd 5c1f ef3c
00000100: c12b b53b 262c 5f3e a8e8 833e 2fb4 813e
00000110: ff10 80bd 8894 17bd 4f51 d63d 3ae3 203e
00000120: edf5 333d 4603 8ebd 02a6 e13d 1e69 2dbd
00000130: ba60 fe3d edff c43d b926 af3d cdf5 483c
00000140: eac6 9bbd 402f 9dbb 6e30 9a3d 0c1c 203e
0.032684013 -0.13200271 0.06076961 0.06097258 0.03211756 -0.11490114 0.19358017 -0.04184303
0.029557219 0.10740272 -0.12351714 0.17704736 0.096672915 -0.08802654 0.44409022 -0.0051523065
0.13305658 0.11554626 0.18658237 0.5691477 -0.048556067 -0.078958556 -0.016193787 0.08676729
-0.045646347 0.10595506 0.17319024 -0.016942795 0.31417575 -0.02132153 0.1999367 0.09849402
0.08168288 0.03245136 -0.071992315 0.109477945 0.105616644 -0.070945725 -0.09512198 -0.079097874
-0.003778319 0.35584784 -0.019947378 0.1647213 -0.104886495 -0.038806383 -0.07640031 0.004533592
0.16602278 0.08524993 0.043405894 -0.0514816 0.015656538 -0.0054038996 0.064076945 -0.00921457
-0.23565827 0.3044441 0.007995733 0.18169926 -0.085500546 0.09913369 -0.06619955 0.029189758
0.0055288975 0.21794185 0.2576344 0.25332782 -0.06253242 -0.037006885 0.10464727 0.1571168
0.043935705 -0.06934218 0.110179916 -0.042336576 0.12420793 0.096191265 0.08552308 0.012265635
-0.07606299 -0.0047968924 0.075287685 0.15635699

fc3.weight f4 [10, 84]
00000000: a9ce d3bd fd98 4bbc e7d5 6dbd 991a 53be
00000010: fd1e a63e 4617 033e 9402 423c 3728 a7bc
00000020: 9027 86bc ce4f e23d 9178 97bd 469b 81bc
00000030: 6e3d 9ebd 2488 023e 30ac 573e c1b5 c0bd
00000040: a2ab 913e 1204 de3c 80f9 633d 6e6e 37be
00000050: 316b 953d a74c 1dbe edba c23d dde9 a43e
00000060: e667 433c cdf0 343c a176 a23d 0431 cfbd
00000070: da71 efbd 16e9 fd3d 20a6 c4bd 7405 4f3e
00000080: 6b9a 043b 8adb a63d 0b37 983c 0fe6 653d
00000090: 6298 ab3d a7bc f13c 8ba8 0b3d f700 393e
000000a0: 44c7 92bd 26fd bcbe 0a8e c73c 7f6e 5c3c
000000b0: 7545 7e3d 6010 ed3c 0cc7 b13b 54ad 3a3d
000000c0: 7d65 8e3e 64b4 0b3e 4843 bf3d 84c2 8fbc
000000d0: 0397 5dbd 2224 243e fb5c ba3d b072 f2bc
000000e0: 33cc 75bc 43df 52be ef1a a7bd 54f8 a1bd
000000f0: afd5 763d 3483 373c 8ee8 963c 92d0 03bc
00000100: 3929 79bd 02af e13d a3de 1fbe f0fa 013e
00000110: 5373 35bd 1528 48bc d55d 7f3d c9b0 753e
00000120: 36a2 d5bd d820 6c3e 3657 243d bef8 b13d
00000130: ebc1 6abd 6801 efbc 3194 48bd 8cb5 963c
00000140: b84a 8d3c f98b 853e 1b0d 53be 0ff3 013e
00000150: 697e 4ebe 4315 0b3e f44a cc3d 19d2 243e
00000160: c050 a1bd 43dd 563e d988 61bd 11e6 6a3c
00000170: 9824 8fbd f5ee fe3d 8ebf 233e 94b2 eb3d
00000180: 0afa 243e b7d2 62bc 4498 89be 7d01 03bb
00000190: 3de5 45bb 3169 4cbc 41c8 92be a34e b0be
000001a0: 3a63 ab3d ecb4 3c3c a667 1a3d 8bcb df3d
000001b0: efe6 a3bd b6c2 71be 6074 803e 5c19 fbbc
000001c0: e6c1 55bc 513d d5bc 03ec a2bd ef4f 17be
000001d0: db22 583e 8b27 933e 7308 d43d b409 6e3d
000001e0: 7c85 aebe f1bb d33c f5ff 873d de79 413e
000001f0: 3db8 0f3e 097f 66be 1e8d d4bd 8428 7fbe
00000200: 2619 5d3e 4d98 8a3c 5a73 203d ff03 49be
00000210: 3415 3a3e b90e 993d 95c4 c83e a671 b4bd
00000220: 52cf 6b3d a2d9 f1bd 3057 543e 144b 0bbd
00000230: 9f49 833e e391 5fbe e290 72bd 441a fcbc
00000240: b930 4cbd 4d43 c6bd 843d 20bc cb64 ef3d
00000250: ea15 843c 14c9 5abd e4b9 70be 811a 31be
00000260: fb74 d73d 5f29 dfbc b31a fd3d e97d b5bd
00000270: 0f06 033e 4dd5 ca3d cedc 6abe 6b8f 04bd
00000280: bbce 28be 6fd1 073e e21a 203d 9909 0dbd
00000290: 3842 3abd 6451 933d 45a7 393e 7ba7 c03d
000002a0: f056 2dbc 3842 87bd 55a7 3abd 2f32 8d3e
000002b0: 3fcc c63d 1657 e93d 05f0 5e3e 8f26 42bd
000002c0: 2188 1d3d f9f5 39be 5f9f 033e 61c2 343d
000002d0: 85c6 533d f733 3f3e 3a37 6b3d c6e1 f4bc
000002e0: 2065 85bd 1e02 8f3e 41d9 febc 6d3f a13d
000002f0: ce5e 0bbd 5e39 3fbe 6706 fabc 7c83 93bd
00000300: 0d5b 133c f142 843e 46f6 61be 52bc 10bb
00000310: 0a88 c5bb 1eca 71bd 9b9e 22bd 1827 f13d
00000320: 260b debd c834 013d 25d4 8fbd 5419 68bb
00000330: f292 163e 0b19 cabd a070 e9bc c289 b0bd
00000340: 75f5 a23d 78b2 683e 9d29 673e 7384 06be
00000350: e6a3 a3bb 78a0 0d3e e753 b1bd 1b25 2b3e
00000360: a932 d63d 59ef 333d d2cd 36be cd8a 433d
00000370: acd5 13be 8296 2b3e 726b 3ebe b7fb babd
00000380: 4e3d a53d 7da8 eebd c32d a8bd 9aa4 433e
00000390: 4813 32bd 4c19 a73e e13b 253d c2d8 abbd
000003a0: f73c 6a3d e121 683e 977c 323e f081 debc
000003b0: f874 d33c 4a49 e1bc b147 23bd 095b df3d
000003c0: ec68 20be 91d8 98bc 6131 d83d 2d5d e0bd
000003d0: aa2e b3bc 982f 9cbd 4ada dbbd 0349 813c
000003e0: 420e 87bd d376 b83b 8e29 653c 3454 63be
000003f0: 7a03 e13d a6ed 07be 202b 063e 3ce8 b13c
-0.10342152 -0.012426612 -0.05806532 -0.20615615 0.32445517 0.12801847 0.011841435 -0.020404918
-0.016376287 0.11050378 -0.07396043 -0.01582111 -0.077265605 0.12747246 0.21061778 -0.09409667
0.28451258 0.02710155 0.055657864 -0.1791322 0.07295836 -0.15361272 0.095083095 0.32209674
0.011926627 0.0110437395 0.07932783 -0.10116771 -0.11691637 0.12397973 -0.09601998 0.20216924
0.0020233642 0.081473425 0.018580934 0.056127604 0.08378674 0.029508902 0.034096282 0.18066774
-0.07166913 -0.36911887 0.024359722 0.013454079 0.062077958 0.028938472 0.0054253396 0.045575455
0.27811804 0.13643032 0.09339005 -0.017548807 -0.054099094 0.16029409 0.09099766 -0.029595703
-0.015002298 -0.2059298 -0.08159434 -0.07908693 0.06026238 0.011200715 0.018421438 -0.0080453325
-0.06083033 0.11019708 -0.15612273 0.12693381 -0.044299435 -0.012216588 0.062345345 0.2399322
-0.1043133 0.23059404 0.040122233 0.08690022 -0.05731384 -0.029175475 -0.04896945 0.018397115
0.017247543 0.26083353 -0.20610468 0.12690376 -0.20165409 0.1358233 0.09975234 0.16095771
-0.0787673 0.20982842 -0.05506215 0.014337079 -0.069894016 0.12447921 0.15991041 0.115086704
0.16111007 -0.013844184 -0.26873982 -0.00199899 -0.003019645 -0.012476251 -0.28668407 -0.34434995
0.08368535 0.0115177445 0.037696503 0.109274946 -0.080030315 -0.23609433 0.25088787 -0.03065174
-0.013046717 -0.026030215 -0.07955172 -0.14776586 0.21107046 0.28741106 0.10353174 0.058114722
-0.34086215 0.025846453 0.06640617 0.18894145 0.14035125 -0.22509398 -0.103784785 -0.24917799
0.21591625 0.016918326 0.039172508 -0.1963043 0.18172151 0.07473511 0.3921248 -0.08810739
0.057570763 -0.11809088 0.20736384 -0.034007147 0.25642106 -0.21832995 -0.059220202 -0.030774243
-0.049851153 -0.09680805 -0.0097802915 0.116891466 0.01612373 -0.05341442 -0.23508412 -0.17295267
0.10520359 -0.027241407 0.12358608 -0.08861906 0.1279528 0.09903965 -0.22935793 -0.032363337
-0.16485111 0.13263486 0.039088137 -0.03443298 -0.045473307 0.071932584 0.18130215 0.09406944
-0.01057981 -0.06604427 -0.045569737 0.2757735 0.097069256 0.113935634 0.21771248 -0.047400054
0.0384599 -0.18160237 0.12853764 0.044130687 0.051702995 0.18672167 0.057425715 -0.029892813
-0.06513429 0.27931303 -0.031109454 0.07873426 -0.03402596 -0.18674228 -0.030520631 -0.07202813
0.008993876 0.25832322 -0.22066602 -0.0022084904 -0.00602818 -0.059030645 -0.03970204 0.11775035
-0.1084197 0.031544477 -0.07022885 -0.0035415487 0.14704493 -0.09868058 -0.028496087 -0.08620025
0.079569735 0.2272433 0.22574468 -0.13136463 -0.0049939035 0.13830745 -0.08658581 0.16713373
0.104588814 0.04392943 -0.17851952 0.047739793 -0.14436978 0.16756633 -0.18595675 -0.09130042
0.080683336 -0.1165323 -0.08211853 0.1910576 -0.04347542 0.32636487 0.040340308 -0.08390953
0.057187047 0.22669174 0.1743034 -0.027161568 0.025812611 -0.027500767 -0.039863292 0.109060355
-0.15665025 -0.018657954 0.10556293 -0.10955272 -0.021872837 -0.07626265 -0.10734995 0.015781885
-0.06594516 0.0056293993 0.013986958 -0.2220009 0.10986991 -0.1327425 0.13102388 0.021717183

fc3.bias f4 [10]
00000000: 5b0e 4cbe 35f6 fcbe 2aa3 88bd 1e65 f83e
00000010: 2524 fe3e ae3c 563d e587 ff3d 6f27 88be
00000020: b20e d53e 029b 62be
-0.19927351 -0.4940659 -0.06671746 0.48514646 0.4963695 0.052303962 0.12477092 -0.26592585
0.41612774 -0.22129443
