mnist.pth (torch_old, 88684 bytes, 8 tensors)

conv1.weight f4 [10, 1, 5, 5]
00000000: b017 4ebd 5663 92be 419c 74bd 2d71 15be
00000010: c1bb 50be 5e25 36be 538f 6fbe 7a71 9bbc
00000020: c667 823d 6dbe a13e f232 45be f862 923e
00000030: 6eff dd3e fec4 133e d021 6cbd 94ef 303e
00000040: 25e3 a7bb 0edd 9a3d f2b2 3abe a58b a9bd
00000050: 9f45 e3bd 339d 753d ff60 adbe 6258 1fbe
00000060: 6c67 8cbd 1e91 213e a8dd 37be 0959 a2be
00000070: a51f 13be 52be 9fbd 8dff 7c3e 7c2a 89bd
00000080: f183 d0be 73f8 1dbe 0ed5 0ebd 6cb2 513e
00000090: f97b a4be ed27 bebe 41e1 e3bd a37c 8e3e
000000a0: 7ee5 15bd d440 a3be 0cc8 ffbd 1ea3 e3bd
000000b0: d8e0 ce3e 08db 9ebe a68f c5be 0bf1 70be
000000c0: 1d87 dabd 0f80 913e f2de 06be 2f40 2b3d
000000d0: 656e 873d 8bbd a6bc a812 223e 1074 853e
000000e0: 3ca4 4a3e 1b45 53be d904 54be a2f4 323e
000000f0: 2d8c 2dbd 6409 9dbd a77f 553e bba9 073d
00000100: d7c0 703c 61d3 41be e793 6e3e 4ba3 5b3e
00000110: fd57 623e 469b 193e bb0f 87be aada c9be
00000120: ac7b babe e230 a6be 67c1 fcbe 75a1 e53d
00000130: 6348 1e3e 8c0d 923e e7ac ca3d a17f 00bf
00000140: 88a4 e4bd b477 b73d 1156 b5bd 35e0 a3be
00000150: a72a a6be 4b45 b1bd ebed 9abd 77ba bfbe
00000160: 7076 a2be e092 683b aba1 4ebe 7e70 2abe
00000170: 9ad7 6abe 04b7 32bc 765f 843e ee25 49be
00000180: 5de2 a1be 9618 4abd 2477 b93d 97b4 b53d
00000190: 7cbb 8cbe 1c0b 61be 2ff4 b2be e659 a3be
000001a0: 3b0a a7be d56c a4be 2aff 9b3d f1a4 d43d
000001b0: 024a 1d3e f731 d33d aa4e 503d 0f64 2a3e
000001c0: 3518 7b3d feef f83d ea2a 52bc 660e ce3d
000001d0: f310 23be 3d02 06be 4d91 083e 603b 8dbd
000001e0: 57b6 013c f9f5 093e c930 0d3e e7c4 893c
000001f0: 943c 123e aa78 f4bd 26d9 0b3c fa23 693e
00000200: ef9a 223e c974 82bd 1939 87bd 98d4 67be
00000210: 5b4c 64bd 5150 5d3e c959 093e 9019 20be
00000220: 4474 a93b 4580 47be 5997 713d db16 2dbb
00000230: ebab b7be ae2b 1fbe a3ad 9abd 08bb a0bd
00000240: 19bb 233e 90ba c3bd 82aa c2bd b330 babd
00000250: 4b6d d83d a79d 593e dce2 8bbd c61f 9e3e
00000260: d6d7 993e a069 323d 4f87 7a3e d8cd debe
00000270: 2d63 26be d903 513d 31f3 b53d ad23 a73d
00000280: baee 05bf 3219 97be 2367 fc3c d417 af3d
00000290: bc25 333d c284 99be 91b6 ebbe d320 bebe
000002a0: 0ad3 0abe 2b39 e4be e11e d73e aeb3 92bd
000002b0: 125e 4abe dc03 bebe 238d 1fbe 01ea 753a
000002c0: 271e 9fbd 5af7 17be e780 21be f103 49be
000002d0: 3f7c b23e d3f6 cabc d132 fcbd eacf 7bbe
000002e0: 8e33 fb3c dea6 8a3e 3588 6bbd 588d 48be
000002f0: 0035 74be 43d9 d5bd c90a 733d 91a7 303e
00000300: 3564 27be 38a9 07bd db74 c43c 605a 123e
00000310: 1647 1d3e 8833 213d e9d8 873d b7b8 d1bd
00000320: e7e5 35bd 8c00 f93c d888 aebe 5a3e 62be
00000330: baab 783e 69fd 803d 8ed5 1abd f988 78be
00000340: 973e 91be 5c6e 1fbf c6f3 01be 25bf 8b3e
00000350: c6bc ba3e 37e5 dabd bd7f 2dbe a349 9c3d
00000360: 6e4c fd3c e072 293e 4678 d33e cacd 833e
00000370: b517 85be cec9 ffbd 310f a7bd c6c2 d63d
00000380: 3295 c03d 6235 4f3e 7cf7 8bbd ca8f e5bd
00000390: e350 bf3d 898b 813d cadd 0ebe 6a43 c3be
000003a0: 7e96 8fbd a05b c53d bda4 0b3e 5556 08be
000003b0: 0387 45be 1f9a e13e d947 723e 4f7e ffbd
000003c0: 8524 88bd 4ba6 e73e eff3 c03d 0f47 dfbd
000003d0: c3c7 47be 6c5f 563e ba4f 103c d153 05be
000003e0: 4715 1fbe 2dc4 713d
-0.05031556 -0.28591412 -0.059719328 -0.14593954 -0.20384122 -0.17787692 -0.23394518 -0.018975008
0.063674495 0.31590596 -0.19257715 0.28591132 0.4335894 0.14430615 -0.057649434 0.17278892
-0.0051235133 0.07561694 -0.18232325 -0.08278588 -0.110972635 0.05996437 -0.33863065 -0.15561059
-0.06855664 0.15778014 -0.17955649 -0.31708553 -0.1436754 -0.077999726 0.2470686 -0.066975564
-0.40725663 -0.15426807 -0.034871154 0.20478219 -0.32125834 -0.37139836 -0.11126948 0.27829465
-0.036595814 -0.31885397 -0.12489328 -0.111150965 0.40405917 -0.31026483 -0.38586158 -0.2352945
-0.10670302 0.28418013 -0.13170984 0.041809257 0.06612853 -0.020354053 0.1582743 0.2606511
0.19789213 -0.2063183 -0.20704974 0.17476133 -0.04237001 -0.07667807 0.20849477 0.033120852
0.014694414 -0.18928291 0.23298608 0.2144901 0.22103877 0.15000638 -0.2637919 -0.3942464
-0.3642248 -0.3245917 -0.49366304 0.11212436 0.15457301 0.2852596 0.0989626 -0.50194746
-0.11164194 0.089583784 -0.088543065 -0.32006994 -0.32454416 -0.08655795 -0.075649105 -0.3744695
-0.31730986 0.0035487935 -0.20178859 -0.16644475 -0.22933808 -0.010907892 0.2585408 -0.19643375
-0.31618014 -0.049339853 0.090559274 0.088723354 -0.2748679 -0.21976894 -0.34951922 -0.31904525
-0.32624993 -0.32114282 0.07617028 0.103830226 0.15360263 0.103122644 0.05085627 0.16639732
0.061302382 0.1215515 -0.012827614 0.1006134 -0.15924434 -0.13086791 0.13336678 -0.068960905
0.007917008 0.13472737 0.13788141 0.016817523 0.14280921 -0.11937077 0.008535659 0.2276763
0.15879415 -0.06369931 -0.066026874 -0.22639692 -0.05573688 0.2161267 0.13413157 -0.15634751
0.0051713306 -0.19482525 0.058982227 -0.0026411328 -0.3587335 -0.15544006 -0.0755265 -0.078481734
0.15989341 -0.09557068 -0.09505178 -0.0909132 0.10567721 0.21251546 -0.06830379 0.30883616
0.30047482 0.043557763 0.24465679 -0.4351642 -0.1624877 0.05102906 0.08884276 0.081611015
-0.5231739 -0.2951141 0.030810898 0.08549467 0.04373716 -0.299841 -0.46037725 -0.37134418
-0.13557068 -0.44574866 0.42015746 -0.071631774 -0.19762447 -0.3711232 -0.15581183 0.00093808776
-0.07769423 -0.14840451 -0.15771829 -0.1963041 0.34860417 -0.024775898 -0.1231438 -0.24591032
0.030664232 0.27080435 -0.057502944 -0.19585168 -0.23848343 -0.1044183 0.059336457 0.17251422
-0.1634682 -0.033120364 0.023981502 0.14292288 0.15359148 0.039355785 0.06633169 -0.1024031
-0.044408705 0.030395769 -0.34088778 -0.22094098 0.24284258 0.06298334 -0.037801318 -0.24271001
-0.28368065 -0.6227777 -0.12690648 0.2729427 0.36472148 -0.106882505 -0.1694326 0.076312326
0.030920234 0.16547728 0.413027 0.25742942 -0.2599465 -0.12489663 -0.081571944 0.10486369
0.09403457 0.20235208 -0.06834313 -0.11209066 0.093416 0.06325442 -0.13951793 -0.3813737
-0.07011126 0.09636617 0.13637061 -0.13314183 -0.19289784 0.44062898 0.2366022 -0.12475263
-0.066475905 0.4524406 0.09421527 -0.10902225 -0.19509797 0.20934838 0.008808071 -0.13020255
-0.1553546 0.05902498

conv1.bias f4 [10]
00000000: 3565 e4be 81e6 39bf db3f dfbe afe5 d6be
00000010: df0a d5be e837 f6be cda0 0fbf c6ac 0ebf
00000020: cfad d0be 970f 07bf
-0.44608465 -0.72617346 -0.43603405 -0.4197211 -0.41609856 -0.48089528 -0.5610474 -0.5573238
-0.40757605 -0.52758163

conv2.weight f4 [20, 10, 5, 5]
00000000: 2a97 9d3d a8a5 273e 8f97 d53d 7628 b23d
00000010: 710c 8b3d ecde 13bd a3d0 4bbc 18cd 1bbb
00000020: 2dca f83c 21e5 9c3c 1585 1bbe 1f54 05be
00000030: b829 9bbd 0b87 c7bd 9749 90bd c493 6f3d
00000040: 7d61 8dbd 0650 bebd bb7b dbbc c764 ae3b
00000050: 9498 523e 5074 4e3d a78c b1bd 9be5 b5bd
00000060: 0730 cebb 50d9 f2bd 641d 2abd b885 753d
00000070: 23a1 f83c e022 9e3d fe0c 08be 73fd 61bd
00000080: 7a66 99bd 07f7 21be 6ef5 43bd 1d7d 01be
00000090: bfae 41be f2f0 34be d770 2bbd 3b43 423d
000000a0: 262c 07bc 8ef5 8abd 9077 16bc 4e8b 303c
000000b0: f0f6 123e 409b f03d a6a4 a53d f270 38bd
000000c0: e427 04bd 556b 6dbd 5ae2 af3b c557 eb3d
000000d0: 3649 e43d 7eb9 313e 151b 2a3d 4b99 7cbd
000000e0: d4a7 17bc 40cf 973d 14c2 083d a74e 10bd
000000f0: 519f 353b fd4e 03be a4d6 95bd 49e3 0dbe
00000100: 1eed 8ebd d7d0 c03c 6b22 d6bc 8f03 9e3c
00000110: 57a4 20bd eb05 ba3c 7cd1 99bd ce5f 91bc
00000120: c5b1 a8bd 32cd a3bd 7bb4 21bd 0864 8c3c
00000130: 0073 86bc 5019 7d3c 1896 c93d a39c a23d
00000140: 1459 bfbc d09d 133d 72e5 abbc 36ae f93d
00000150: 7400 783e 1e62 193c 2e7b 903d e67c f53c
00000160: 9a00 153e b30d 493e 2685 673d 84ac 67bd
00000170: 84dc 8dbc d617 d0bd ccb1 b0bc 52dc 22bd
00000180: 8bfb ddbd d055 0cbe c60b 1cbd d3f5 0bbe
00000190: f46a 203c 21ff 82bd 66b6 77bd e6a9 5fbd
000001a0: 8f71 3dbd ace8 84bd 4f53 16bd 5666 dabc
000001b0: 23da 9dbd c4b2 52bd b0b2 76bc 8486 fc3c
000001c0: 221d ad3d d985 91bb d9eb 773d 959d 843d
000001d0: 59d9 513d 0b63 1e3d bdae b6bc 8e38 1f3e
000001e0: 2b1c 803e 2eff 353e 4b18 023d e11f 1fbd
000001f0: bbba 0b3c f05a 69bd 9df6 cebc 8fa9 b23d
00000200: d020 f13a 76bd 28bd 892f 59be b447 5e3c
00000210: ad78 a4bd bf71 1abe 3414 4bbe 18c0 38be
00000220: dedb d2bd a696 e5bd 4351 21bd 8a43 bbbb
00000230: 01b2 d3bc 6649 853c 6f22 c4bd 5ece 2cbc
00000240: 66f1 b93d 0472 67bd 4ae4 40bd ca1e 72bc
00000250: b64b 833d 01aa 8a3d fcad 0dbd a9a5 53bd
00000260: df2b c63a d006 663c 6418 8cbc f76d 74bb
00000270: 039e 943d 6f7e 2a3e 442e 023e bd0c 143d
00000280: c3e3 13bc 8503 fa3d 6b8d 083e f163 9b3c
00000290: fe30 8ebd fab3 c4bc 7ec6 67bc 1b9f 88bd
000002a0: a54c 3cbd 8863 b33d 0215 04be f204 f1bb
000002b0: 331b 8f3d ac12 a9bc 0ab3 dc3c c02b 51be
000002c0: c68c 0abe 2f3b 2abd 7124 e9bd 33a0 fbbb
000002d0: e71d 80be 7bc0 febd 7ddf ebbd 847f 32be
000002e0: 6575 f9bd 5bd9 1cbd ac72 2bbc 3996 93bd
000002f0: 5845 12bd 8384 ffbd a0d0 00be cb27 333d
00000300: fae1 3a3d f577 1e3e 7629 81bc acef dcbd
00000310: d3f3 003e 3d41 d73d 2eb1 c73d 4d7f 7d3d
00000320: de95 62bc 1b49 f1bb b49c ffbd dfb5 aabd
00000330: a588 c6bd 8285 37be 937b cfbd 3823 b3bd
00000340: 9c80 f1bd 7a87 e7bc d3a4 6f3d 9afd d73d
00000350: 936d 24bd f14a 19bd 180e da3d e341 d73c
00000360: e3c1 0a3d 1036 cdbb fb80 cb3d 502a 1f3e
00000370: 77ec 413e ff31 46bd 66c5 68bd e9c8 e43c
00000380: bd28 aebd c535 403d 8246 7e3d a225 813d
00000390: b538 f93c cec3 8c3d b1a6 85bc d292 39be
000003a0: a882 c8bd a186 e4bd 7a11 9cbb 6a01 19be
000003b0: 2ebb 4dbe f833 b2bd 5723 3ebe 31a5 2cbe
000003c0: d06c 363d 668f b93c 3020 00be 4311 84bc
000003d0: 3d26 ecbb ecf3 8d3e f3b2 803d f260 febd
000003e0: b73e 75bd 28ad 03bd 75dd 923c 4f3e a4bc
000003f0: ee84 e23d 678a 453e b0ab 05bb 0e85 793c
0.07694848 0.16371787 0.10429298 0.086991236 0.067894824 -0.036101267 -0.01243988 -0.0023773368
0.030369842 0.019152226 -0.15187486 -0.13020371 -0.075763166 -0.09742554 -0.07045286 0.05849053
-0.0690336 -0.09292607 -0.026792398 0.005322072 0.20566016 0.050403893 -0.086694054 -0.088816844
-0.0062923464 -0.11857855 -0.041531935 0.059941977 0.030350273 0.07721496 -0.13286206 -0.05517335
-0.07490249 -0.1581689 -0.047841482 -0.12645383 -0.18914317 -0.17670038 -0.04185566 0.047427397
-0.008250272 -0.06785117 -0.009183779 0.0107754 0.14352012 0.117483616 0.08088045 -0.045029588
-0.032264605 -0.057963688 0.0053675594 0.1149135 0.111467764 0.17355916 0.041529734 -0.06166963
-0.009256322 0.07412577 0.033388212 -0.03523126 0.0027713368 -0.128231 -0.0731633 -0.13856234
-0.0697882 0.023537083 -0.026139459 0.019288806 -0.039219227 0.0227079 -0.07510659 -0.017745879
-0.08237032 -0.07998122 -0.03947876 0.017137542 -0.016412258 0.0154479295 0.09843081 0.07940032
-0.023357905 0.036039174 -0.020983431 0.12191431 0.24218923 0.009361772 0.07054745 0.029966783
0.1455101 0.19634132 0.056523465 -0.056561008 -0.017317064 -0.10160796 -0.021569155 -0.039760895
-0.10838994 -0.1370461 -0.038097166 -0.13667993 0.009791125 -0.06396318 -0.060476683 -0.054605387
-0.046250876 -0.06489691 -0.036700543 -0.026660126 -0.07707622 -0.051440015 -0.015057251 0.03082586
0.08452822 -0.0044410047 0.060527656 0.06475369 0.05123267 0.038668673 -0.022300119 0.15548918
0.2502149 0.17773125 0.03176145 -0.03884876 0.008528407 -0.05697149 -0.025264079 0.08723747
0.001839662 -0.04119631 -0.2120954 0.0135669 -0.080308296 -0.15082453 -0.19831926 -0.18042028
-0.102958426 -0.112103745 -0.039384138 -0.0057148384 -0.025841715 0.01627035 -0.0957688 -0.010547249
0.09079246 -0.05650522 -0.047092713 -0.0147778485 0.06410925 0.06770707 -0.034589753 -0.051671658
0.0015119276 0.01403971 -0.017101474 -0.003729699 0.07256701 0.16649793 0.12712961 0.03614496
-0.009026471 0.122077025 0.13335197 0.018968554 -0.06942938 -0.0240116 -0.014146445 -0.06670972
-0.04597153 0.087592185 -0.12898639 -0.007355326 0.0698761 -0.020638786 0.026940841 -0.20426846
-0.13530263 -0.041560348 -0.11383904 -0.0076790093 -0.25022814 -0.124390565 -0.115172364 -0.17431456
-0.12180594 -0.038293224 -0.010464352 -0.07206387 -0.035710663 -0.124764465 -0.12579584 0.04373912
0.045625664 0.15475447 -0.01576684 -0.10787901 0.12593012 0.1051049 0.09750591 0.06188898
-0.013829676 -0.007363451 -0.124810606 -0.083354704 -0.096940316 -0.17922023 -0.10130992 -0.08746952
-0.117921084 -0.028262842 0.058506798 0.105464175 -0.04014356 -0.037424985 0.106472194 0.026276534
0.03387631 -0.0062625483 0.099367104 0.15543485 0.1893786 -0.048387524 -0.05682888 0.027927833
-0.08503864 0.04692628 0.06207896 0.06306006 0.030422548 0.06873284 -0.016314836 -0.18122414
-0.09790546 -0.11158491 -0.0047628256 -0.14941946 -0.20090935 -0.087013185 -0.18568169 -0.1685989
0.044537365 0.022651386 -0.12512279 -0.016121512 -0.007206707 0.2772516 0.06284132 -0.124208346
-0.059874263 -0.032147557 0.017927865 -0.020049242 0.110605106 0.19291078 -0.0020396523 0.015229477

conv2.bias f4 [20]
00000000: fb82 18bd a8b5 45bd 2273 1b3d 8d34 cabd
00000010: d7b6 eabc a768 60bb 6f45 07bc d1b1 493d
00000020: ba55 543c 06cb a03d ba30 41bd 4a60 83bd
00000030: 80ac 763b b911 91bd 6e6a 98bd 7f5a e83c
00000040: 4bf6 9b3c 57cb 65bd ffa4 b4bb 2443 e43c
-0.037234288 -0.048268944 0.037951596 -0.098733045 -0.028651638 -0.0034242065 -0.0082563 0.049241845
0.012959892 0.07851224 -0.04716561 -0.0641485 0.003763944 -0.070834585 -0.07442175 0.028363464
0.01903834 -0.056102123 -0.005512833 0.027864046

fc1.weight f4 [50, 320]
00000000: 9cdd 61bd 958d 983d 6dc3 973d 3fb0 643b
00000010: 0579 a8bd e331 abbc 158b 9a3c 5296 0b3d
00000020: 7e1f ea3c d014 883d f3e6 c7bc 3cb8 11be
00000030: 3aee 513d b3f3 bdbc 362d dfbd f13a 86bd
00000040: ead0 8d3c bbbd 563d ae4a 01bd 4bd2 adbc
00000050: 3f1b f23c 063c 103e 5088 873d 48d8 303d
00000060: 0326 f73c fb22 673d 9519 03be f039 933d
00000070: 32d1 bdbc df58 69be 1967 44be 4e14 e33d
00000080: bdce f53d 29d2 b2bd eaff e4bd d5d4 9fbd
00000090: cad5 4e3d 1a4a 14bd ab61 8c3d 41ba 80bd
000000a0: 6930 d3bd e755 efbd 31f5 bebb d494 18bd
000000b0: 7c0f 0abd a2a6 1c3e 5f1c 533d bbfc 6fbd
000000c0: 5a98 923d eb48 9dbd 2367 d43b d0f5 f2bc
000000d0: ee10 29bd 723c 89bd 229b bb3d 5934 cc3d
000000e0: f57c 9b3c 2b91 06bb 73d0 d13d 70e1 b8bd
000000f0: e4fd 0b3c 871f 953c 992a c73c d13b 69bd
00000100: 31db 563d b077 e73c 3d55 373d 414b 4e3d
00000110: 253c 2c3c c4df 533d 02a5 bbbd 8100 d1ba
00000120: 25f9 da3d b036 ae3d c69d a4bd 8551 89bd
00000130: 568f 843d d172 2b3d d8e6 eabd 700a 0dbe
00000140: 9afd 4c3d cdc1 b9bc 2c1f d4bc 5c2b 11bd
00000150: 5a40 e23d 0c6b a13d 6e51 783c 121d b33c
00000160: 4f15 b93d ea6a 91bd c8e8 a2bd 35e6 3abd
00000170: f49e 61bd e0f1 a0bd 34ff cbbd 3c35 efbc
00000180: 619c 5e3d d04e 83bd a937 0f3c 1428 a4bc
00000190: 62eb 173e b2b3 b63d 7d90 ec3c c406 dabc
000001a0: 4c37 113e fd6b 273c 4ee7 d03d 171d b3bd
000001b0: c8bd ff3c f5e1 b5bd 7f78 16be e7d7 45be
000001c0: a6e8 703d e287 893d 1fb5 0ebe ba26 2e3d
000001d0: b445 9cbb 54bb a93d dc79 80bd 773d 9a3d
000001e0: 43b0 ecbd d49f 303d a137 3c3d 2e51 1bbc
000001f0: 7fd3 873d 6fbf 9b3d 26e4 c73c afc4 e8bb
00000200: 3f26 16bd 392c 3abd 6a5d 253d 8fb9 113d
00000210: 84f4 fd3b ed45 6ebd cd16 203e 44b7 573d
00000220: 1fd2 c6bc 62fe 333b c6f0 9c3d 0874 99bc
00000230: 30dd 5e3c 47fb 69bc 1a49 93bd 123a ccbd
00000240: 6379 963d 8518 5a3d c5f7 943d 96ef 5cbd
00000250: 4bd8 dbbc 0cdc 88bd 641b c5bd 6d28 9f3a
00000260: 4f12 1fbd 5d2f 6bbd f735 a9bd 3681 363c
00000270: f24d ed3c 7ced c33d 019f 643d 4852 2b3b
00000280: 6bbd 1dbd 270a 8c3b b3ab 07bd 9bec f63d
00000290: 5db0 8fbd 69b1 d83d 6ba9 1e3a bd1e 2f3d
000002a0: a36a 23bc 3628 fe3d 71d8 9cbd cb7e 34bc
000002b0: cc73 4fbd b327 b2bd 1d60 23be 9c5c 5abe
000002c0: f541 263c 3df6 30bd a47a 69bd e394 41bd
000002d0: 9460 c13c b96a 6b3c b0e8 cbbd 930d a2bd
000002e0: 78de 87bd 53ea 82bd 8da7 27bd 5d99 263c
000002f0: 92db 79ba e35c 923d b535 1a3e 1a68 6db8
00000300: e88a 9b3c 3b39 093d c700 c03c 2701 093e
00000310: 554a a6bd e2b3 1e3d 77a7 5ebd 03ed b83d
00000320: e302 5fbd afd5 25be 6f76 babd 6348 4cbc
00000330: 8a47 01be 34f9 6d3d 5e5f ac3d b5f0 d53d
00000340: 8d12 7b3d 0ee2 a8bd 154c 473d 0302 923c
00000350: 3e4f c53d 8f6c 1cbe 11d1 06be 3b10 b7bd
00000360: 2c77 b9bd c16b 4f3d 9c53 843d 4dac 34bd
00000370: d719 b93c fa6f 2c3c 3a2f fcbc bcaa 853d
00000380: 6205 f6bc be5a 2fbb 21eb 933d c0ea 1a3d
00000390: 487e 13bd d94e 463d ab2f a5bc 9880 0abb
000003a0: 8e51 a5bd d86d 18be c45a c3bd 132b d6bd
000003b0: 04c6 063d e4b9 dfbd 2c8a ecbd 0b3f b5bb
000003c0: 8423 803d 969a 3abd 69f3 ce3c 888c 0d3d
000003d0: 9589 0f3d 000b 01bd 70f3 d03a e547 293d
000003e0: c1f1 163d e37a 2dbe 41a8 47bd 9b5d 16bd
000003f0: 3597 16be 0f9d 24be 3b67 3d3e 82ea 783d
-0.055142984 0.0744888 0.074103214 0.003489509 -0.08226208 -0.020897811 0.018865148 0.034078903
0.02857947 0.06644595 -0.024402117 -0.14230436 0.05125258 -0.023187494 -0.10897295 -0.06554211
0.017311532 0.052427035 -0.03156536 -0.02121844 0.029554008 0.14085397 0.066177964 0.043175012
0.030169493 0.056429844 -0.12802728 0.07188785 -0.023171041 -0.22787808 -0.19179954 0.11087857
0.12002323 -0.08731491 -0.11181624 -0.07804266 0.050496854 -0.03620348 0.06854566 -0.06285525
-0.10311968 -0.116863064 -0.005827569 -0.03725131 -0.033706173 0.1529794 0.05154073 -0.058590632
0.07157965 -0.076799236 0.0064820214 -0.029658228 -0.04127591 -0.06700982 0.091604486 0.09970922
0.018980483 -0.0020533304 0.10244837 -0.09027374 0.008544419 0.01820351 0.024312304 -0.05694181
0.05245513 0.028255314 0.044759024 0.050364736 0.010512386 0.05172707 -0.09162332 -0.0015945585
0.10692052 0.085065246 -0.080379054 -0.06705002 0.06472652 0.041857544 -0.11469811 -0.13773513
0.05004654 -0.02267542 -0.02589377 -0.03544174 0.1104743 0.07881746 0.015156133 0.021864448
0.090372674 -0.0710047 -0.07954556 -0.0456297 -0.05508323 -0.07858634 -0.099607855 -0.029200189
0.054348353 -0.06411517 0.008741298 -0.020038642 0.14835885 0.08920993 0.028877491 -0.026614554
0.1418125 0.0102186175 0.10200368 -0.08745783 0.031218424 -0.088809885 -0.14694403 -0.19320641
0.05881562 0.06715371 -0.1393628 0.0425174 -0.0047690514 0.08287683 -0.06273243 0.07531255
-0.11557057 0.043121174 0.04595149 -0.009479804 0.066321366 0.076048724 0.024400782 -0.0071035246
-0.036657568 -0.04545233 0.04037229 0.035577353 0.007750096 -0.058172155 0.15633698 0.05266501
-0.024270115 0.0027464856 0.076631114 -0.018732086 0.01360254 -0.014281101 -0.071916774 -0.099720135
0.073473714 0.05324604 0.07273821 -0.053939424 -0.026836535 -0.066825956 -0.09624365 0.0012142785
-0.03883582 -0.057418216 -0.08262246 0.011139205 0.028967831 0.09566781 0.0558157 0.0026141573
-0.03851072 0.004273671 -0.03312273 0.12056848 -0.070160605 0.10580713 0.0006052467 0.042753924
-0.009974155 0.124100134 -0.076584704 -0.011016558 -0.050647542 -0.08698978 -0.15954633 -0.2132439
0.010147561 -0.04320358 -0.057001725 -0.04726113 0.023605622 0.014368706 -0.09956491 -0.07912745
-0.066342294 -0.0639235 -0.040931273 0.010168401 -0.0009531315 0.07146623 0.1505955 -5.6602155e-05
0.018987134 0.033501845 0.02343787 0.13379346 -0.081196465 0.03874577 -0.054358926 0.090295814
-0.054446112 -0.16194795 -0.09104621 -0.01246843 -0.12624946 0.058098987 0.08416627 0.10446302
0.06129699 -0.082462415 0.04865654 0.017823225 0.09634255 -0.15275787 -0.1316569 -0.089386426
-0.09055933 0.05063987 0.0646126 -0.04410963 0.02259533 0.010524744 -0.030784238 0.065267056
-0.030031864 -0.0026756967 0.07222582 0.03782153 -0.036009103 0.04841504 -0.020164331 -0.0021133777
-0.08072196 -0.14885652 -0.095387965 -0.104574345 0.032903686 -0.10924128 -0.11549792 -0.005531197
0.06256774 -0.04555758 0.025262551 0.03455785 0.035043318 -0.03150463 0.0015941691 0.04132833
0.03685165 -0.16941409 -0.048744444 -0.036710363 -0.14706118 -0.16075538 0.1849641 0.06077052

fc1.bias f4 [50]
00000000: 8b5d 053d 44be ca3d 7098 ccbc 055c 353e
00000010: 230d a83d 02fa b63d c022 2f3e 7799 03bd
00000020: 30f0 0b3d e8a3 74bb 50f9 ce3d 358e 1f3c
00000030: 8549 b23d 3a51 aebd 045d 063e 8333 893d
00000040: 29eb 963d 9e03 1dbd 5c28 e43c 322f 483d
00000050: f2b5 6d3d c591 e13d 2cdf 773d ea52 cd3c
00000060: 7a59 9c3d d079 aebd 755f 463d 6dfc 7abc
00000070: 6f49 d93c c9a9 3b3d baf2 acbd a346 583d
00000080: e404 52bc eb4d 543e e53f 12bc fec7 5b3d
00000090: 865a 39bd 1df4 81bb c5f4 a13d b6dd 61bd
000000a0: 02d4 093e 0f4e 6d3d 1ed1 e03c 791f d6bc
000000b0: 9e44 a23d c70a 733e 657c 9b3c 4dd5 b8bc
000000c0: e191 123d 0c41 493d
0.032559913 0.098995715 -0.024975032 0.17710884 0.08205631 0.08934404 0.171031 -0.032128777
0.034164608 -0.003732914 0.10106146 0.009738495 0.08705429 -0.085115865 0.1312142 0.06699278
0.07369072 -0.038333528 0.027851276 0.048873134 0.058034845 0.110141315 0.060515568 0.02506395
0.07634254 -0.08519328 0.04843088 -0.015318972 0.026524274 0.045816217 -0.08444734 0.05280174
-0.012818549 0.20732848 -0.008926366 0.053657524 -0.045252346 -0.003965868 0.07908014 -0.05514308
0.13459781 0.05793577 0.027443465 -0.026138054 0.07923244 0.2373458 0.018980214 -0.022562647
0.035783652 0.0491343

fc2.weight f4 [10, 50]
00000000: fd7b 44be a5a5 e0bd 1034 333e 44ef 2abe
00000010: 953a 88be 2ae3 98be 2eaf 99be 561a 04be
00000020: 2e2c e2bd 00d9 8b3e 2108 20be f8ad 82be
00000030: d2af 89be 16c9 303e 9fcd d8bd a888 c5bd
00000040: 51fb 88be 7612 07be dcf9 b03d 5ccb 6c3e
00000050: f97d 06be 785b 8a3e 3f03 873e 224c 91be
00000060: 6945 cdbe 819f 79be 30fb 96be 6859 db3c
00000070: bf9b 5c3e 4a49 a5be 5767 083e a9bd ce3e
00000080: 53fa 953e 1d2a 22be 3142 4dbe 4664 d1bc
00000090: 4636 41bc bbd0 13be 7424 1abe da8b 913e
000000a0: 91e6 ad3e 101d a63e 68e5 86be ac76 753e
000000b0: 180e a9bd 2d10 78be 1bc6 24be ef09 81bc
000000c0: d2b9 aa3e 0640 0dbd 3572 7dbe 0811 833e
000000d0: 90b6 25bc 6a83 9c3e aa68 553e a1e8 54be
000000e0: 1295 b63e 19e3 6dbe 92a7 b43b 7895 99be
000000f0: 7215 9b3e 4388 cfbd c72f 8a3e aaad 17be
00000100: 7f96 273e 046a aabd 8e86 793e 7b5f 47be
00000110: 9618 13be 9bc8 48be c7ab 29be 1b0b 483e
00000120: 3003 a9be 478b babd 6e7f 863e ca56 febc
00000130: aa13 b3be 39ba 40be 2c81 9cbe 8939 903e
00000140: 8e68 85be 5baf 27be 7501 23be 3ee8 a83e
00000150: 8106 25be ca17 b03e bb63 4ebe 7049 36be
00000160: cc28 833e eb54 81be c433 ad3e 5b80 f5bd
00000170: 808a 8bbe 0bcd 38be d06b 35be f604 b93e
00000180: b53b 22be 0571 58be 4741 2cbe e968 f9bd
00000190: e840 1cbe d784 d13d ae46 843e 13e4 34bd
000001a0: 183d 1fbe 8c04 38be 0e6c ad3e f409 67be
000001b0: 05b2 ef3d eeea 043e c88e 44bd 80e1 a13e
000001c0: 314b 9bbe e0c2 2c3e 375c c9bd ba06 fabd
000001d0: db13 9d3e 8caf b23d 5dc7 5e3e 9d6c 94bd
000001e0: 07a8 a1bc 152c 55be 7202 77be 5cad eabd
000001f0: f0d7 8e3e 4212 843e be1c b4bd 5fa6 503e
00000200: d3b3 88be 875b ad3e da46 833e 0ad8 17bc
00000210: bc0a a33e 5900 583c 278f 8b3d 9c2c 913e
00000220: fb16 7abe db3c 823e 5a7c b93d 1067 303e
00000230: 3b38 48bd 8b41 553e 5463 553e 2fd2 a2be
00000240: 6a89 dcbd ac34 87bd 6073 ddbd beb2 04be
00000250: 79a8 72bd 4ad3 883e 00a2 aabd 9c08 84be
00000260: 5ce3 a23e ea39 c13d b761 0ebe 1883 9c3e
00000270: 8cf0 0a3c a176 86be 94f0 5f3e cd84 46be
00000280: ff0a 9cbe 4333 9fbd 715f 50be 1bca 693e
00000290: a49d 9c3e 7104 af3e 5c88 9bbd 1c5c 60be
000002a0: 4048 60be f175 8abd 6d72 3c3d 90a5 48be
000002b0: 06d0 b3bd 32ad 763e 67bc 813e f32d 04bc
000002c0: 02da 39be 8287 34be eac2 823e ed53 863e
000002d0: 17f0 da3d a6d5 6dbe cd61 a0bb c17c 9b3e
000002e0: 820a f0bd 0651 13be 4bb2 853e 479f 253e
000002f0: 83cf bfbd dd3f cdbd 07b2 02be 64a6 a6bd
00000300: f619 bc3e 84e6 58be 9675 02be a9df 3dbe
00000310: 0f19 ac3e e85b 36be 83e5 f8bd bd8c 9b3e
00000320: 5a00 a13e d965 963e 80d9 91bc ce43 983e
00000330: 142d ecbb 5ff3 8f3e 87f9 9d3d 5e1f 623e
00000340: 4f71 98be b8af 7b3e 84fd 843e 84e0 adbd
00000350: e89c 0a3d f0ec 5cbd ae35 163d 08e3 48bd
00000360: e8de 713d 43b6 943e aff8 733e 112c bfbe
00000370: 2f30 20be 0894 053e b138 233e b050 c2bd
00000380: a912 30be e998 69be 5919 a13e b9c5 803e
00000390: 46a2 c4bc a0bc 4dbe ae31 6dbe 733c a7b9
000003a0: 504d 603b 1f2b 51be c70d 973e 2716 93bd
000003b0: f707 7ebd 858d dc3d 5217 983e 29b6 a43c
000003c0: 272a ccbd 0613 8ebe 2c5e b13e d38d 1fbe
000003d0: ef47 733e 1d70 393d 58a7 7cbe 0c4e d3bd
000003e0: c7cb d3bd 1bd0 41be 74e2 553e e60c a13c
000003f0: 1537 26be 3a5b 2dbe a36b 3c3e b46e ab3e
-0.19187923 -0.10969094 0.17500329 -0.16692835 -0.26607195 -0.29860812 -0.30016464 -0.12900671
-0.11043583 0.27313995 -0.15628101 -0.25523353 -0.26891953 0.17264208 -0.10586094 -0.09645206
-0.2675424 -0.13190636 0.08641407 0.2312445 -0.13133992 0.2702291 0.26369664 -0.28378397
-0.40092018 -0.24377252 -0.29488516 0.02677603 0.21543787 -0.32282478 0.13320671 0.40379074
0.29292545 -0.15836377 -0.20044781 -0.02556051 -0.011792725 -0.14435093 -0.15052968 0.2842701
0.3396497 0.32444048 -0.26346898 0.23971051 -0.08254641 -0.2422492 -0.16091196 -0.015751807
0.33344895 -0.034484886 -0.24750598 0.2559893 -0.010114327 0.3056901 0.20840707 -0.20791866
0.35660607 -0.23231162 0.00551314 -0.29996848 0.302898 -0.10133412 0.26989576 -0.14812341
0.16366003 -0.08321002 0.24367735 -0.19470017 -0.14364848 -0.19607775 -0.16569434 0.19535486
-0.33010244 -0.09108596 0.26269096 -0.031047244 -0.3497594 -0.18821038 -0.305673 0.28168896
-0.2605633 -0.16375487 -0.15918525 0.32989687 -0.16115762 0.3439315 -0.20155232 -0.17801452
0.25617063 -0.252601 0.33828557 -0.119873725 -0.27254105 -0.18046968 -0.17716908 0.36136597
-0.15843089 -0.21136864 -0.16821776 -0.12178213 -0.15259135 0.10230415 0.25835174 -0.04416282
-0.15550649 -0.17970484 0.33871502 -0.2256239 0.117038764 0.12980244 -0.04798773 0.31617355
-0.30330804 0.16871214 -0.09832042 -0.12208314 0.3067921 0.08724889 0.21755739 -0.07247279
-0.019733442 -0.20817597 -0.24122027 -0.11458847 0.27899122 0.2579518 -0.08794545 0.20375966
-0.26699695 0.33858892 0.25639993 -0.009267816 0.31844127 0.013183677 0.068144135 0.28354347
-0.24422829 0.25437054 0.09056921 0.17226815 -0.04888175 0.20825784 0.20838672 -0.31800982
-0.10768397 -0.06601843 -0.10813022 -0.1295881 -0.0592427 0.267237 -0.0833168 -0.25787818
0.31814086 0.09434874 -0.13904463 0.30568767 0.008480202 -0.26262382 0.21869117 -0.19386597
-0.3047714 -0.07773449 -0.20348908 0.22831003 0.3058902 0.34183076 -0.07594368 -0.21910137
-0.21902561 -0.06760777 0.046007562 -0.19594407 -0.08779912 0.24089506 0.25339052 -0.008067596
-0.1814957 -0.17629817 0.25539333 0.26235905 0.10690325 -0.23226032 -0.0048944713 0.30368617
-0.11720754 -0.14386377 0.2611259 0.1617404 -0.093657516 -0.100219466 -0.12763225 -0.08137205
0.36738557 -0.21181685 -0.12740168 -0.18542351 0.33612868 -0.17808497 -0.12153151 0.30380812
0.3144558 0.2937458 -0.017803907 0.2973923 -0.007207522 0.28115365 0.07713609 0.22082278
-0.29773948 0.2457875 0.25974667 -0.084900886 0.033841044 -0.0539369 0.036672287 -0.04904464
0.05905047 0.29045305 0.23825334 -0.37338307 -0.1564338 0.1304475 0.15939595 -0.09488046
-0.17194618 -0.22812237 0.3146465 0.2515085 -0.02400316 -0.20091486 -0.23163483 -0.0003189776
0.003422577 -0.20426606 0.295027 -0.071819596 -0.062019315 0.1076918 0.29705292 0.020106392
-0.099689774 -0.2774889 0.3464216 -0.15581445 0.23757909 0.045272935 -0.24673212 -0.10317621
-0.10341602 -0.18927042 0.20887166 0.01965947 -0.1623195 -0.16929331 0.18400435 0.33482897

fc2.bias f4 [10]
00000000: 0bc8 d03d 5fd0 083f 1657 d0be bc97 3cbe
00000010: 8fbd dabe f49e edbd 6d1a 09be 135d 4abe
00000020: ed3f 583e c3da 37be
0.10194405 0.5344295 -0.4069144 -0.18417257 -0.42722747 -0.116025835 -0.13388987 -0.19762067
0.21118136 -0.17954545
