nn_mnist.pth (torch_old, 238108 bytes, 8 tensors)

fc1.weight f4 [64, 784]
000000 ec fe b4 3c 3c 76 d6 bc 8a 1b 36 bc 1e d1 bb bc
       0.022094212 -0.026179425 -0.011114964 -0.022926863
000010 7c 9a bc bc c3 08 b1 bc d6 c1 db 3c 10 dd 6b 3c
       -0.023022883 -0.021610623 0.026825827 0.014395967
000020 70 61 b0 3c 00 5d 19 39 88 77 e9 bb fa 9b b2 3c
       0.021530837 0.00014625862 -0.007124845 0.021802891
000030 3c 03 fe bc a4 64 44 3c 38 9b 90 bb 7e 3d 9f bc
       -0.031007402 0.011986885 -0.0044130348 -0.019438501
000040 ce 94 ac bc 10 48 0e 3b 5c 28 f8 bb 6e 76 e5 3c
       -0.02106705 0.0021710433 -0.0075731706 0.028010573
000050 f0 0b e6 bb 48 1f 52 3c a3 da b6 bc 7a b0 c2 3c
       -0.007020466 0.012824841 -0.022321051 0.023765791
000060 b0 33 db bc c0 52 9d bc b0 5b 50 3b 58 59 b4 bc
       -0.026758045 -0.019204497 0.0031792931 -0.022015259
000070 00 cd e0 3b f8 69 82 bb 60 91 c3 bc b8 3f 03 bd
       0.0068603754 -0.0039799176 -0.023873031 -0.03204319
000080 c6 ea b9 3c 8e dd 46 bc ae fc 37 bc 2e ab b1 bc
       0.022694957 -0.012137784 -0.011229677 -0.02168807
000090 fc d9 19 bc 06 65 fd 3c 58 62 5e bc 84 ce 28 3c
       -0.00939035 0.03093196 -0.013573252 0.010303143
0000a0 00 d0 e9 3a 8e 43 0a bc 8e 2e e7 bc 90 bb 5f 3c
       0.0017838478 -0.008438958 -0.028220441 0.013655558
0000b0 08 51 c1 bc b4 e2 40 3c 54 82 ae bb 22 03 be 3c
       -0.023598209 0.0117728 -0.005325595 0.023194853
0000c0 80 d2 b7 b9 90 1d 29 3b 1c a4 7e 3c 2e ef a9 bc
       -0.00035061315 0.0025804974 0.015542056 -0.020743933
0000d0 90 df 4d bb 40 9c 1a bc c2 d3 ae 3c 0c aa d5 bc
       -0.0031413771 -0.009436667 0.021341208 -0.026082061
0000e0 74 ed 77 3c b8 bd 2f 3c e6 1c 31 bc 65 f6 f6 bc
       0.015132297 0.010726385 -0.010810113 -0.030146787
0000f0 10 a2 7d bb f0 04 30 3b 24 18 c6 bb 00 86 77 bb
       -0.0038701333 0.0026858412 -0.0060453583 -0.003776908
000100 ec 1e 98 bc d3 21 e1 bc c3 a1 83 bc 00 83 cb 3c
       -0.018569432 -0.027481949 -0.016068345 0.02484274
000110 ce 54 ce bc 46 e9 0f bd 4a 82 97 bc b2 23 07 bc
       -0.025186922 -0.035134576 -0.018494744 -0.0082482565
000120 00 fb f2 b9 7c c0 b3 3c 80 b4 94 bb 74 f2 01 3c
       -0.00046344846 0.02194237 -0.004538119 0.0079313405
000130 e4 a1 ad bb 75 99 a9 bc 12 c8 11 bc 11 d0 e8 bc
       -0.00529884 -0.020703057 -0.008897798 -0.028419526
000140 f0 f4 d4 bb f0 8b 13 3b 1c a2 79 3c 40 81 8c ba
       -0.0064989254 0.002251383 0.015236404 -0.0010719672
000150 0e 8c 6a bc 1e 03 ff 3c b8 33 33 bc 99 50 0b 3d
       -0.014315618 0.031129416 -0.010937624 0.03401241
000160 5b 23 10 3d 00 06 56 bc 9a 78 d4 3c 80 bb da 39
       0.035189968 -0.013062954 0.025936414 0.000417199
000170 20 90 cc 3c da 9e a5 3c fa 23 f0 3c 88 44 bc bc
       0.024971068 0.020217348 0.02931403 -0.022981897
000180 80 f2 11 3c 41 df 0c 3d f0 1e cd bc 8e b8 02 bd
       0.008907914 0.0343926 -0.025039166 -0.031914286
000190 40 0c 46 3c 08 3d c7 bb 6f 33 0f 3d ac 28 04 bd
       0.012087882 -0.0060802735 0.03496116 -0.03226535
0001a0 19 27 0f 3d 53 d4 eb bc 98 3d 47 bc dc ea fb bc
       0.034949396 -0.028787768 -0.012160681 -0.030751638
0001b0 53 31 0d bd c3 66 86 bc 20 62 3f bc fc 13 11 bd
       -0.034470867 -0.016406422 -0.01168111 -0.03541945
0001c0 00 aa 16 3c fc 55 8c bc 97 86 0d 3d c8 06 d8 3b
       0.009195805 -0.017130844 0.034552183 0.0065926053
0001d0 70 ab 4b 3c 2a 1f 12 bc 7b ae 07 3d 70 a0 58 bb
       0.012431011 -0.008918563 0.033125382 -0.0033054613
0001e0 48 98 a0 3c 38 ef 49 3c 63 25 0d 3d 2b 35 03 3d
       0.019603863 0.012325101 0.034459483 0.032033127
0001f0 7a 55 fe bc f5 33 24 3c 10 e4 10 bd 4c 24 66 bc
       -0.031046618 0.010022153 -0.035373747 -0.01404674
000200 17 89 81 bc 2d af bf bc 54 86 64 3c 2e c5 fc 3c
       -0.01581244 -0.02339896 0.013948042 0.030855741
000210 38 0f 91 3c 45 09 12 bd 5e a4 b7 bc be 62 d3 3c
       0.017707452 -0.03565337 -0.022417244 0.02580392
000220 60 f4 0e bc 2a a2 75 bc b8 09 a7 bb b7 55 88 bc
       -0.008725256 -0.014992276 -0.005097594 -0.016642435
000230 d0 b5 51 3b 35 5d 03 3d d4 b7 65 3c d2 5e 84 3c
       0.0031999238 0.03207131 0.014020879 0.016158495
000240 7a f2 ef bc 9e 40 ee 3c a7 02 60 bd 87 51 03 bd
       -0.029290427 0.029083546 -0.05469003 -0.032060172
000250 69 ee 0b bc 02 c3 75 bc 4b 19 8d bd e1 e0 ac 3c
       -0.008540728 -0.015000107 -0.0688959 0.021103324
000260 7d 5e db 3c 8b f6 c6 3c d3 5d 2b ba 98 48 19 bc
       0.026778454 0.024287483 -0.0006537113 -0.009355687
000270 a1 05 5e 3c f3 b1 85 bc 5c 44 ac 3c 50 99 b1 bc
       0.013551147 -0.016320204 0.02102869 -0.02167955
000280 1a 5e d2 bc fa 52 c3 3c 66 08 69 3c a6 c7 14 bd
       -0.025679637 0.023843277 0.014223194 -0.036323212
000290 40 32 0f ba 48 37 e7 bc f0 bb 5b bb a0 6f d0 3c
       -0.0005462505 -0.028224602 -0.0033528768 0.025443852
0002a0 3e 64 a6 bc 58 80 00 bc 28 de fe 3b a0 2a 21 3b
       -0.020311471 -0.0078431 0.007777948 0.0024592057
0002b0 ee ae 9c bc ff 40 0d bd 0a aa 0b bc 9e ab 0c bd
       -0.019126382 -0.034485813 -0.008524427 -0.034343354
0002c0 e4 3e d6 bb 54 6a 5f bc 96 dd e8 bc 60 90 13 bd
       -0.006538259 -0.01363619 -0.028425973 -0.03602636
0002d0 a6 f6 bd bc 3b ea 12 bd 07 8c 65 3c 9e 77 47 3c
       -0.0231889 -0.03586791 0.014010436 0.012174515
0002e0 1f 26 cc 3c 75 5a e4 bc 28 b8 a4 3b ef 09 0f 3c
       0.024920521 -0.027875165 0.005026836 0.008730396
0002f0 b1 49 56 bb 64 23 8a 3b 0d 16 15 bc 9c e7 5d bc
       -0.0032697732 0.0042156447 -0.009099496 -0.0135439895
000300 fa e1 f7 3c 0a 1e c7 3c 48 89 82 3b b2 f2 e1 3c
       0.030259121 0.024306316 0.0039836504 0.027581546
000310 48 f9 e9 bb b0 7e 1e bb 0c 26 bc bc 40 25 a7 ba
       -0.0071403123 -0.0024184398 -0.02296736 -0.001275219
000320 58 fc 45 3c 88 5e 93 bb 67 48 80 bd 0a b0 db ba
       0.012084089 -0.004497353 -0.0626381 -0.0016760838
000330 e9 0c c6 bc 35 db 37 bc 7e be d3 bc 50 41 54 bc
       -0.024176078 -0.011221697 -0.02584767 -0.012955025
000340 7e 2f 56 bd 2a 1e af 3c 12 89 67 3c 7e 7d 8d bb
       -0.052291386 0.021376688 0.014131801 -0.0043179384
000350 ba b3 14 bd 59 84 79 3c 62 3e 83 bc 78 30 9e 3c
       -0.036304213 0.015229308 -0.016020957 0.019310221
000360 50 42 aa 3c 5c 57 00 bd d9 dd f1 ba ed 0e 71 3c
       0.020783573 -0.031333312 -0.0018452957 0.014713031
000370 3c e7 25 bd fc ae 99 3c 7e ae eb 3c 75 c1 87 bc
       -0.040503725 0.018760197 0.028769728 -0.01657174
000380 49 7c 06 3d b6 05 b5 3c ee e4 0f bc 9a cd ae bc
       0.03283337 0.02209745 -0.008782608 -0.021338273
000390 30 e4 b2 3b 60 8a 41 bb 17 d8 85 bd f0 fc 32 bd
       0.005459331 -0.002953194 -0.065353565 -0.04369825
0003a0 a5 0f 23 bd fb 48 07 bc 47 fb c5 bb 4a d0 93 bd
       -0.03980984 -0.008257146 -0.0060419175 -0.07217462
0003b0 95 a7 4d bd 26 fe 28 bc e3 8f c9 bb 33 df 1f bd
       -0.050208647 -0.0103145 -0.006151186 -0.03903122
0003c0 fa 98 1f bd e1 ce 3c 3c 50 84 dd bc b9 63 14 3c
       -0.03896425 0.011523933 -0.02704063 0.009056979
0003d0 9f b3 16 bd c0 28 bb bb ce 0a ac 3c 57 f2 3c bc
       -0.036792394 -0.005711645 0.021001246 -0.011532388
0003e0 a9 6c a2 3c 20 33 a7 bc 80 88 38 3b 6e 04 78 bc
       0.019827204 -0.02041012 0.0028157532 -0.015137775
0003f0 10 a5 e3 3b c6 e9 f8 3c dc 25 f9 bc 08 f4 a0 3b
       0.006947167 0.03038491 -0.03041356 0.0049119033

fc1.bias f4 [64]
000000 ae d7 30 bd f1 e2 bb 3b d6 94 63 be 86 f7 85 3d
       -0.04317444 0.0057338406 -0.22224745 0.06541352
000010 a3 52 20 bd ab 95 d8 3d bd 74 27 3e 54 bd 4b 3d
       -0.03914131 0.10575422 0.16353126 0.049741104
000020 69 78 66 3c a2 a1 d4 3d 5a 6d 73 3d 37 1c a6 3c
       0.014066794 0.103823915 0.059430458 0.020277126
000030 08 a4 0f bc e6 b5 9b bc e9 19 8d 3d e4 d2 4f bc
       -0.008767135 -0.019007634 0.068897076 -0.012684558
000040 dc f3 19 be ea a2 2d bb ce 72 74 3c c7 47 79 3a
       -0.15034431 -0.002649481 0.01491995 0.0009509292
000050 a9 7e ca 3c 19 2e 09 bd d1 93 ae 3b c1 8c 26 be
       0.0247186 -0.033491228 0.0053276797 -0.16264631
000060 fd f3 1d bd e7 ca c3 bd 23 5e 52 3d 2c ee 00 3c
       -0.038562763 -0.09560185 0.051359307 0.007869285
000070 68 ce 82 3d be d3 c4 3d c0 b7 bb bd a1 64 cf 3d
       0.06387025 0.09610699 -0.09165907 0.10126615
000080 5e 45 31 bc 9e 47 e2 3b fd 94 cc 3d 1d d4 d6 3d
       -0.010819761 0.00690551 0.09989355 0.10489676
000090 b9 48 b6 3d 16 9e 50 bd 09 34 0e 3e bf 26 86 3d
       0.089005895 -0.050932012 0.13887037 0.06550359
0000a0 85 06 af 3b 54 67 5d bb db da 5e bc 49 ff 5d bd
       0.0053413534 -0.0033783512 -0.013601984 -0.054198537
0000b0 7d b6 dc bd 09 36 2b bb 23 83 6f 39 48 65 83 bd
       -0.107769944 -0.0026124737 0.00022841668 -0.06415802
0000c0 2b 26 24 3c f1 48 f5 bb d7 89 9c 3d e2 c7 bb 3c
       0.010018866 -0.007485502 0.07643478 0.02292246
0000d0 70 0c 64 3d 05 84 93 bd 80 64 1c 3d 92 d9 d5 3b
       0.055675924 -0.07202915 0.03818178 0.0065261805
0000e0 3c a8 a9 bd 9a 2f 5a 3e c0 25 96 3d 7d ed 7e 3d
       -0.08284041 0.21307221 0.07331419 0.062238205
0000f0 b0 df 20 3d fc d5 dd 3d 70 6b 26 bd 73 f9 91 3b
       0.039275825 0.1083183 -0.040629804 0.0044547855

fc2.weight f4 [64, 64]
000000 9e e6 a8 bd db 2f 58 be c3 8a 68 bd 06 ac a6 bd
       -0.08247112 -0.21112005 -0.05677296 -0.081382796
000010 93 cd 9a 3c d3 3c d1 3e 60 19 af be 07 e5 e4 3c
       0.018896854 0.40866718 -0.34199047 0.02794124
000020 5c de 26 3d 30 ee 33 be b9 ed 90 be 2a 6c 8f be
       0.040739402 -0.1757133 -0.28306368 -0.2801221
000030 0f 0d 10 bd 80 3a 38 3c 90 4a 40 3e c3 ea 8d bd
       -0.035168704 0.011244416 0.18778443 -0.06929543
000040 98 0f b2 bd 45 2f 4d be d4 9c 12 3c 62 59 9c 3d
       -0.086943805 -0.20037563 0.008948524 0.07634236
000050 51 88 5a bd e5 65 3d 3e ee 2b f4 bc 18 f7 2a 3e
       -0.053352658 0.18495901 -0.029806104 0.16695821
000060 82 03 1a be b8 0d a2 3d 78 cb 21 be ae 78 15 3d
       -0.150404 0.07912773 -0.15800273 0.036492042
000070 3b c6 45 be b3 f6 32 bc 8e 8a 79 be 0a fa bf 3d
       -0.193139 -0.0109230755 -0.2436926 0.09373863
000080 63 45 58 be 00 8c cb bd 3a f2 8f 3e 45 22 a3 be
       -0.21120219 -0.09938812 0.28114492 -0.31862083
000090 6d 0f 5d bd d0 b4 25 3d 12 ce b9 3d b1 55 f3 bd
       -0.05396979 0.04045564 0.09072508 -0.11881579
0000a0 c2 cd 32 bd 54 08 7e bd 00 e5 76 3c 1a 58 b9 3d
       -0.043653257 -0.06201966 0.015069246 0.09050007
0000b0 10 79 9a 3c e6 f5 49 3d 00 63 22 ba 94 74 82 bd
       0.018856555 0.049306773 -0.0006194562 -0.06369892
0000c0 3b a0 4f 3d 41 f6 32 be bf c1 3a be 25 44 32 be
       0.050689917 -0.17476751 -0.18237971 -0.17408808
0000d0 4c 0e 8b bd 55 ed 18 bd cb 47 ec 3d f5 67 a1 3d
       -0.06789836 -0.037335712 0.11537131 0.07881156
0000e0 5b 9a 63 be cc ec da 3d 2d a3 13 3e 9e eb 0f bd
       -0.2222685 0.10689697 0.14417715 -0.03513681
0000f0 59 a4 d8 bc 51 55 b3 3d 44 7b d6 bd e1 51 91 bc
       -0.026445555 0.08756507 -0.1047273 -0.017739238
000100 21 2a 1a be 3e b0 43 bc 79 70 2c 3e 01 17 a9 be
       -0.15055133 -0.011943875 0.1683978 -0.33025363
000110 a3 d2 71 3e 5d 98 21 bd 32 f7 e9 bd c7 32 de bc
       0.23615508 -0.039451946 -0.11424102 -0.027123822
000120 0b 50 05 bd 0f 74 f0 be 96 b1 1c be be c0 57 3e
       -0.032547038 -0.46963546 -0.15302119 0.21069619
000130 f2 f0 1b 3d 1e ad 3e 3e 86 2f c6 bc 48 4a 7e bd
       0.03807158 0.18620726 -0.024192583 -0.06208256
000140 21 03 ad bd 38 e9 08 3e 6f d7 30 3e 9f f1 3e 3d
       -0.084478624 0.13370216 0.17269681 0.046617147
000150 5f 61 a9 3d e6 e5 93 bd 04 b1 a0 be e2 ff 2d 3e
       0.08270525 -0.07221584 -0.31385052 0.16992143
000160 05 7f 38 3e 5a 3c a5 3d 9b 65 cc be 69 f9 f7 bd
       0.18017204 0.08068152 -0.3992127 -0.12108118
000170 a3 69 02 3d 6a 83 3e be 5b 7f 1f bd af 2c 9f be
       0.031839024 -0.18604818 -0.038939815 -0.31088778
000180 f6 8a 86 be 52 ac 97 bd 7a bf c0 3e 96 04 68 be
       -0.26277894 -0.07405914 0.37646085 -0.22658
000190 46 27 13 be 33 c9 87 3e a4 04 14 be ec 26 04 3e
       -0.1437045 0.2652069 -0.14454895 0.12905473
0001a0 1c c2 0b be ee 94 40 3d 06 9a e1 bd 6a a0 b2 bd
       -0.13648266 0.04701703 -0.11015706 -0.08722003
0001b0 ac 4d 25 be 90 f5 1c be a1 31 ce bb e8 05 7d bd
       -0.1614291 -0.1532805 -0.0062925373 -0.06177321
0001c0 5e 48 91 be 3c 4f 0b 3e f6 cc 09 be 8a 7d 9c bd
       -0.28375524 0.13604444 -0.13457093 -0.07641132
0001d0 fa e9 62 bc 26 0e 79 ba dd 50 f0 bd 82 db bb bc
       -0.01384973 -0.00095007045 -0.117341734 -0.022931818
0001e0 b8 2e ac 3d 9e c2 8d 3d c0 ef 2d be b2 b8 5b be
       0.084073484 0.06921886 -0.16985989 -0.21457174
0001f0 f5 0c 23 3e 6f ca 2c 3e a0 4e ad 3c b3 e6 de bd
       0.15922911 0.16874097 0.021155655 -0.10883846
000200 e0 a3 9d bd 5f 08 66 be 9a 22 b9 bd 9f 3e 47 bc
       -0.07697272 -0.22464131 -0.09039803 -0.012160926
000210 51 47 87 bd df 5a 58 be 5b 55 b0 be ae 56 17 be
       -0.066053994 -0.21128415 -0.3444012 -0.1477916
000220 7d ab e3 bc 1b 86 28 be b1 68 2d be bf 6d e1 3c
       -0.027791733 -0.16457407 -0.16934468 0.027518151
000230 d5 49 70 bd 40 a4 8d 3e b7 dd 91 be 2b 63 0c 3e
       -0.05866416 0.27664375 -0.28489468 0.13709705
000240 e8 9d 85 3c 19 f3 48 3d 55 aa 0e bd 14 b9 e2 3b
       0.016310647 0.04905996 -0.03483041 0.0069190357
000250 54 57 fd 3d d1 6b 5a be 9e ab e7 3d 6c 27 ce 3d
       0.12370172 -0.21330191 0.1131203 0.10066113
000260 42 44 c3 3d 0e 6e 8d 3c 3a 10 73 bc 40 94 9c 3d
       0.095345035 0.017264392 -0.014835412 0.07645464
000270 29 07 4d 3e df 84 8f be db 88 92 3d b5 6a d9 3d
       0.20022263 -0.2803106 0.07155009 0.10616056
000280 5f ad 93 be 20 69 1d 3c ad 2f 0e be 24 46 11 3b
       -0.2884321 0.009607583 -0.13885374 0.0022167051
000290 da 2f 88 3c 10 f6 8c 3e d9 e2 75 bd 3d f4 7d be
       0.01662438 0.2753148 -0.060030792 -0.24800201
0002a0 05 7d 38 3e 33 7b d0 3d 5a cf 8a bd 65 a7 db 3d
       0.18016441 0.101797484 -0.067778304 0.10725287
0002b0 df 8c 99 3d 5a 05 80 3d e9 bb f2 bd 79 1b 5c be
       0.07497572 0.06251021 -0.11852247 -0.21494855
0002c0 f1 43 09 be 8d 9e 10 3d 39 76 5a 3d 8e cd 19 3d
       -0.13404824 0.035307456 0.053335402 0.037549548
0002d0 46 ec 87 bd f9 d2 15 3e f8 c3 f7 3d 2a 7b 57 bc
       -0.066368625 0.14631261 0.12097925 -0.013151923
0002e0 43 93 28 bc 4c 6a 44 bc b5 98 ee 3d 05 fb 8f be
       -0.010289016 -0.011988234 0.1165022 -0.281212
0002f0 57 b5 a6 bd 51 be 62 bd 3e 9e 6b bd ba ce a0 bc
       -0.081400566 -0.05535728 -0.05752396 -0.019629825
000300 92 47 b5 bb 81 bd c0 bd 13 06 f6 bd 1a 76 28 3e
       -0.0055322135 -0.09411145 -0.12012877 0.16451302
000310 ac 78 50 bd 5f fc 30 be 78 ac 04 3f 81 00 3b be
       -0.05089633 -0.17283772 0.51825666 -0.18261911
000320 98 db af 3e 72 2c 8f bd 1c ba 8a bc fd 50 08 3d
       0.34347224 -0.06990899 -0.016934447 0.03328036
000330 33 5a 47 3d 91 23 b2 3d 2d 1e 78 3d 6d 5b 7d 3c
       0.048670005 0.0869819 0.060575653 0.015463692
000340 03 b5 0b be 4e 9f c6 3d f4 e3 1f be ca 48 9e bd
       -0.13643269 0.09698354 -0.15614301 -0.07728727
000350 f5 43 8f 3d bd 13 d4 3c 8f b1 04 3c f6 a6 8b 3d
       0.06995384 0.025888318 0.008098974 0.06818955
000360 6f bb c9 3d 8e 46 bb 3b d8 d2 3f be f5 e9 ea 3d
       0.09850203 0.005715198 -0.18732774 0.11470405
000370 c2 44 a7 3d 3c 6e 23 3e 99 aa 1b 3e f4 18 0d 3e
       0.081674114 0.1596002 0.15201797 0.1377905
000380 28 34 6d bd cd a0 94 3d be 3d 21 3d fc cc 9c 3d
       -0.05791107 0.07257233 0.039365523 0.07656285
000390 cb 71 ab bd 0a d1 74 3d 4b c4 07 3e b2 4d 6c 3e
       -0.08371314 0.059769668 0.13258474 0.23076513
0003a0 9b 61 1d be d6 8c 5f bc c4 4e c7 3c b7 ed db 3d
       -0.15369265 -0.013644418 0.02432955 0.107387
0003b0 a7 dd dd bc 6b a5 36 bc 71 e0 9a 3d 57 d0 12 be
       -0.027083231 -0.011147837 0.0756234 -0.14337288
0003c0 02 7e e9 bd 82 7a 81 bc 31 18 12 3e 28 9e 35 3e
       -0.11400987 -0.015805487 0.14267041 0.17736113
0003d0 dd ec 00 3e 05 b9 39 be bf a7 11 be e8 90 64 3d
       0.12590356 -0.18136986 -0.14224146 0.055802256
0003e0 02 81 d5 3d 46 a6 dd 3d ef dd 5c 3c b5 af 54 be
       0.10424997 0.1082273 0.0134806475 -0.20770152
0003f0 5a 82 0e 3e ee 93 70 3e 76 4d 0b 3e c2 b5 d3 3b
       0.13916913 0.2349393 0.13603768 0.006460876

fc2.bias f4 [64]
000000 b5 2a 15 bd 63 71 0d be 9d 41 b0 bc 21 6b 81 3d
       -0.03641768 -0.13812785 -0.021515662 0.06319261
000010 2d 1b 8f 3d c5 b2 0c be 9c 27 c9 bd 98 e1 ab bd
       0.06987605 -0.1374007 -0.09822008 -0.08392638
000020 89 c8 c6 3d 31 31 43 3c de ac 18 3e d7 85 e8 3d
       0.09706218 0.011913584 0.14909694 0.11353653
000030 c9 fd b1 bd 2d 2e 72 bd d6 60 4b bb 69 3e 0f 3c
       -0.08690984 -0.059126068 -0.003103306 0.008742907
000040 b5 fa ac 3d 17 29 e3 3d d1 ce 36 bd c2 c8 b8 bc
       0.08446256 0.11091822 -0.04463083 -0.022556666
000050 26 15 3f bd 35 f4 b5 3d 49 8f 2d be 45 fd 20 bc
       -0.046651028 0.088844694 -0.1694919 -0.009826009
000060 33 41 f8 bd b6 24 93 bd f2 32 04 3e 2c 5e 53 bc
       -0.12121811 -0.071847364 0.12910059 -0.01290087
000070 bc fe 33 bd a4 f6 be 3d f8 e8 d7 3d 6a c3 1b be
       -0.043944106 0.09324387 0.10542482 -0.15211263
000080 bd 1d 48 3d ca a5 03 be 08 89 46 bd 17 78 18 bd
       0.048856486 -0.12856212 -0.048470527 -0.0372239
000090 d2 5c 32 bc 2e b4 98 bc 88 0a 64 3d 5f d2 a0 bd
       -0.010886388 -0.018640604 0.055674106 -0.07852625
0000a0 05 96 8e bd 2a e3 8b 3d bc 51 28 3e d1 41 2a 3e
       -0.06962208 0.068304375 0.16437429 0.1662667
0000b0 6c 6f 71 3c 59 27 a2 3d 76 43 a5 3c f5 00 4b bd
       0.014736038 0.07917661 0.02017377 -0.04956146
0000c0 b4 f5 8b 3d 56 79 04 3e fa 83 54 3d 4b 71 0a 3e
       0.068339735 0.12936911 0.051883675 0.1351978
0000d0 cf 80 bd 3d 91 69 c4 bd 74 7d f2 bd d4 f8 d4 3d
       0.09253084 -0.09590448 -0.118403345 0.10399023
0000e0 52 29 02 be 27 6e a9 3d 19 c6 93 3d 52 e3 d9 3d
       -0.12711075 0.08272963 0.072155185 0.10639061
0000f0 09 52 75 3d 5e 3d 94 3d ca 47 92 3a db a7 7b 3d
       0.059892688 0.07238267 0.0011160311 0.061439376

fc3.weight f4 [64, 64]
000000 34 49 d1 bd 8d 75 9b 3d fd 5e 03 3e 92 62 e8 3d
       -0.102190405 0.075907804 0.12829204 0.11346926
000010 b6 7e 6a be be a0 b2 3d 2a 6e 72 3e 5a f6 df 3d
       -0.22899899 0.087220654 0.23674837 0.1093566
000020 80 60 a7 bd 73 b8 3e 3e d2 06 ce 3d 27 00 16 be
       -0.08172703 0.1862505 0.100598946 -0.14648496
000030 ff 60 db bd 18 40 eb bc 2e 0a 80 be ab 48 bc bd
       -0.1071186 -0.028717086 -0.25007766 -0.09193548
000040 36 ea 84 be 50 c5 b2 3d af 36 90 bb fc 7b 8f bd
       -0.2595994 0.087290406 -0.00440105 -0.0700607
000050 78 06 50 be 9c 33 f8 3d 14 7b 3f bd bb 7a 46 bd
       -0.20314968 0.12119219 -0.046748236 -0.04845689
000060 1e fb a1 bd 73 29 44 3e 9a 75 0a bd 60 66 0b be
       -0.07909225 0.19156437 -0.03380356 -0.13613272
000070 fd 2b f0 3a 92 fc c8 3d 2f 1e d2 3d 32 69 a6 bd
       0.0018323656 0.09813799 0.10259663 -0.08125533
000080 02 14 b5 3d b7 26 25 bd 07 67 0b be 73 b1 ac 3d
       0.08841707 -0.040320124 -0.1361352 0.08432283
000090 dc 4b b1 bd f9 41 f2 3b 3b 0a 13 bd 7e b9 94 bc
       -0.08657047 0.0073931185 -0.03589843 -0.018154856
0000a0 1e da fc 3d 29 d3 fe bd 82 cd b6 bd 22 ba e1 bd
       0.1234629 -0.12442619 -0.08925916 -0.1102183
0000b0 41 1f 24 be b6 0f 2b 3d a0 0f d5 3d 1b 76 ff 3c
       -0.16027547 0.04176303 0.10403371 0.031184247
0000c0 1a 3e d2 3d 70 14 e4 bd bd fe bf bd b8 25 78 3c
       0.10265751 -0.11136711 -0.09374759 0.015145712
0000d0 3b 48 9f be de 3a a7 be 61 2e 0e bd f1 a0 67 bc
       -0.31109795 -0.326621 -0.0347122 -0.0141374925
0000e0 e9 d8 6f be d9 8e 59 bc 2b df bf 3b e5 50 8f bd
       -0.23422588 -0.013278686 0.005855461 -0.06997851
0000f0 0e 0d 83 be 86 c8 f8 3d 71 f7 4f 3e db 43 d5 be
       -0.25595897 0.12147622 0.20309235 -0.41653332
000100 ed 97 af 3e dd c2 94 3e 2f e3 94 be fb 40 94 be
       0.34295598 0.2905492 -0.29079577 -0.28955826
000110 a8 34 55 bd 6c 5b 86 3d 53 be ba 3d 20 34 1c 3d
       -0.05205217 0.06560406 0.09118333 0.038135648
000120 0c 4e 98 bc 94 ea 5d 3c 36 60 79 3d 61 04 5d 3e
       -0.018591903 0.013544697 0.06088277 0.21583702
000130 50 22 60 bd fb 0d 4b be 0e f5 cd 3d 9d 16 9a 3d
       -0.054720223 -0.19829552 0.10056506 0.075238444
000140 58 c0 cc 3d 50 0e 8c be d9 90 af 3d 30 4a 5c 3d
       0.09997624 -0.2735467 0.085725494 0.05378169
000150 28 ce 51 3e 4b d2 19 3d c7 6f 3f ba fb 5f 6a 3e
       0.20488799 0.037554067 -0.0007302728 0.22888176
000160 76 ee a8 be 73 5e 2c be ed 71 70 3e 31 09 18 3d
       -0.3299443 -0.16832905 0.23480959 0.03711814
000170 18 60 b9 be d8 dc bf be 7b 02 3e 3c 05 0d bd 3d
       -0.36206126 -0.37473178 0.011597271 0.09230999
000180 97 4e 98 be 23 06 fb bd 31 b6 e1 bb 22 d2 c6 3d
       -0.2974746 -0.1225703 -0.006888174 0.097080484
000190 0d 06 5f be b0 90 1d 3d 7c 11 52 be f8 0a 41 3e
       -0.21779652 0.038468063 -0.20514482 0.1885184
0001a0 e2 9b 07 be 82 4c 03 be 4a ec 29 be d8 3d d2 bd
       -0.13243058 -0.12822154 -0.16594043 -0.10265702
0001b0 94 4f 9e bd f1 1c 12 3e e4 7a 41 3e f1 3a 8f 3c
       -0.07730022 0.14268853 0.18894535 0.01748416
0001c0 ee 7a 16 3e 87 6a 69 bd 61 88 be 3d 7d 5c 10 be
       0.14695331 -0.056986358 0.09303356 -0.14097781
0001d0 33 f9 bf bd 2c 14 dd 3d f5 07 8b bd 90 bd 38 3e
       -0.09373703 0.10794863 -0.06788627 0.18041062
0001e0 3b 0e e2 bc e3 16 46 3e 5a bc a0 3d 14 2a 70 3e
       -0.027594676 0.19344668 0.07848425 0.23453552
0001f0 c2 db 22 be 00 09 67 bd 0d 10 a8 bd 38 cd 2b 3d
       -0.15904143 -0.056405067 -0.082061864 0.04194376
000200 fe 71 48 3d e1 d1 1e 3d a3 df f6 bd aa c1 15 3d
       0.048936836 0.038774375 -0.12054374 0.036561646
000210 aa 67 c8 bd 5c 21 0e bd 1d 1f 12 3e 52 5d d7 3d
       -0.09785397 -0.034699783 0.14269681 0.10515846
000220 ac 7e bc bc e3 d6 b2 bd 26 1c 4b be 28 93 a0 bd
       -0.02300962 -0.08732393 -0.19834957 -0.07840568
000230 1b 24 ab bd c4 9f 9c 3d 97 4c f7 3d 27 bb 4e bc
       -0.08356496 0.076476604 0.12075155 -0.012617863
000240 32 ed 3d be 8b f4 3a be 97 8a 16 be ea 41 08 bd
       -0.18547514 -0.18257348 -0.14701305 -0.033265986
000250 a3 ee 8b bd f7 c4 af bd 1d e6 10 be ca be 37 bd
       -0.06832626 -0.0858249 -0.14150281 -0.044859685
000260 d2 be 3f 3c c0 43 7d 3d 0f 30 46 bd 40 cd 60 bc
       0.01170321 0.06183219 -0.048385676 -0.01372081
000270 cf 64 03 be 25 2b fd bd ad f6 58 3d 30 3e 4d be
       -0.12831424 -0.12361745 0.052969623 -0.20043254
000280 61 18 ab bd 09 4a 9e bd 06 de f1 ba 2b b5 09 be
       -0.08354259 -0.07728965 -0.0018453009 -0.13448016
000290 13 05 e7 bb 5b 53 b7 bd bf b9 13 be cd f2 57 be
       -0.0070501654 -0.08951446 -0.14426325 -0.21088715
0002a0 66 ce 23 bc c3 ae d8 bd 1c ce d1 3a ab c8 8d be
       -0.00999794 -0.10580208 0.001600686 -0.2769216
0002b0 be b0 fc bc c1 ce 0a 3e 7f d2 bf bd 6e 45 35 be
       -0.030845996 0.13555433 -0.09366321 -0.17702267
0002c0 e5 e7 5d be 85 fe 24 be 41 73 62 be 2e 27 91 bd
       -0.21670492 -0.16112716 -0.22114278 -0.07087551
0002d0 78 e4 17 bd 3e 13 a4 3c be 72 47 bd 67 3a 6e bc
       -0.03708312 0.020028707 -0.04869341 -0.014540291
0002e0 99 85 49 be 50 69 b5 bd e9 08 7c bd c1 08 b0 bd
       -0.1967987 -0.088579774 -0.061531935 -0.0859542
0002f0 d1 7e 89 bd 87 1b 1e bc ad 41 7a bb b7 94 1e bd
       -0.067136414 -0.009650118 -0.0038186118 -0.038716044
000300 c4 99 c2 ba 5f ec a6 be 7b 5c 06 be b0 38 93 3b
       -0.0014846851 -0.32602212 -0.13121216 0.0044928417
000310 9e 60 78 3e 17 12 b1 3c 21 5a d0 bd d1 85 5a 3c
       0.24255607 0.021615071 -0.10173441 0.013337568
000320 5e 6a b4 bd 02 6e fa 3d 6c 4a 81 be 30 eb 82 3c
       -0.088093504 0.122280136 -0.25252092 0.015981287
000330 81 8e 1e 3e cf 71 97 bc 03 33 b2 bd 01 59 54 3d
       0.15484048 -0.018486885 -0.08701136 0.051842693
000340 5e 10 61 3d 43 79 a1 bb 7d 7e 8e be cf 00 97 3d
       0.05494725 -0.0049277856 -0.27830878 0.07373201
000350 86 b0 08 be 12 f0 97 3d ee 37 1f be 52 e4 eb bd
       -0.13348588 0.07418837 -0.15548679 -0.11518158
000360 4c a5 22 3e 2e 1d 72 be 42 d7 14 be fa bb 9a 3d
       0.15883368 -0.23643944 -0.1453524 0.07555385
000370 66 9b a2 3c 04 38 60 bc 75 a0 ea 3d 2a e0 41 bd
       0.01984949 -0.01368523 0.11456386 -0.04733292
000380 03 5c af bd 26 4e cf bc 64 9d d8 3d 91 e3 bc be
       -0.08562472 -0.025305819 0.10576895 -0.3689237
000390 6d b6 48 be 29 cf 82 3e 02 84 3b 3e ec e1 31 3e
       -0.1960084 0.25548676 0.18312076 0.17371339
0003a0 b3 33 95 bd ca ab 74 bd aa 38 66 3d b2 03 c2 3e
       -0.072852515 -0.059734143 0.056206383 0.37893444
0003b0 9a 86 0e be 48 e4 91 3c 3f c3 1e 3e 8f d2 01 be
       -0.13918534 0.017809048 0.15504168 -0.12677978
0003c0 8b 32 33 3e 74 ab 05 bc 45 48 db 3d df 6e 37 3e
       0.1749975 -0.008158553 0.10707144 0.17913388
0003d0 35 84 b5 3d 23 c5 d4 bd 5c db 99 3d 15 ef 93 be
       0.08863107 -0.10389163 0.075125426 -0.28893343
0003e0 9b 1a c8 3d 64 68 23 3e 23 39 8e bd 29 99 94 bd
       0.097706996 0.1595779 -0.06944492 -0.072557755
0003f0 37 04 17 3e 03 a6 e6 3c 98 43 92 bd 33 f9 9f bb
       0.14747702 0.028155332 -0.07141799 -0.004882002

fc3.bias f4 [64]
000000 7c 65 40 3d 89 3a 01 3e 81 0f 5b bd 06 f4 9e 3d
       0.046971783 0.12619986 -0.053481583 0.077613875
000010 c5 68 14 3d e8 96 bf 3d a6 69 ed 3d f8 ed ed bc
       0.03623273 0.09354955 0.115924165 -0.029044136
000020 b0 4d 84 3e dc c0 a4 3d 95 d0 9a 3d bf f6 82 3c
       0.2584052 0.080445975 0.07559315 0.015986798
000030 2d 65 72 3c 9d e6 90 bd f1 fa d2 3d e1 ca 41 3d
       0.01479463 -0.07075236 0.103017695 0.04731262
000040 5d c1 c1 bd 84 4a 40 3d d1 6e 2b 3d 18 f8 01 be
       -0.09460709 0.046946064 0.04185373 -0.12692297
000050 43 aa aa 3c 6a f2 9e bd af 43 1f 3d 60 ea c6 bb
       0.02083314 -0.077610806 0.038882907 -0.00607042
000060 d8 64 d3 3d a9 b3 88 3c 35 11 71 bc 65 8b 1e 3e
       0.10321969 0.016687231 -0.014713575 0.15482862
000070 0c 1a 85 bd 1f a5 81 3e 2c 1d bb 3d 1a a8 cc 3c
       -0.06499109 0.2532129 0.091364235 0.0249825
000080 bf 8e d9 3d 69 b1 78 3c 6a 5a 92 bc 81 53 3f 3e
       0.1062293 0.015179017 -0.017865378 0.18684198
000090 71 00 84 bc 9e f2 9d 3d 66 16 4f bd 54 2e 22 bd
       -0.016113492 0.07712291 -0.05055847 -0.039594963
0000a0 ba d1 23 be e2 13 0e 3e 44 43 5e 3d 20 69 0f bc
       -0.15997973 0.13874772 0.05426337 -0.008753091
0000b0 9d f6 e1 3d d1 7b c9 3d 07 c5 1d bc a6 99 eb 3d
       0.11033366 0.09838069 -0.0096294945 0.115039155
0000c0 95 80 12 3d 9b 94 ad 3d 65 c8 4b bc 7f 37 b9 3c
       0.035767157 0.0847561 -0.0124379145 0.02260947
0000d0 fb b0 19 3e 1d 81 02 bc c9 95 84 3d 69 54 ef 3d
       0.15008919 -0.007965353 0.06473882 0.11686022
0000e0 62 c6 9b 3d 67 a1 f1 bd 8c 28 91 3b 88 fb ab bd
       0.07606198 -0.11798363 0.0044298824 -0.08397585
0000f0 28 c7 07 be 66 7c 9a 3d 60 94 91 3d 21 6a ad 3d
       -0.13259566 0.07543258 0.071083784 0.08467508

fc4.weight f4 [10, 64]
000000 67 3a aa 3d 89 a7 f4 bd 7b cf 2f 3e 5f 28 d7 be
       0.083119206 -0.11946017 0.17168991 -0.42022988
000010 2d e4 33 be f3 46 e1 bc 37 26 ad be d4 c0 58 be
       -0.17567511 -0.027499652 -0.33818218 -0.21167308
000020 41 01 c2 be f3 38 f4 bd 4f 68 ce 3b a8 26 ae bd
       -0.37891582 -0.11924925 0.0062990556 -0.08503467
000030 e8 39 13 be b8 12 10 3e 6a 41 9f be 36 aa d2 bd
       -0.14377558 0.1406964 -0.31104594 -0.102863714
000040 60 2d 4d be e6 33 4f be 33 08 c6 3d 45 d3 75 bd
       -0.2003684 -0.20234641 0.096695326 -0.060015935
000050 ef 10 45 3c 16 a3 15 3e d0 4c d1 3d f7 c9 92 be
       0.012027963 0.14612994 0.10219729 -0.28669712
000060 60 26 22 bd 42 99 2a 3e 43 db 5d 3e 87 0c 91 3d
       -0.03958738 0.16660026 0.21665673 0.070824675
000070 a9 e5 8d be cc 06 e1 be 3c cd 0f be 10 9a 9b be
       -0.2771428 -0.43950498 -0.14043134 -0.30390978
000080 a5 6b 18 be 60 38 ee bd ca 0c 30 3d cd 73 92 bd
       -0.14884813 -0.116318464 0.042980947 -0.071509935
000090 18 8c 40 be 61 e4 f0 bd 39 09 82 bd e4 d9 b4 be
       -0.18803442 -0.1176231 -0.06349415 -0.35322487
0000a0 f1 e8 d4 bd d6 52 de be 44 57 e8 be a4 41 db 3d
       -0.103959925 -0.43422574 -0.45379078 0.10705879
0000b0 e5 87 cf bd 44 90 32 be 8c 16 54 be 95 d1 9a be
       -0.10133342 -0.17437845 -0.20711726 -0.30238023
0000c0 de f4 68 be 20 c8 98 3c e7 ac c2 3d 86 03 0e bd
       -0.2274966 0.018650115 0.09505635 -0.03467133
0000d0 29 46 52 be a8 aa 0c bf fe 8c cb 3d d1 76 22 be
       -0.20534576 -0.549479 0.099390015 -0.15865637
0000e0 7a b4 3a 3e 50 f3 32 bd 7a 65 7f 3d fc 27 90 bd
       0.18232909 -0.043689072 0.062352635 -0.070388764
0000f0 0a 57 4e be cb 1a ac bd 5d 00 8e bd 9a ed 2d 3d
       -0.2015039 -0.08403548 -0.06933663 0.042462923
000100 11 72 fd be 14 1f 95 be 78 de 7e be 8b 12 27 3e
       -0.49501088 -0.29125273 -0.24889553 0.16315667
000110 9f a6 f0 bc ae 0a f2 bd f5 6d 6f 3e 97 08 6a bc
       -0.029376326 -0.11818443 0.23381789 -0.014284275
000120 9f 67 58 be ca 1f a5 3d 41 49 b8 be b2 b0 a7 be
       -0.21133278 0.08062704 -0.35993388 -0.32751995
000130 87 ce fc 3c f3 12 36 be 33 c8 8d 3e 6f 78 be 3d
       0.030860199 -0.17780666 0.27691802 0.09300315
000140 9a aa aa 3d 6b f7 7f 3c af f3 dd be b7 a3 d4 3d
       0.08333321 0.015622954 -0.43349978 0.10382789
000150 a9 5d b2 bd a4 11 33 bf ea 75 ae 3d a5 ed 4d be
       -0.087092705 -0.6994879 0.08518584 -0.20110185
000160 1c 9c 1f be 91 e6 96 be 56 ae 41 be 94 ff 4c be
       -0.15586895 -0.29472783 -0.1891416 -0.2001937
000170 45 4b 5b 3d e2 48 0e be 04 21 c6 be 6b 15 40 3e
       0.05353858 -0.1389499 -0.38697064 0.1875817
000180 0e 25 19 be 6f e0 ad be 0b 7e b3 be 6f cd 5b 3e
       -0.14955541 -0.33960292 -0.350571 0.21465085
000190 47 f2 c6 be 30 33 17 bb d8 b6 01 bf 1f fe ad 3d
       -0.38856718 -0.0023071282 -0.5066962 0.084957354
0001a0 65 7a 90 bc 7c c1 1a 3d 0b 3b 98 be b9 df 54 be
       -0.017636487 0.037782177 -0.29732546 -0.20788468
0001b0 63 e8 1c be 3c 92 05 be fc 65 41 bc 39 7d ba bd
       -0.15323023 -0.13044065 -0.0118041 -0.091059156
0001c0 ad db ad be bb ab 4c bd 5e 57 9b 3d c1 03 6f 3e
       -0.33956662 -0.049968462 0.07585023 0.23341276
0001d0 fc 97 8d 3d 7d 75 0b 3d 8c fe 21 3e ef 29 e4 3d
       0.06913754 0.034047592 0.15819758 0.11140811
0001e0 bb 14 9e be 50 b3 56 3e 63 2f 4a be b6 27 81 be
       -0.3087519 0.2096684 -0.19744639 -0.2522561
0001f0 06 07 27 be 3e ed bc be 85 4a 9d be b2 38 38 be
       -0.16311273 -0.3689975 -0.30720916 -0.17990378
000200 72 aa bd bc 40 44 c4 3d 4e 4b b0 3b 01 5f 0f 3e
       -0.023152564 0.0958333 0.005380071 0.14001085
000210 24 6a 01 3e f3 27 c1 be b9 6f 40 be 97 3b ff 3d
       0.12638146 -0.3772579 -0.18792619 0.12462538
000220 3b 63 64 be 41 9e d9 3d 06 4d 67 3d f0 5e 5a be
       -0.22303478 0.10625888 0.05646994 -0.21325278
000230 4f 10 f4 be 0b 86 3c 3e 8e c9 ba be 1f d9 01 3d
       -0.47668692 0.18410508 -0.364819 0.031701203
000240 5e d5 1a 3d a7 16 87 be 16 74 14 be 42 74 d5 3d
       0.03780114 -0.2638447 -0.14497408 0.10422565
000250 34 d5 2b be 53 1d 8e 3d 18 d7 80 be 41 0c 92 be
       -0.1678055 0.06939187 -0.25164104 -0.28524974
000260 73 49 38 bd 7b ab 14 3d 9a fa da bc 75 2c 1c be
       -0.04499192 0.03629635 -0.026730824 -0.15251334
000270 37 75 8c be 88 2a 86 be ee 7c fe bc af 31 13 bf
       -0.27433178 -0.26204324 -0.03106543 -0.57497686
000280 6a b5 5e 3d 46 aa b3 be 28 33 ea bd 26 96 8c be
       0.05437223 -0.35090846 -0.114355385 -0.27458304
000290 45 9c d6 bd e7 62 30 3d 15 69 63 be 99 f1 04 be
       -0.10479025 0.04306307 -0.22208054 -0.12982787
0002a0 61 65 12 bd 5d b4 ea 3d a7 bf 68 be 1a 49 2c 3d
       -0.035741214 0.11460183 -0.2272936 0.042061903
0002b0 38 6c a0 bd be 9b b4 bd 33 d3 6d bd 0c 41 31 3e
       -0.07833141 -0.08818768 -0.058062743 0.1730997
0002c0 03 0c 44 3d 66 1e 43 bd 78 1b d5 3b f3 57 c7 3c
       0.047863018 -0.047636412 0.0065035187 0.02433393
0002d0 a7 1a 9f bd 75 91 dc be 6f 27 6d bc 2e 6b 8f 3b
       -0.077687554 -0.43079725 -0.014474734 0.0043767905
0002e0 52 e2 47 be 32 4e 50 bc 6a f8 43 3d fc 30 7b be
       -0.19519928 -0.012713956 0.047844328 -0.24530405
0002f0 2c c6 0b 3e 65 47 1c be 0e 75 6c be d7 bf 1f 3e
       0.13649815 -0.1526161 -0.23091528 0.15600525
000300 22 71 68 be dd d9 0c 3c e2 10 15 be f1 88 0c be
       -0.22699407 0.0085968645 -0.14557222 -0.13724114
000310 6c 99 21 3e 98 2e 85 3d a5 c3 a7 bd b5 d3 b8 bd
       0.15781182 0.06503028 -0.08191613 -0.09024755
000320 bd fb 0a 3e 26 21 68 3d ef 57 d5 3b 9b e0 e5 be
       0.13572593 0.056672238 0.0065107266 -0.44897923
000330 95 a8 05 3d 38 1f 92 3d cc 0c 8d be ff 20 4b 3e
       0.032631475 0.07134861 -0.27548826 0.19836806
000340 42 5d ca bd e0 ad 41 3c 6c 7f e6 bd 0d 3e 19 3d
       -0.09881069 0.01182124 -0.112547725 0.03741269
000350 9c 34 b9 bd 0f 45 0a bd 3b 5c 50 be db 2e 95 be
       -0.090432376 -0.033757266 -0.20347683 -0.2913731
000360 ac 74 fb bb 6e 0b 87 be 99 10 09 be 15 ad 8f be
       -0.0076738205 -0.26375908 -0.13385238 -0.2806174
000370 05 87 8f bd 3c a1 8b 3c fc 47 23 bd a9 ce 3e be
       -0.07008175 0.017044656 -0.03986357 -0.18633522
000380 7e 7b 07 bd 9b 1c 6f be 08 7a 06 3c 35 46 7a be
       -0.033076756 -0.23350756 0.008207805 -0.24440844
000390 49 23 26 be fb 3c 7d be 46 50 03 bf 18 79 58 3e
       -0.16224398 -0.24730293 -0.5129436 0.21139944
0003a0 21 89 0d bd 50 01 a2 3d ed d4 8a 3e 38 08 a5 be
       -0.034554604 0.079104066 0.27115574 -0.32232833
0003b0 0c 0a d3 bc 96 cb 62 3e d3 b4 8b be 48 8a 11 be
       -0.025761627 0.22147974 -0.27286395 -0.14212906
0003c0 b2 df 48 bd d0 79 69 3d 44 9d e0 bd ea e6 ad bd
       -0.049041457 0.057000935 -0.10967496 -0.08491309
0003d0 74 f0 54 bd 65 2e 76 be 89 e9 97 3d 3d d7 41 be
       -0.051987126 -0.24041136 0.0741759 -0.18929763
0003e0 da d0 cc bd d2 54 83 be 68 4b 3d be 3c cb 08 be
       -0.10000773 -0.2565065 -0.18485796 -0.13358778
0003f0 30 1b 96 3d b7 44 cf bd 84 bd 19 3e 58 0f 02 3c
       0.07329404 -0.10120528 0.150137 0.007938229

fc4.bias f4 [10]
000000 f3 38 d8 bb 19 08 36 3d 73 af 0d bd 7c 66 43 bc
       -0.0065985858 0.044441316 -0.03459115 -0.01192629
000010 9b e6 bd 3c d9 23 0a 3e ff c7 01 be 73 b9 fb 3b
       0.02318125 0.13490237 -0.12673949 0.0076820194
000020 1a 3e 79 3c 51 42 78 3c
       0.01521256 0.01515253
