bnn/cnn_mnist.pth (torch_old, 88684 bytes, 8 tensors)

conv1.weight f4 [10, 1, 5, 5]
000000 a6 0d d7 bc c7 55 28 3d 55 be e2 3d 4f b3 03 3e
       -0.026251625 0.04109743 0.11071459 0.1286137
000010 e4 b2 b2 bd 36 ed 07 3e 18 19 85 3e af 4d 85 3d
       -0.08725527 0.13274083 0.25995708 0.065089576
000020 61 ec 57 3e 43 39 5c 3e 90 45 1f be 83 34 8b bd
       0.21086265 0.21506219 -0.1555388 -0.06797125
000030 c1 b9 26 3e 98 ed 2c 3e 1a 19 99 3e 2c 74 ab be
       0.16281797 0.1688751 0.29901963 -0.3348707
000040 eb 53 b7 bc d6 80 0c be 5f 4f 4f bd 30 32 b5 bd
       -0.022378882 -0.13721022 -0.050612804 -0.08847463
000050 74 b0 ee be 7f ff f9 be 2f fe de be ac ca d1 be
       -0.46618998 -0.4882774 -0.43553302 -0.4097494
000060 c8 06 6d be 60 a6 3d be 50 b1 04 be d6 37 53 be
       -0.23147118 -0.18520498 -0.12958264 -0.20626768
000070 b7 6a 50 be d0 18 8f 3d 90 8d 9b 3d e5 93 80 bd
       -0.20353208 0.069871545 0.0759536 -0.06278209
000080 7b 1f 67 be e5 3e ce be 28 67 ae be 62 f4 6a 3d
       -0.22570603 -0.4028236 -0.34063077 0.057361968
000090 66 88 7c 3e b6 cd 9c 3c af e0 d1 3d ee b1 1a be
       0.24661407 0.01914106 0.10247933 -0.15106937
0000a0 21 62 4c be c4 1d ad 3e 92 26 f4 3e d8 02 19 3e
       -0.19959308 0.33811772 0.47685677 0.14942491
0000b0 18 bb 11 3e 8b 31 2b bd 49 5a 24 be d4 9c 25 be
       0.14231527 -0.041795295 -0.16050066 -0.16173106
0000c0 f2 10 d4 3d 48 39 b0 3d d8 41 99 bd 5d 42 4b 3d
       0.103547946 0.086046755 -0.07483262 0.049623836
0000d0 c8 76 2b be 85 55 fe 3d 32 c1 2f be 13 5d 7b 3d
       -0.1674453 0.12418655 -0.17163542 0.06136806
0000e0 31 6d 93 bd 15 9e 0e bd c0 ba 5a be 47 70 dc bd
       -0.07198561 -0.034818728 -0.21360302 -0.10763603
0000f0 41 20 44 be 95 cc eb 3d 89 18 13 be 5b ad 0c bd
       -0.19152929 0.1151363 -0.14364828 -0.034345012
000100 c2 30 ec 3d e6 8f 3b 3e 40 5e 1f be 48 42 aa bd
       0.11532737 0.18316612 -0.15563297 -0.083134234
000110 32 2d d3 3c d2 02 3f 3e dc 83 96 bd 7a a8 3d be
       0.025778387 0.1865342 -0.07349369 -0.185213
000120 79 94 13 bc 36 33 04 be 8c 5c 2b bd e5 22 73 bd
       -0.009007567 -0.1291016 -0.041836306 -0.05935945
000130 39 77 a3 bc 61 a4 06 be 0d dd 80 bd 3b f9 4d bd
       -0.01995431 -0.13148643 -0.06292162 -0.050286513
000140 b1 6c c6 be d6 fa 5e be 02 d6 73 bd 42 30 a5 3d
       -0.387548 -0.21775374 -0.059530266 0.08065845
000150 9c 81 53 bc 41 59 5f be c4 69 2a 3e ac cf 98 3e
       -0.012909319 -0.21811391 0.16641909 0.2984594
000160 39 82 a8 3c ae c7 e2 3d c5 98 7c 3e 81 3d e3 3d
       0.020569908 0.11073242 0.24667652 0.11095715
000170 ba d3 87 3d a6 81 e3 3d fd e7 25 be 80 20 8a 3e
       0.066321805 0.11108713 -0.16201778 0.2697792
000180 7a 75 06 3d e9 78 5f be f9 d6 4a bd 5f bb fb 3c
       0.032826878 -0.21823467 -0.04952142 0.030728994
000190 69 6e 55 be 2c e1 d9 3d 09 fb e0 3d 05 c4 0d 3e
       -0.208429 0.10638651 0.10985381 0.13844307
0001a0 c8 30 09 bc 78 55 55 3e 13 86 8b 3e ea 6b 96 3e
       -0.008373447 0.20833385 0.27250728 0.29379207
0001b0 83 c7 be bc 5d 42 68 3d dd 70 f6 3c bc 8d 38 bd
       -0.023288494 0.056703914 0.030083114 -0.045057043
0001c0 2c f3 52 be 44 ab 00 be ae 82 5d be 62 47 bd 3d
       -0.20600575 -0.12565333 -0.21631882 0.09242131
0001d0 7c 25 c0 bd f3 16 f0 bd 9f 91 d9 bd ff ba b6 bd
       -0.093821496 -0.11723127 -0.10623478 -0.089223854
0001e0 dc fc b9 bd 2a 88 38 be d5 63 e7 bd 01 0b 02 be
       -0.09081432 -0.18020692 -0.11298338 -0.1269951
0001f0 55 cc 49 be 71 35 4a be 6b 1d 35 be f5 4d 80 be
       -0.19706853 -0.19746949 -0.17687003 -0.25059476
000200 a6 8e c2 bd ae 39 04 be 07 5b 21 3d 24 05 b7 3d
       -0.09499864 -0.12912628 0.03939345 0.08936527
000210 1b eb d0 bd 0f 51 35 be 14 57 95 be d6 46 57 3e
       -0.10201093 -0.17706703 -0.29167998 0.21023116
000220 a7 35 17 be 32 9b 46 3c 37 31 61 3c 70 94 e5 3d
       -0.1476656 0.012121962 0.013744644 0.11209953
000230 0f 08 87 bc 97 9d 13 be 44 e7 77 3d 2c e7 6a bd
       -0.016483335 -0.14415585 0.060523286 -0.05734937
000240 bc 73 54 3d 3b 13 19 3d 4b 2d 74 be e2 a5 ce 3d
       0.051868185 0.037371855 -0.23845403 0.100902334
000250 72 cb a2 3e b0 c7 87 3e f9 41 f9 bc b1 3a d5 bd
       0.3179584 0.26519537 -0.030426966 -0.10411585
000260 06 56 a5 3d 69 d0 55 3a 39 90 06 3e 3d 60 3e be
       0.08073048 0.0008156361 0.13140954 -0.185914
000270 49 28 54 be b7 12 85 be fb 6a 57 bd fc c5 58 3e
       -0.20718493 -0.2599084 -0.05259226 0.21169275
000280 09 c5 96 be cf 00 54 be 3f 90 55 be bc eb 26 3e
       -0.294472 -0.20703433 -0.20855807 0.16300863
000290 7b 1e a1 3e 52 a7 c2 be b4 8b 0e be 10 4b 0c 3e
       0.31468567 -0.3801828 -0.1392048 0.13700509
0002a0 ab ad 12 3e 23 1a 76 3e 1a f1 b3 be 73 e9 2b be
       0.14324062 0.24033408 -0.35144883 -0.16788273
0002b0 c4 2c 02 3d c5 88 5f 3d 44 eb 6a 3e 2e 91 85 3c
       0.031780973 0.054573793 0.22941309 0.016304579
0002c0 91 17 c0 3d 98 15 25 bd c5 47 3d 3d f2 67 02 bd
       0.09379495 -0.040303797 0.046211023 -0.03183741
0002d0 0e f1 bf bd 64 b2 62 be e5 01 06 bd 2e 11 89 3c
       -0.093721494 -0.22138363 -0.03271665 0.016731825
0002e0 45 d4 14 3d b1 5a 46 3c 83 54 72 be 02 0a 23 bd
       0.03633525 0.012106583 -0.23665051 -0.039804466
0002f0 bf f8 3c be 65 18 36 be 23 0a 71 3e ba 58 7e bd
       -0.18454264 -0.17782743 0.23539023 -0.062096335
000300 83 a6 58 be 9d af 1f be b4 7a 15 be 88 d0 5f 3c
       -0.21157269 -0.15594335 -0.14597589 0.013660558
000310 6a d8 a1 3e 24 3a 2b 3e 79 c1 89 3e 59 a9 51 3e
       0.31610423 0.16721398 0.2690542 0.20474757
000320 1b be 32 3d 06 ea a9 bc 70 2f 05 be 92 7d 41 be
       0.04363833 -0.020741474 -0.13006377 -0.18895558
000330 41 2e e0 3a c4 b5 51 3e 22 99 12 3e 34 a1 4c 3d
       0.0017103628 0.20479494 0.14316228 0.049958423
000340 35 50 78 be 94 a1 6c be d0 63 3e bd 6d 86 c2 3e
       -0.24249347 -0.23108512 -0.046481907 0.37993184
000350 e1 69 b1 3d 0a 5a 7b be 10 4c 51 bd 63 85 11 bd
       0.08662773 -0.24546066 -0.05109793 -0.035527598
000360 47 67 73 3e 6b 42 15 3e 3f 13 90 3d c0 bd 87 be
       0.23769866 0.14576118 0.07034921 -0.26511955
000370 1a 53 fd bd 5f 25 09 3e 5c e0 f9 3d dc ac 07 3e
       -0.12369366 0.13393162 0.12200996 0.13249534
000380 8c 99 bd bd ef f6 f0 3d 44 31 8a 3d 5e d3 ac bd
       -0.09257802 0.11765849 0.06747678 -0.084387526
000390 10 ec 88 3d 2b 01 90 bd 39 99 9b 3e c0 fd 05 bc
       0.0668565 -0.07031473 0.30390337 -0.0081781745
0003a0 4f 28 51 bd 72 e6 e6 3c 58 fd d7 bd 14 2d a8 3e
       -0.051063832 0.028186057 -0.10546368 0.32846892
0003b0 0a 06 4c be 83 a7 3a bd 30 11 f6 bd e7 91 32 bc
       -0.19924179 -0.045569908 -0.12014997 -0.010899044
0003c0 7b 66 74 3e 92 3e ce bd ca 35 6b be 99 a6 64 3c
       0.23867218 -0.10070528 -0.22969738 0.013955736
0003d0 b7 fd a2 bd 69 05 dd 3d 69 ea b1 bc 1d e0 07 be
       -0.079585485 0.107920475 -0.02171822 -0.13269086
0003e0 41 8e f3 3c b3 df 0e 3e
       0.029730918 0.13952522

conv1.bias f4 [10]
000000 29 83 cd be 8f 6f 9e be b5 e6 51 be bd 84 20 be
       -0.4013913 -0.30944487 -0.20498164 -0.15675636
000010 d3 25 55 be d0 d0 05 be 04 82 d1 be a1 42 6f be
       -0.2081521 -0.13067937 -0.40919507 -0.2336526
000020 67 ce 81 be 09 f7 3e be
       -0.25352785 -0.18648924

conv2.weight f4 [20, 10, 5, 5]
000000 8b 7a be bd 92 d3 3d bd fa f7 87 bd 88 85 ad 3c
       -0.09300717 -0.046344347 -0.06639095 0.021181837
000010 b3 43 c6 3d 65 8c dc 3d 93 be 68 bc 3c df ae 3d
       0.09680881 0.10768966 -0.014205593 0.08538672
000020 27 a0 90 3c a7 83 eb 3c 80 29 1e 3d 31 90 e5 bc
       0.017654492 0.0287493 0.038613796 -0.028022857
000030 fb 2d 18 3e a1 09 60 3d 11 22 b1 bd 26 3c b7 bd
       0.1486129 0.054696683 -0.08649076 -0.08947019
000040 a7 9c 53 bd 61 03 2c bd 9c a0 37 be 59 98 02 be
       -0.051663067 -0.04199541 -0.17932361 -0.12753429
000050 ff 71 e5 bd ba d6 05 be 1d 65 f4 bd 37 33 e2 bd
       -0.11203384 -0.13070193 -0.11933348 -0.11044925
000060 9c 82 24 bd 34 aa 90 3d 18 fa a0 3d b3 d5 0b 3e
       -0.04016362 0.07063714 0.078602016 0.13655739
000070 2e 29 62 3c 5f 1d 9c 3d 39 c1 8d 3d b0 ff d6 3d
       0.013803763 0.076227896 0.0692162 0.10497987
000080 e0 e8 89 3d 14 7b c1 3d b6 38 97 bc 78 a4 94 3d
       0.067338705 0.094473034 -0.01845966 0.072579324
000090 9d 48 07 3e 7e b0 d3 3c 25 65 89 bd c1 aa 58 be
       0.13211294 0.025840994 -0.06708745 -0.21158887
0000a0 58 de 94 bd 60 a2 ae bd 8d a8 54 3d c3 7b 9e 3c
       -0.07268971 -0.08527064 0.051918555 0.019346124
0000b0 15 68 ed bd 8c 3c f9 3c ad 61 ae bc 65 3f b6 bd
       -0.11592118 0.030424379 -0.02128681 -0.0889881
0000c0 85 83 5a bd 0f 7d c3 bc 38 78 d9 bc fb fc b1 bc
       -0.053348083 -0.023863344 -0.026546583 -0.021727076
0000d0 97 12 be bc 72 a6 da bc c1 5e 69 38 69 34 0c 3b
       -0.023202224 -0.026690695 5.5639775e-05 0.0021393544
0000e0 28 2f 65 bd 28 86 e7 3b e7 46 b6 bc 81 1b 84 bd
       -0.055953175 0.007065553 -0.022250606 -0.064505585
0000f0 f4 28 0e 3d 91 de f6 bc aa 27 2e 3c 6d ee 25 3d
       0.034707025 -0.030135425 0.010629574 0.040510584
000100 0b 56 02 3d cd 7b 2e bc bb e0 ad bd 1e 5f 8c bd
       0.03182034 -0.010649634 -0.084901296 -0.0685408
000110 68 de 9f bc 6b c6 e9 bc d6 7c f3 ba 73 e8 42 3d
       -0.019515231 -0.028536996 -0.0018576633 0.047584962
000120 5b f9 9b bc c9 f6 60 3d 8c 17 8d 3b e2 4c e5 3b
       -0.0190398 0.054922853 0.0043057855 0.0069976905
000130 cd 0e 8e 3c 05 55 b6 3c d0 29 f0 3b d6 1c 18 3e
       0.017341042 0.022257337 0.007329203 0.1485475
000140 77 f5 57 bc e3 8a 9a bd 12 20 32 3d 27 97 a3 3d
       -0.013181082 -0.07546022 0.043487616 0.079878144
000150 8c 0c 50 3d 5b c6 07 3d 61 13 8d bc 7a 70 1c bd
       0.050793216 0.03314815 -0.017221155 -0.038193204
000160 4f 66 a1 bc 74 d7 55 bd f8 4b 5f bd 9f 5c e9 3c
       -0.019702105 -0.052207425 -0.05451581 0.028486548
000170 d5 0b 6a 3d 8e 21 dc bc 33 15 c0 bc c2 b7 cc 3d
       0.05714019 -0.026871469 -0.023447609 0.099959865
000180 73 a8 23 3e c9 95 8b 3d cb 5e 9e bd 74 da e6 bc
       0.15982227 0.068156786 -0.07732924 -0.028180338
000190 f8 1f de bd 09 6f 22 bd 57 03 fe 3d 95 13 0a 3e
       -0.10845941 -0.039656673 0.12402981 0.13484032
0001a0 9a 59 c5 bd b0 26 e5 3c 2a 90 0d 3d 5a 1e 65 bd
       -0.09636231 0.02797255 0.034561314 -0.05593715
0001b0 94 b2 88 bd 9f 6f 2f be 70 8e 94 3c 1a d5 56 3d
       -0.06674686 -0.17132424 0.018134326 0.052449323
0001c0 f9 d9 35 bc 30 36 b8 bd 69 da 24 be 02 dc 58 bd
       -0.011099332 -0.089947104 -0.16098942 -0.05294419
0001d0 30 84 64 b8 a5 64 6a 3c a8 fd f3 bc ef df 4b bd
       -5.4482545e-05 0.014306222 -0.029784039 -0.049774107
0001e0 95 a9 84 3b 9b 31 07 3e e8 21 e2 3d 64 ec a0 3d
       0.004048536 0.13202517 0.11041623 0.07857588
0001f0 be 0b 23 bd 39 f1 0b 3d 74 2c 03 bd 98 68 4e 3d
       -0.03980612 0.034165595 -0.032024816 0.050392717
000200 22 2d 14 3d 2e 1e 4a bd f9 e0 1f bc 0d f3 e7 bd
       0.036175855 -0.049345188 -0.0097582275 -0.11325655
000210 e0 63 d7 ba 7a 34 07 bd 9d f1 54 bd 5f 85 45 bd
       -0.0016432963 -0.03300903 -0.051988233 -0.048222896
000220 17 8b 9d bd 2f 30 04 be f0 07 ac bd 4e 99 a8 bb
       -0.07692545 -0.12909006 -0.083999515 -0.0051452285
000230 f2 b4 17 3c 90 5c 72 bc c9 38 9c bd 95 e7 19 bd
       0.009259449 -0.014792576 -0.076280184 -0.03757437
000240 44 7e 31 bd a2 d5 a5 3d 9f ad a0 3d d9 32 31 bb
       -0.043333307 0.08097388 0.078456156 -0.0027038364
000250 9a 3a 8c bc 0c 2a c6 bc 90 70 e9 bd 25 c1 1a be
       -0.017117787 -0.024189971 -0.11398423 -0.15112741
000260 72 bd 10 be a2 a8 36 3d b4 ba 27 3e ed 7f 85 bd
       -0.14134768 0.044594415 0.16379815 -0.065185405
000270 ce c7 5c be de 73 22 be 4a 4f 19 be 59 2d bc 3d
       -0.21560594 -0.15864512 -0.14971653 0.09188337
000280 c5 a0 ea bc 08 cc ce bd 55 5b 0d 3d 55 65 5d be
       -0.028641114 -0.100975096 0.03451093 -0.21620686
000290 f3 c4 3b 3e 8c f2 ad bc b3 f5 ef 3c 4c 8b c7 3d
       0.18336849 -0.02123382 0.029291963 0.09743366
0002a0 c4 48 31 3d 46 68 8d 3e 77 17 1a bc 66 ca 9d 3d
       0.043282285 0.27618617 -0.0094050085 0.0770462
0002b0 14 d2 1e 3e 20 74 2d bc 7e bc 0a 3e 01 b5 58 3d
       0.15509826 -0.010586768 0.13548467 0.052906994
0002c0 a4 2b 60 3d 21 2d 0f 3e 59 d3 ee 3c 3b 68 11 3c
       0.05472912 0.13982059 0.029153513 0.008874948
0002d0 d7 57 c7 3c 9c ee 50 3d eb 8c ab 3d 44 cc 43 bc
       0.024333877 0.051008806 0.08376487 -0.011950556
0002e0 d5 83 a8 bc 54 8a bd bd c7 43 c1 bd fe a5 16 3d
       -0.020570675 -0.092548996 -0.094367556 0.036779396
0002f0 40 67 59 3d 23 ef bc bd 22 18 38 bd c6 6f 43 bd
       0.053076982 -0.09225299 -0.04494489 -0.047714017
000300 9a 5e 98 bc 85 b6 69 3d 6d 22 09 3c 3a 0d e3 bd
       -0.018599797 0.05705883 0.008370024 -0.11086507
000310 28 b9 00 be 1c bc b9 bd f4 a1 cc ba 20 61 20 3d
       -0.12570632 -0.09069082 -0.0015612231 0.039155126
000320 be 49 23 bd aa a2 17 be cb 56 73 bd 11 32 26 3d
       -0.039865248 -0.14808145 -0.059408944 0.04057509
000330 eb de 37 3d c0 46 36 3d dd b6 2b 3e 49 f3 8d 3c
       0.044890326 0.044501066 0.16768976 0.017327921
000340 91 f6 9b 3d 25 59 9e bd 7d 7b da bc 22 06 12 3e
       0.07615388 -0.07731847 -0.026670212 0.14260152
000350 cf 34 0b 3e 36 cb 50 3d 4b f6 de bd 1d 59 ef bd
       0.13594364 0.050975047 -0.108868204 -0.11686919
000360 4b c9 25 bd e9 17 9c 3d 63 a2 8d 3b 61 3e cf bd
       -0.04047517 0.07621748 0.0043223365 -0.1011932
000370 90 9a 72 be 7c fd 3e be fb 37 a6 bc ba ac 2a 3c
       -0.23691773 -0.18651384 -0.020290365 0.010417158
000380 af 68 be bd e6 01 87 bd 35 d1 45 bd 80 3a dc bc
       -0.092973106 -0.06592159 -0.04829522 -0.026883364
000390 61 b2 a6 bd c5 2d 0a 3c d6 1f a4 bd 09 55 36 3d
       -0.08139492 0.008433764 -0.08013885 0.04451469
0003a0 af fb 55 3d 05 15 5a bd a6 2c 17 bd 26 08 3c bd
       0.052241977 -0.053242702 -0.036907814 -0.04590621
0003b0 11 02 14 3d 86 17 49 3d 2f 53 06 bd 17 76 94 bd
       0.036134783 0.0490947 -0.032794174 -0.07249086
0003c0 2c 83 2b be 85 a6 31 bc 05 48 3c 3c df c7 14 3c
       -0.16749257 -0.010842924 0.01149178 0.009080856
0003d0 4f de eb 3c a7 04 89 bd d7 4d 1a 3d 2f 5a 53 3d
       0.028792528 -0.066903405 0.03767189 0.051599678
0003e0 f4 f2 e6 3d 8a e3 0c 3d a5 b8 97 3c 64 1f 34 bd
       0.112768084 0.034396686 0.018520663 -0.04397525
0003f0 09 61 f5 3a 0a fb cb bc 9a c9 2c 3e d6 31 11 3d
       0.0018720935 -0.024899978 0.1687378 0.035447918

conv2.bias f4 [20]
000000 25 a3 aa bd e6 0c 9f bd e6 a5 3f 3d a8 9d 48 bd
       -0.083318986 -0.07766132 0.046789072 -0.048978478
000010 ec 11 07 bd a0 32 e1 3c c3 e3 0b 3d 2f f8 99 3c
       -0.032976076 0.02748996 0.034152757 0.018795101
000020 a1 87 9d bd 85 cd 9d 3c ca dd c8 3b 5d 7f 8d 3c
       -0.07691885 0.019263038 0.006129955 0.017272646
000030 00 91 d0 3c 04 7e ee 3c 12 d2 05 bd 8b d3 e8 bc
       0.025459766 0.029112823 -0.03267104 -0.028421184
000040 29 cc 8a bd e8 a7 9c 3b ba b8 d8 3b 8d 9d 2d bd
       -0.06777222 0.004780758 0.006613818 -0.04238658

fc1.weight f4 [50, 320]
000000 1b 32 09 3d f9 74 e9 3c d4 bc b1 3b 08 67 18 3d
       0.03349505 0.02849816 0.0054241214 0.037207633
000010 f6 ca 6d bd d6 3f 9c bd 1c 23 c3 bd 3d e8 cc 3c
       -0.058054887 -0.07629363 -0.09528181 0.025013084
000020 d0 7d 6c bd 2a 6e 6e bc 63 d8 ba 3d 7e 6e eb 3d
       -0.05773717 -0.014552632 0.09123304 0.11495684
000030 2e 36 79 bd d3 77 a6 3c 7a 11 3f 3d 55 5b ca bc
       -0.060842685 0.020320809 0.046647526 -0.024701754
000040 95 af 8f bd 72 98 80 bc a0 83 1c 3d 9c 3c 4c bd
       -0.070159115 -0.015697692 0.038211465 -0.04986249
000050 5a c5 64 bd d2 c8 6e bc ac 9c 2e 3d aa 5c 52 3d
       -0.05585227 -0.0145742465 0.042629883 0.051357903
000060 15 3b bb 3d 19 a9 3c 3e ce b6 68 bd ee 21 29 3d
       0.091421284 0.1842388 -0.05681496 0.041292123
000070 93 27 60 3d ba 96 3f 3d 1f c1 31 3d 77 ab 80 bd
       0.05472524 0.046774603 0.043397065 -0.06282704
000080 66 d5 7b 3c ff b2 8f bd 8b 31 9e bd 6d 2d da bd
       0.015370702 -0.07016563 -0.07724293 -0.106531955
000090 33 f1 e0 3c d7 a9 51 bd 56 80 02 3d a0 b9 39 bd
       0.027458763 -0.051187363 0.031860672 -0.04534304
0000a0 c7 70 72 bd a6 9c 10 bd d3 ee d0 3d a3 c6 77 bb
       -0.059189584 -0.03530564 0.10201802 -0.0037807606
0000b0 06 29 b9 3c 25 7c 85 bd 7a 8b 8c 3c a4 69 ed bc
       0.02260257 -0.06517819 0.017156351 -0.028981037
0000c0 a0 c2 04 3d 49 25 fc bc e9 97 25 3c af 0d 4d bd
       0.03241217 -0.030779498 0.010107019 -0.050061878
0000d0 e3 91 f6 3c b6 4f 48 bd 0f 96 d6 bb c5 be df 3c
       0.030098861 -0.048904143 -0.00654865 0.027312646
0000e0 4b 79 99 bc e8 96 9c bb 21 c5 fd 3b 2c c7 b3 bd
       -0.018734595 -0.0047787316 0.007744447 -0.087782234
0000f0 06 a7 2b bd a2 9a ba 3c 64 47 9c 3c 17 03 c7 bb
       -0.041907333 0.022778813 0.01907701 -0.0060733664
000100 68 4f c1 3d 35 fc 4e 3d d3 65 89 3d 60 1d 6b 3d
       0.09438974 0.050533492 0.067088746 0.05740106
000110 b5 40 9f 3b 7f 3e 8f bd d7 6c 4a 3d 03 b4 43 3d
       0.0048600086 -0.06994342 0.049420204 0.047779094
000120 91 3e 8d 3d 36 93 97 bd bd f2 7c bd 74 f4 e1 bd
       0.06896699 -0.07401125 -0.06175493 -0.11032954
000130 d3 fd ae 3a 3b 71 39 bd 86 0a 84 bc 2f fc 7c bc
       0.0013350792 -0.045274 -0.0161183 -0.015440985
000140 71 02 49 bd c2 77 a3 bd a1 a9 98 3d 76 f7 2a bd
       -0.049074594 -0.07981826 0.07454229 -0.041739903
000150 fb d7 5c bd 03 24 f2 bc b6 c8 2d 3d 6d bb 54 3c
       -0.053916913 -0.029558187 0.04242774 0.012984139
000160 92 c9 08 3c 7d fe bd bb 5e 2b e4 3d b1 41 40 bd
       0.008348839 -0.0057981596 0.11141084 -0.04693765
000170 8b 95 8c bd ed 82 c4 bd 0d 03 39 bd 00 cf 04 bd
       -0.068644606 -0.095952846 -0.045168925 -0.032423973
000180 df 1c a3 bc 0f b5 c8 bd 3a 67 8f bd 94 84 3b 3c
       -0.019911228 -0.09800159 -0.07002111 0.011445183
000190 95 36 18 bd ed db fc bc 40 32 48 bd a4 79 3b bd
       -0.03716143 -0.030866588 -0.048876047 -0.045770302
0001a0 b4 11 d6 3c 22 c1 3c 3c d2 59 44 bc 1c e0 56 3d
       0.026131488 0.011520656 -0.011984305 0.05245982
0001b0 c1 7f 3a 3d 73 3c 9a bc 0d d3 b4 3c c4 28 21 3c
       0.045531992 -0.018827653 0.022073293 0.009836379
0001c0 c9 77 2e bd ed 0c 21 bd e2 56 04 bd 1b 2d 03 bd
       -0.042594705 -0.039318968 -0.03230942 -0.032025438
0001d0 e9 23 51 bd 73 c7 0b 3c ce a7 47 bd 19 68 af 3d
       -0.051059637 0.008531439 -0.048744015 0.08564777
0001e0 f4 01 7b 3d 25 28 a6 3d 09 2b 3e bc 0a 4a 81 bd
       0.06128116 0.08113126 -0.01160694 -0.0631295
0001f0 de a2 53 3d fc 59 2b 3d ed 44 42 bd ef 66 19 be
       0.051668994 0.041833863 -0.047429014 -0.14980672
000200 1b b2 1d bd 0c ca 2e 3c 3e c5 dc 3d ca 44 0a 3e
       -0.038499933 0.010668289 0.107798085 0.13502803
000210 7b 85 82 bd f6 5d 64 3d 58 82 db 3c 9d 61 b5 3c
       -0.06373116 0.05575367 0.026795551 0.022141272
000220 9c 8d 04 3d b9 48 a8 3d d2 d7 c9 bd f5 2a 6d bc
       0.03236161 0.08216996 -0.098556176 -0.014475574
000230 4f 88 1c bd 2f 61 b7 3c c7 0c 1f bd cc 3e 71 bd
       -0.03821593 0.022385208 -0.038830545 -0.05889778
000240 21 77 90 3d a3 ac ea bc 31 21 3c bd 8d fb 5c bd
       0.07053972 -0.028646773 -0.04593009 -0.053950835
000250 1a 23 e8 3d 01 15 e1 bc e4 ae b4 bd 0d 53 86 3d
       0.1133482 -0.027475836 -0.0882242 0.065588094
000260 04 61 d8 bd 44 cf 81 bd 61 a8 20 3d d2 63 df bc
       -0.10565379 -0.06338361 0.03922308 -0.027269278
000270 ac 53 9c bd f0 22 01 be 7a 4a aa bd 57 42 1c 3d
       -0.07633147 -0.12610984 -0.083149865 0.038149204
000280 29 f0 83 3c e0 5f 9e bb 95 21 fe bb 6c 3d 1f 3b
       0.016105728 -0.0048332065 -0.007755468 0.0024298085
000290 e0 be 8d 3c ef 4b 0e bd 36 ac 1e bd c3 37 19 3e
       0.01730293 -0.034740385 -0.038738452 0.14962678
0002a0 06 f0 82 bd 32 d2 b9 3d 7d 95 7c bc 81 41 cb bc
       -0.06393437 0.09073295 -0.0154165 -0.024811508
0002b0 73 c3 d9 3c 64 58 8a 3c f3 5b bf bd b6 8b bd bd
       0.026582455 0.016887851 -0.0934371 -0.09255163
0002c0 ab bf b0 3d 16 ef 49 3d 94 2a bf bc dd d7 c5 3c
       0.08630308 0.049300276 -0.023335733 0.024150783
0002d0 a2 1c ec 3a dd cd 6e 3d a7 31 39 bc 3d eb bc bd
       0.0018013904 0.058301795 -0.011303342 -0.09224556
0002e0 1e e2 1b be 63 0d 80 bd 96 a5 87 bd 1e 3c 29 bd
       -0.15222976 -0.06252553 -0.0662338 -0.041317098
0002f0 28 a8 c2 bc 08 9e 34 3b ad 3d a2 3d b1 b8 07 bd
       -0.023761824 0.0027560014 0.0792192 -0.03313512
000300 fe 19 1d bd ea af 8d 3d 1b 1e 4a bc 13 80 6b 3c
       -0.038354866 0.069183186 -0.012336279 0.014373797
000310 22 11 87 bd 09 53 7d 3b 27 3e b8 3c 07 6e fe bc
       -0.06595065 0.003865423 0.022490574 -0.031058325
000320 18 12 d0 bd bc 98 8f bd 27 62 77 bc f9 e3 b4 bd
       -0.10159701 -0.07011554 -0.015099085 -0.08832545
000330 ab b2 09 bd 31 39 84 bc 9a 4f 7d 3d ad 5e 8a 39
       -0.033617657 -0.016140552 0.061843492 0.0002639195
000340 ac 72 9c 3c 20 6a 3e 3d 64 fa 38 3c e3 d7 35 bd
       0.019097649 0.046487927 0.0112901665 -0.04439534
000350 5d 49 d0 bc 99 6c 5f 3b 55 e1 34 3c f1 d7 65 3c
       -0.025425607 0.003409183 0.0110400515 0.014028535
000360 74 a0 0f bd 1f 18 95 bc 90 a5 66 bc 43 73 18 3d
       -0.03506513 -0.018199978 -0.014077559 0.037219297
000370 24 b2 47 3c e5 0e 18 3d d9 91 37 3b 15 71 94 bc
       0.012188468 0.03712358 0.0028010516 -0.018120328
000380 2d 8f 65 3d 87 60 46 3c 1e 7b 5d bd 8a 36 30 bd
       0.056044746 0.012107975 -0.05407249 -0.043020763
000390 f9 18 46 3d a8 91 9d 3d e9 6d 28 bc 91 72 bb 3c
       0.04836366 0.07693797 -0.010280111 0.022881778
0003a0 e3 a6 9f 3c 42 c4 32 bd b6 4c 1c bd 33 1c 03 3c
       0.019488757 -0.043644197 -0.038159095 0.008002329
0003b0 89 fc e0 3d 50 e6 64 bb 86 0c 34 bd d2 e2 a8 bc
       0.10985667 -0.0034927316 -0.043957256 -0.020615969
0003c0 18 d1 89 3b d8 8c 0d bd b5 62 0d bc 16 2f df 3c
       0.004205834 -0.034558147 -0.008629491 0.027244132
0003d0 56 fb e0 bc 61 ae 9b 3b 10 eb 98 3c 2c 34 31 bd
       -0.027463596 0.004751012 0.018666774 -0.043262646
0003e0 f9 1c 18 3d 9a 7d 8b 3c 68 48 40 3d 24 52 9d 3c
       0.037137005 0.017027665 0.046944052 0.019204207
0003f0 92 95 3d 3d 37 fd e5 bd 4a 2f 7c bd fd c6 b2 bd
       0.04628522 -0.112299375 -0.061568536 -0.0872936

fc1.bias f4 [50]
000000 95 21 15 bd 45 95 87 3d e2 94 99 3c 64 92 b3 3d
       -0.03640898 0.06620268 0.01874775 0.08768156
000010 f2 2a 39 3d f3 d8 40 3b b7 ca c1 3d 29 e4 80 3d
       0.04520697 0.0029426187 0.09462493 0.06293518
000020 06 4a 24 3d ec b5 00 3d 9d a8 97 3b 48 0f ba 3d
       0.040109657 0.031423494 0.0046282546 0.09084946
000030 2e 0b 51 bb e9 96 2b 3d d9 ba b7 3d d3 a2 4c 3d
       -0.0031897533 0.041891966 0.08971185 0.04995997
000040 16 1c 6c bc 2c a0 d4 3c f9 c5 c3 3c e2 02 01 3c
       -0.014410993 0.025955282 0.023898112 0.0078742225
000050 9c 84 b6 3d 79 5d e1 3d ff f9 1d bd 0b 33 a4 3d
       0.08912012 0.110041566 -0.038568493 0.08017548
000060 d9 0e 99 3d 2f 02 77 3d de 2c 74 3d a5 c8 00 bd
       0.07473535 0.060304817 0.0596131 -0.03144135
000070 6d b1 d5 3d d5 a0 cc 3d e1 8f a6 3b c7 f1 26 bd
       0.10434232 0.09991614 0.0050830697 -0.04075792
000080 6a c3 ba 3d 25 8f ea bc 4a 79 18 bc e9 c0 16 3b
       0.091193035 -0.02863271 -0.009306261 0.0023003167
000090 0f 75 8a 3d 74 2f b9 bc 43 b3 e1 3c 0f 3d a7 3b
       0.067606084 -0.022605635 0.027551299 0.0051037143
0000a0 da b7 90 bc db df 9c bc 5d 20 ab 3d 8b 4c df bc
       -0.017665792 -0.019149711 0.08355782 -0.027258178
0000b0 35 71 4d bb 0f dd de 3d 78 af f1 3c ce ea c4 3d
       -0.0031347994 0.10882007 0.029502615 0.09615098
0000c0 ea f4 b8 3a ba cb 15 3d
       0.0014111076 0.036571242

fc2.weight f4 [10, 50]
000000 c6 4a d5 bd 79 d5 3d be 7d 05 f5 bd b4 a8 a0 3e
       -0.104146525 -0.18538465 -0.119639374 0.3137871
000010 27 e3 e5 bd 65 2a 1a bc 76 c6 32 be 2a a2 03 3d
       -0.112249665 -0.009409522 -0.1745852 0.032137074
000020 1d 40 3d 3e 97 01 b8 3d 0b 51 bd 3e dc 45 fe 3d
       0.18481489 0.08984678 0.36975893 0.12415668
000030 8d ac 90 3e ef d1 db bd fe a7 45 be 3f b6 4e 3e
       0.28256646 -0.10733401 -0.19302365 0.20186709
000040 f8 80 11 be f0 86 37 bd f6 9c 22 be d7 31 29 3e
       -0.14209354 -0.04480642 -0.15880188 0.16522919
000050 4b 14 cb bd b8 ad 82 bd 0a 72 7c be 90 7e 79 be
       -0.0991598 -0.063807905 -0.24652877 -0.24364686
000060 84 5d 80 be 67 59 4d 3e a4 e8 a1 be a8 af 60 3e
       -0.25071347 0.20053636 -0.31622803 0.21942008
000070 8d c8 49 be 6b 58 35 be ba b1 a8 3e 23 e5 d2 bc
       -0.1970541 -0.1770951 0.32948095 -0.025744027
000080 cf 66 49 be 5c 12 86 be 63 2a c8 bc 2b 42 8f 3e
       -0.19668125 -0.26185882 -0.024434274 0.2798017
000090 b7 59 67 3e a2 8f 09 bd d4 c3 4e be c3 bb 61 be
       0.22592817 -0.033584245 -0.2019189 -0.22044282
0000a0 6d cf 17 be 34 88 b7 bd ce 46 3d be 71 ea 55 be
       -0.1482522 -0.089615256 -0.18484041 -0.20890214
0000b0 da ca 74 3e 19 02 88 3e b2 77 b4 be 2f fe 16 be
       0.23905507 0.265641 -0.3524757 -0.14745401
0000c0 cb 1c 6f 3e 1b 73 a0 be 33 60 c7 bd 0f 63 f2 3d
       0.23350827 -0.31337819 -0.097351454 0.118353
0000d0 06 5c 9a bd 4e e6 93 be 6d 2b 44 be 44 94 3b 3e
       -0.07537083 -0.28886646 -0.1915719 0.18318278
0000e0 63 46 9d 3e f2 38 7e 3e 88 4e 6c bd 2a ae 8a be
       0.30717763 0.2482641 -0.05769208 -0.27086002
0000f0 4f d9 3d bd 4e 61 69 be 44 6a a4 bd 5a 38 40 3e
       -0.04634982 -0.22791025 -0.08028081 0.18771496
000100 b9 a3 20 3e 0e a7 91 be 8d f1 2c be 4e 1b 55 3d
       0.15687455 -0.28447765 -0.1688902 0.052027993
000110 55 30 77 3e c1 ed 1d 3e b0 72 2c be e7 d1 98 3e
       0.24139531 0.15422727 -0.16840625 0.29847643
000120 9d 54 f9 bd fd cc 79 3e cf 28 ff bd b5 7a 62 bd
       -0.12174342 0.24394603 -0.124589555 -0.055292804
000130 b6 2e 77 3e d7 fe 5b be af cd 83 3e 20 b9 30 3e
       0.24138913 -0.21483932 0.25742862 0.1725812
000140 6c 2d 8f bd 98 3a 55 be 71 c2 2e 3e 21 52 5d be
       -0.069910854 -0.20823133 0.17066361 -0.21613361
000150 65 8b f6 bd bc cb 6a be 0b 65 85 be be 7f 6e be
       -0.12038306 -0.22929281 -0.26053652 -0.23290917
000160 2f bd 37 3e 04 98 a6 bd 3d 16 7f bd cf 61 41 be
       0.17943262 -0.081344634 -0.062277067 -0.18884967
000170 2c 7b 5b 3e 1d ac 04 3e 07 40 a7 be 70 8f ff bd
       0.21433705 0.12956281 -0.32666036 -0.124785304
000180 9b 00 19 be ac 1e b8 3e f6 bc a7 be 34 b0 83 3d
       -0.14941637 0.359609 -0.32761353 0.064300925
000190 02 0d 45 be 82 ec 3b be 42 ef e5 3d 8a 25 c7 bd
       -0.19243243 -0.1835194 0.112272754 -0.09723957
0001a0 f9 d6 1d be a8 30 34 3e 72 f6 c0 3c 05 d1 f1 3d
       -0.15414037 0.17596686 0.023555014 0.118074454
0001b0 94 ab 88 bd fe d2 96 bd 6a dd 56 bc 17 b6 6f be
       -0.06673351 -0.07364462 -0.013114313 -0.23409306
0001c0 34 e5 94 3e 9f 22 39 3e 32 bc a2 3e 24 79 7f 3c
       0.29081118 0.18079613 0.31784207 0.015592847
0001d0 d6 91 f6 3d 37 64 71 3e 38 94 10 3e f0 a3 1b be
       0.12039535 0.23573385 0.14119041 -0.15199256
0001e0 e4 b7 7c 3e 38 f5 9e 3e 0d 3f c7 bd 6f 70 8d bd
       0.24679524 0.31046462 -0.09728823 -0.06906211
0001f0 b4 ca b4 bd b1 2c 66 3e 18 ff 3b 3e 5d 16 2e 3e
       -0.08827725 0.22477986 0.1835903 0.17000718
000200 53 bb cf 3d 67 7d 54 be 39 1b 58 3e dd 7a 91 3e
       0.10143151 -0.20750962 0.21104135 0.2841405
000210 36 47 98 3e 9d b6 00 be c9 ca 92 3d cb ba 20 be
       0.2974183 -0.12569661 0.071675844 -0.15696256
000220 64 5f 2e be 56 8a 29 be 79 d0 d6 bd fc bf 28 3e
       -0.17028576 -0.16556677 -0.10488982 0.16479486
000230 4f 79 b9 3e 0a 04 e8 3d 08 ec a5 bd db d8 00 be
       0.36225364 0.113288954 -0.0810166 -0.12582724
000240 ad 3e 31 be 3b 15 a0 3d e4 ab 59 be 29 b1 2d 3d
       -0.17309065 0.078165494 -0.21256977 0.04240528
000250 51 cd 28 bd b5 66 5b be b1 8b a4 3e ca 26 72 3c
       -0.04121143 -0.21425898 0.32137826 0.014779756
000260 4d 19 14 3e ac 0d 13 3e 68 48 63 3e 74 50 9f bb
       0.14462776 0.14360684 0.2219559 -0.0048618857
000270 c4 d6 87 bd 06 af e4 bd 5b 36 cb bd e5 17 e5 3b
       -0.0663276 -0.111661956 -0.09922477 0.006991374
000280 71 ba fd bd a6 40 64 3e ed a1 93 3d 84 92 40 be
       -0.123890765 0.22290286 0.07208619 -0.18805891
000290 af d1 6e 3e 84 48 c2 bd 98 1c 6a 3d 1a 87 81 3e
       0.23322175 -0.094864875 0.057156175 0.25298387
0002a0 d8 a6 b8 bd 5a 67 3d be 53 9a 09 3e 5b 66 0b be
       -0.09016198 -0.18496457 0.13437776 -0.13613264
0002b0 3a 56 59 3e 5a 65 58 3d f5 69 92 bd 92 64 44 be
       0.21224299 0.05283103 -0.07149116 -0.1917899
0002c0 7c 7a 73 3e 13 b6 00 be 8e 23 1f bd 48 db b0 be
       0.23777193 -0.12569456 -0.038852267 -0.34542298
0002d0 1a ef 9b bd 47 8a df bd ce 89 91 3e bc 4b 13 be
       -0.076139644 -0.10915046 0.2842545 -0.14384359
0002e0 87 67 d4 bd 3d 61 58 bc c8 b1 6c 3d 46 e2 72 be
       -0.10371309 -0.013206777 0.057786733 -0.23719129
0002f0 83 a2 3d be b5 ef 4a 3e 5c 39 cc 3b b2 16 20 be
       -0.18519025 0.19818003 0.0062324237 -0.15633658
000300 2d f0 0d be cc 7b 8c 3e f2 66 72 be 11 dd 69 3e
       -0.13861151 0.274382 -0.23672083 0.22838236
000310 50 4a e2 bc 5c 1c e7 bd 3e 30 e6 3d 68 4b 79 3e
       -0.027623326 -0.11284706 0.1123967 0.24345171
000320 8e 43 cf 3c a7 e7 e5 bc 99 2e f0 bc cb 91 9c be
       0.025300767 -0.028064562 -0.029319094 -0.3057998
000330 42 1d 3a 3e 93 05 10 bd 8e 66 1e be 9a 24 99 3e
       0.18175223 -0.035161566 -0.15468809 0.29910737
000340 2b af 32 be 92 6d 35 be c2 d9 58 be 25 fd e3 bd
       -0.17449634 -0.17717579 -0.21176818 -0.11132268
000350 3c a6 38 be fc 4f 38 3e 31 b4 67 be 09 05 95 3e
       -0.18032163 0.17999262 -0.22627331 0.29105404
000360 08 ef d8 3e b3 3f 4a be d9 66 9d bd e4 c7 0f be
       0.42369866 -0.19750862 -0.07685632 -0.14041096
000370 b8 50 1c be 7f 5e 90 bd 23 41 b9 3d ae 66 3e 3e
       -0.15265167 -0.07049274 0.09045627 0.18593857
000380 86 3c 63 3e ab 51 65 bd 14 30 48 be a5 5c 0d 3d
       0.22191057 -0.055986088 -0.1954959 0.03451218
000390 6c ee 45 be f7 d5 29 3e 94 3a 38 be c4 5a b5 3d
       -0.19329232 0.16585527 -0.17991096 0.08855203
0003a0 54 62 93 be 57 ed 8b 3e e9 9b 1f bd 7e 3f 74 bd
       -0.28785956 0.27329513 -0.038967047 -0.059630863
0003b0 62 d3 7c be f0 e1 93 3e 27 6e b6 bd 09 85 53 3e
       -0.24690011 0.28883314 -0.08907729 0.20656218
0003c0 47 c0 5a be 91 61 e0 3e b6 89 43 3e c5 e2 f1 bc
       -0.2136241 0.43824437 0.19095501 -0.029527077
0003d0 af 19 0e be 25 97 47 be d6 2c 82 3e e0 d7 c0 3e
       -0.13876985 -0.19491251 0.25424832 0.376647
0003e0 0c 3b a7 be 81 15 c0 3d 16 4b 8f 3e 9f 63 8e 3e
       -0.32662237 0.093791015 0.27986974 0.2781038
0003f0 ff c6 1c bd 9f e5 5e 3e e1 83 69 3e d2 48 92 3e
       -0.038275715 0.21767281 0.22804214 0.28571182

fc2.bias f4 [10]
000000 53 91 91 bd e7 ca 18 3e 27 3e 93 be 99 f4 d0 3c
       -0.071077965 0.14921151 -0.28758356 0.025507258
000010 78 b2 ba 3c 71 2a 88 bd b0 ee ab bd 93 8b 2c be
       0.022790179 -0.0664872 -0.083951354 -0.16850118
000020 a0 aa 98 3e 80 55 03 bd
       0.29817677 -0.03206396
