bnn/sandbox/mnist.pth (torch_old, 88684 bytes, 8 tensors)

conv1.weight f4 [10, 1, 5, 5]
-0.050410036 -0.0978442 -0.012061737 -0.14240868 -0.15382534 0.038185183 -0.0749537 -0.16803302
-0.21196494 -0.29638714 0.05440435 -0.12909363 -0.124872535 -0.09531952 0.13500342 0.036944397
-0.09749397 0.09347424 0.250882 0.27744037 0.2112562 0.29321623 -0.09948818 0.09028568
-0.09744752 0.022561226 0.26833075 -0.03880634 0.006276528 -0.073697425 0.11907773 0.1954192
-0.1816654 0.022656402 -0.12132702 0.013156255 0.21189831 -0.0053571053 -0.14027165 -0.005302821
-0.1309291 0.2210387 0.04981586 -0.14029925 -0.3097101 0.14286435 0.116778664 0.049994055
-0.11887248 -0.18820614 -0.3072959 -0.04869997 -0.0062627504 0.12184863 -0.009320521 -0.21816185
-0.017852956 0.36780453 0.16995698 -0.2527432 -0.16382457 0.17637731 0.3133691 -0.11445995
-0.47293237 -0.008076554 0.1447817 0.018894793 -0.14926639 -0.14158276 0.03653556 -0.0131865
-0.087190665 -0.055769 -0.031205552 -0.043038428 -0.28866807 -0.2633069 0.097944185 -0.021342244
-0.3249831 -0.056809314 -0.099350005 -0.010841144 0.2850397 -0.20128384 -0.26135835 0.09963665
0.18681777 0.028466258 -0.333014 0.025029805 0.027029919 0.0183278 0.09424241 -0.34827858
0.0023354306 -0.20084178 0.20052218 0.08262381 0.08349014 0.12006569 -0.013860727 -0.43949902
-0.40315145 -0.19361544 0.027880754 0.2823185 0.1869076 0.034169704 0.11356731 0.09938479
0.21353555 0.34441984 0.27506486 -0.09211094 -0.11662223 0.0029073716 -0.021157654 0.08984835
-0.14323644 -0.18478636 -0.3860998 -0.24892274 -0.17009073 -0.11015198 -0.0056162556 0.095691286
0.15302463 0.2338746 0.26314896 0.23428048 0.07453005 0.15392447 0.33073032 -0.35588098
-0.028882163 0.055810377 0.17766623 0.18527529 -0.22761036 -0.27442738 -0.25578576 -0.28487214
-0.097199485 0.0102715595 -0.06804414 -0.29866466 -0.29081014 -0.12296856 -0.36866415 -0.48683742
-0.44234926 -0.27888158 -0.17554909 -0.044073217 0.11907699 -0.019426981 -0.23416045 -0.375104
0.38488284 0.18436433 0.08291491 0.16081218 -0.24120982 -0.18921201 0.17028645 0.04269736
0.006019104 -0.29136312 -0.14882396 -0.054324336 -0.03994146 0.24270028 0.22396383 0.046112906
-0.053189836 0.06648564 0.20744972 0.0940488 -0.20806636 0.15044674 -0.0693931 0.215773
-0.09515557 -0.33727914 0.055156328 0.10047423 -0.056638457 -0.26201546 -0.18335462 -0.24102436
-0.27042636 -0.22651438 -0.15784137 -0.06536946 -0.17344843 -0.013408609 -0.16267009 0.019812843
-0.07430952 0.16241074 0.124699004 0.027643558 0.12593266 0.20377348 0.10832603 0.08184901
0.17298135 -0.37506267 0.05619362 0.02824793 -0.111317895 -0.25583625 -0.37435502 -0.16553028
-0.36816916 -0.280828 -0.26488432 -0.06287453 -0.21321484 -0.04363454 -0.18248078 0.1619297
0.2436766 0.10203256 0.049151156 -0.2326468 -0.31151992 -0.2310512 -0.06921553 0.12657078
0.017793471 0.033553142 -0.07987135 0.011256778 0.27068508 0.093571596 -0.15454566 -0.013805153
-0.13379756 0.32931322 0.40086055 0.041555732 -0.11083692 -0.13579151 -0.1627014 0.07794059
0.11368565 0.0772478
00000000: c17a 4ebd 8a62 c8bd 979e 45bc 95d3 11be
00000010: 6484 1dbe 1168 1c3d 5381 99bd d910 2cbe
00000020: 560d 59be 0ec0 97be 19d7 5e3d 1f31 04be
00000030: 2cbd ffbd e136 c3bd 563e 0a3e 0253 173d
00000040: ebaa c7bd 6c6f bf3d 9b73 803e aa0c 8e3e
00000050: 8c53 583e 7020 963e 75c0 cbbd b3e7 b83d
00000060: 9192 c7bd 52d2 b83c a662 893e 66f3 1ebd
00000070: 55ab cd3b adee 96bd 06df f33d f91b 483e
00000080: 7f06 3abe eb99 b93c 4d7a f8bd 558d 573c
00000090: dffb 583e a88a afbb 5fa3 0fbe 49c3 adbb
000000a0: 4712 06be f857 623e b70b 4c3d 9baa 0fbe
000000b0: 5292 9ebe 084b 123e a729 ef3d 91c6 4c3d
000000c0: 6a73 f3bd 1cb9 40be e355 9dbe 9f79 47bd
000000d0: c237 cdbb c68b f93d 19b5 18bc d265 5fbe
000000e0: 5d40 92bc e050 bc3e 3409 2e3e 8f67 81be
000000f0: a1c1 27be 419c 343e ea71 a03e fa69 eabd
00000100: 3124 f2be 8653 04bc a741 143e 41c9 9a3c
00000110: 4ad9 18be 12fb 10be 50a6 153d 310c 58bc
00000120: 0591 b2bd 096e 64bd c9a2 ffbc 1049 30bd
00000130: 4dcc 93be 29d0 86be f696 c83d eed5 aebc
00000140: 2f64 a6be e2b0 68bd 0478 cbbd 0e9f 31bc
00000150: b9f0 913e 5a1d 4ebe c3d0 85be 4d0e cc3d
00000160: 284d 3f3e 1232 e93c d080 aabe 4e0b cd3c
00000170: d96d dd3c 2f24 963c 2a02 c13d 9251 b2be
00000180: 060e 193b 78a9 4dbe b055 4d3e ac36 a93d
00000190: e1fc aa3d 00e5 f53d 1a18 63bc 0406 e1be
000001a0: de69 cebe 2043 46be 2e66 e43c 0d8c 903e
000001b0: b564 3f3e 88f5 0b3d fa95 e83d 418a cb3d
000001c0: 10a9 5a3e cc57 b03e 4dd5 8c3e a9a4 bcbd
000001d0: a3d7 eebd 9a89 3e3b d152 adbc 6902 b83d
000001e0: 93ac 12be a338 3dbe dfae c5be 9ae5 7ebe
000001f0: 442c 2ebe 5c97 e1bd 9108 b8bb cbf9 c33d
00000200: 7db2 1c3e d37c 6f3e 76bb 863e 39e7 6f3e
00000210: 36a3 983d 609e 1d3e 7c55 a93e 0836 b6be
00000220: 499a ecbc 6c99 643d 23ee 353e ceb8 3d3e
00000230: b112 69be bf81 8cbe 5af6 82be c3da 91be
00000240: 8610 c7bd 0b4a 283c ba5a 8bbd 93ea 98be
00000250: 11e5 94be f1d6 fbbd 8cc1 bcbe c142 f9be
00000260: 9a7b e2be 91c9 8ebe 24c3 33be 1e86 34bd
00000270: a3de f33d 5525 9fbc c2c7 6fbe a20d c0be
00000280: 5d0f c53e 01ca 3c3e 4bcf a93d f3ab 243e
00000290: b5ff 76be cbc0 41be 925f 2e3e 6de3 2e3d
000002a0: e73b c53b 8c2d 95be 4f65 18be 3283 5ebd
000002b0: a899 23bd 6c86 783e c656 653e e3e0 3c3d
000002c0: 96dd 59bd a029 883d b36d 543e a89c c03d
000002d0: 590f 55be b60e 1a3e f81d 8ebd 99f3 5c3e
000002e0: ece0 c2bd daaf acbe 9aeb 613d 6fc5 cd3d
000002f0: bafd 67bd e426 86be 50c1 3bbe 17cf 76be
00000300: 5375 8abe 63f3 67be 2ba1 21be 6ce0 85bd
00000310: 779c 31be c8af 5bbc fd92 26be 8b4e a23c
00000320: 972f 98bd 004f 263e 3162 ff3d be74 e23c
00000330: 7ef4 003e ffa9 503e 0ada dd3d 74a0 a73d
00000340: 0622 313e 3708 c0be 482b 663d 3468 e73c
00000350: a3fa e3bd f8fc 82be 76ab bfbe c580 29be
00000360: ab80 bcbe b0c8 8fbe eb9e 87be 5dc4 80bd
00000370: fe54 5abe 22ba 32bd 3edc 3abe e6d0 253e
00000380: 5c86 793e 72f6 d03d b952 493d f63a 6ebe
00000390: 8a7f 9fbe b098 6cbe dfc0 8dbd c59b 013e
000003a0: 9dc3 913c 056f 093d 9793 a3bd 596e 383c
000003b0: 3c97 8a3e 77a2 bf3d 3841 1ebe 022f 62bc
000003c0: 3a02 09be be9b a83e 983d cd3e 5836 2a3d
000003d0: 78fe e2bd ee0c 0bbe 329b 26be 519f 9f3d
000003e0: 06d4 e83d 1834 9e3d

conv1.bias f4 [10]
-0.260438 -0.61949646 -0.4451227 -0.24632631 -0.411391 -0.41313052 -0.51691025 -0.1453888
-0.25197122 -0.3375076
00000000: 2158 85be 5297 1ebf 1fe7 e3be f73c 7cbe
00000010: d7a1 d2be d885 d3be 3b54 04bf cde0 14be
00000020: 5f02 81be cccd acbe

conv2.weight f4 [20, 10, 5, 5]
-0.030562356 -0.058718525 -0.043099027 -0.0025786397 -0.016684735 0.007953058 0.04346456 -0.04981529
-0.04326292 -0.0060558994 -0.10757466 -0.15355004 -0.058927067 -0.10678655 -0.19067127 -0.22245207
-0.02478922 0.045348953 0.08020026 -0.050511517 0.025991935 -0.017770382 0.22063379 0.14504722
0.082189195 -0.03745885 -0.039456896 0.07742556 0.14172056 0.13752942 -0.114204556 0.02424035
-0.03814919 -0.08297216 0.030251868 0.0051352186 0.034408875 0.052556243 -0.14094244 -0.052615464
0.0416797 0.07494544 -0.0061234245 -0.06600956 -0.1043727 0.14053428 0.083078496 0.083424784
0.041340813 -0.072690666 -0.046723403 -0.026011938 -0.032112338 0.054201957 0.19301046 -0.059719983
0.069881245 0.05184724 0.08259089 0.15341091 0.008128646 0.07845621 -0.07802147 -0.13628943
-0.019059435 0.053461935 -0.1297379 -0.07259141 -0.14899643 -0.070758216 0.027182113 0.038416065
-0.046252433 -0.10856859 -0.033684727 0.1062016 5.9096757e-05 -0.0021530367 0.08332435 0.21846746
0.09525742 0.003584866 -0.055831563 0.015013499 0.029116603 0.15205486 0.03417413 -0.06694721
-0.047955222 -0.047178917 0.07746799 0.072329134 -0.06612692 -0.10127789 -0.007980309 0.07387855
0.18884744 0.03757917 -0.05700251 -0.07857691 -0.19213136 -0.0949065 -0.06965646 -0.011212062
-0.11449578 -0.05500993 -0.0068537523 -0.020391563 0.011575489 0.073312156 -0.0578862 -0.054070912
-0.068199195 -0.060692415 -0.026521515 -0.0879868 -0.073067665 -0.07521624 -0.11982754 -0.09571297
-0.10870573 0.046404704 0.0470939 -0.053115554 0.120717645 -0.066866964 -0.10797446 -0.09337559
-0.044477347 -0.07061568 0.0066760387 -0.09693036 -0.017800549 0.10401046 0.033865206 -0.08412324
-0.0015561559 -0.015093639 0.02046578 0.03389744 -0.120671295 -0.123462915 -0.028096523 -0.078788415
-0.09733311 0.009348346 0.034671985 -0.104053095 -0.017147876 -0.027061174 -0.040548284 -0.121678054
-0.09101857 -0.0150443455 -0.018711887 -0.0573453 -0.069087565 0.0041354974 0.00021834475 -0.05076514
-0.11349016 -0.12303213 -0.05353265 0.024676375 -0.094713286 -0.1325605 -0.13553324 0.08873507
0.017347151 0.080603234 -0.026999291 -0.0823739 0.025235182 0.10275608 0.020735728 0.02826933
-0.013303095 0.009363213 -0.05798498 -0.0048433184 -0.019596748 0.015655266 0.021361714 0.032991868
-0.00974525 -0.07981461 -0.07493677 -0.019716363 0.1399654 0.10022908 -0.14590022 -0.010628114
-0.027144318 0.087592535 0.08661085 -0.104832634 0.017759215 -0.011575873 -0.04273059 -0.016983172
0.071338624 -0.0027331102 -0.094798416 -0.03944218 0.031111432 -0.0027629612 0.00824757 -0.060451247
-0.006367485 0.11209472 -0.050991934 0.100327075 0.01037673 0.0354843 0.026621524 -0.10176122
-0.06192348 -0.05761776 -0.050585132 -0.07875857 -0.07323846 -0.066791765 -0.005709404 -0.0047696913
-0.045393325 -0.15464391 -0.07854312 -0.022332618 -0.040537525 -0.05556941 -0.12910953 0.0717946
0.022435367 -0.055839904 -0.009377769 -0.08865125 -0.030348262 0.05700297 -0.112882905 -0.092792206
-0.073009826 -0.06359939 0.122039974 0.010613917 0.015426335 -0.0082920715 0.09678077 0.17595465
0.11529918 0.055275362 0.051059294 -0.07945546 -0.15037179 -0.075438574 -0.0046411124 -0.025123455
00000000: e85d fabc d682 70bd 9b88 30bd 65fe 28bb
00000010: 6dae 88bc 8b4d 023c e507 323d 1e0b 4cbd
00000020: 7634 31bd 9170 c6bb 1a50 dcbd 393c 1dbe
00000030: 825d 71bd e8b2 dabd 543f 43be 7aca 63be
00000040: c312 cbbc d3bf 393d 0940 a43d 2ae5 4ebd
00000050: 0aed d43c 3193 91bc d3ed 613e 4287 143e
00000060: cf52 a83d 736e 19bd 8e9d 21bd 4b91 9e3d
00000070: 321f 113e 83d4 0c3e 14e4 e9bd b393 c63c
00000080: 5342 1cbd 4fed a9bd c4d2 f73c 5645 a83b
00000090: 52f0 0c3d 3745 573d 3753 10be 5083 57bd
000000a0: 55b8 2a3d ff7c 993d 02a7 c8bb 0530 87bd
000000b0: 5bc1 d5bd 38e8 0f3e 0f25 aa3d 9dda aa3d
000000c0: fc54 293d d8de 94bd 0a61 3fbd fd16 d5bc
000000d0: 3a88 03bd df02 5e3d 89a4 453e f19c 74bd
000000e0: e61d 8f3d c65d 543d 6a25 a93d c017 1d3e
000000f0: 032e 053c a6ad a03d b8c9 9fbd 758f 0bbe
00000100: 8822 9cbc e7fa 5a3d 03da 04be ceaa 94bd
00000110: 8592 18be afe9 90bd 06ad de3c 2a5a 1d3d
00000120: 3173 3dbd 3559 debd fff8 09bd 3980 d93d
00000130: a9de 7738 f619 0dbb f5a5 aa3d efb5 5f3e
00000140: 5216 c33d 12f0 6a3b a3af 64bd 2efb 753c
00000150: f185 ee3c 45b4 1b3e 2cfa 0b3d 9e1b 89bd
00000160: b26c 44bd ae3e 41bd 8aa7 9e3d 4c21 943d
00000170: 8d6d 87bd c86a cfbd d8bf 02bc a34d 973d
00000180: 3961 413e 9eec 193d 777b 69bd eeec a0bd
00000190: 15be 44be 575e c2bd 0ca8 8ebd ccb2 37bc
000001a0: c37c eabd 1852 61bd 7195 e0bb 350c a7bc
000001b0: 1fa7 3d3c af24 963d 141a 6dbd 7679 5dbd
000001c0: 05ac 8bbd 9c98 78bd a643 d9bc 6c32 b4bd
000001d0: 80a4 95bd f90a 9abd 2468 f5bd 2905 c4bd
000001e0: 1ca1 debd dc12 3e3d 89e5 403d b28f 59bd
000001f0: d03a f73d 8cf1 88bd b721 ddbd b43b bfbd
00000200: e12d 36bd f49e 90bd acc2 da3b 6d83 c6bd
00000210: 75d2 91bc 7003 d53d 3eb6 0a3d ce48 acbd
00000220: edf7 cbba 4f4b 77bc daa7 a73c 0bd8 0a3d
00000230: 8322 f7bd 20da fcbd ae2a e6bc d25b a1bd
00000240: 9556 c7bd ce29 193c 3604 0e3d ca19 d5bd
00000250: b479 8cbc 65af ddbc f515 26bd 5832 f9bd
00000260: f267 babd 8f7c 76bc ac49 99bc e8e2 6abd
00000270: c87d 8dbd 1183 873b 79f3 6439 1cef 4fbd
00000280: 876d e8bd 45f8 fbbd 0d45 5bbd 1c26 ca3c
00000290: 0af9 c1bd f1bd 07be 3ac9 0abe bbba b53d
000002a0: 9d1b 8e3c 4f13 a53d 9e2d ddbc a6b3 a8bd
000002b0: 03ba ce3c c871 d23d f9dd a93c 1595 e73c
000002c0: 39f5 59bc 2968 193c a981 6dbd b3b4 9ebb
000002d0: 5c89 a0bc 793f 803c c3fe ae3c 7b22 073d
000002e0: 8baa 1fbc d875 a3bd 7378 99bd 3684 a1bc
000002f0: 1753 0f3e e744 cd3d de66 15be 8b21 2ebc
00000300: c35d debc b763 b33d 0861 b13d 7eb2 d6bd
00000310: c67b 913c bba8 3dbc 4506 2fbd 4b20 8bbc
00000320: fc19 923d fb1d 33bb ac25 c2bd 208e 21bd
00000330: 67dd fe3c cc12 35bb d120 073c ba9b 77bd
00000340: 56a6 d0bb eb91 e53d ebdc 50bd 4878 cd3d
00000350: 2903 2a3c fc57 113d 6215 da3c 3068 d0bd
00000360: 7aa3 7dbd 9a00 6cbd 5b32 4fbd 2c4c a1bd
00000370: 0cfe 95bd 1fca 88bd f415 bbbb 124b 9cbb
00000380: 5aee 39bd f95a 1ebe 37db a0bd e5f2 b6bc
00000390: ad0a 26bd c09c 63bd 4a35 04be 0c09 933d
000003a0: 60ca b73c 62b8 64bd 37a5 19bc c98e b5bd
000003b0: eb9c f8bc f27b 693d 272f e7bd d709 bebd
000003c0: 2d86 95bd 6640 82bd 18f0 f93d ffe5 2d3c
000003d0: bdbe 7c3c 78db 07bc ff34 c63d 752d 343e
000003e0: fa21 ec3d 6b68 623d 8d23 513d 8bb9 a2bd
000003f0: 10fb 19be 8a7f 9abd 7914 98bb b4cf cdbc

conv2.bias f4 [20]
0.053272385 -0.029779457 -0.058793597 -0.021658624 0.0385242 -0.04602066 0.016872268 0.055232737
-0.113070354 -0.017078998 -0.04204036 0.095348015 -0.03949641 -0.08263837 -0.056335196 -0.023329549
-0.022757256 0.0065555056 0.013488534 -0.09793963
00000000: 2534 5a3d 0cf4 f3bc 8ed1 70bd 6d6d b1bc
00000010: 8dcb 1d3d 2980 3cbd b637 8a3c b93b 623d
00000020: 6e91 e7bd 41e9 8bbc 8332 2cbd d245 c33d
00000030: fdc6 21bd 4e3e a9bd bcbf 66bd 9c1d bfbc
00000040: 6d6d babc 91cf d63b 03ff 5c3c 9394 c8bd

fc1.weight f4 [50, 320]
-0.06585685 -0.047721323 -0.051187195 -0.011528688 -0.09127114 -0.041603964 -0.016999373 0.10052445
0.006960086 -0.001635438 0.086170584 -0.04458391 0.18901858 0.079062745 -0.04210058 -0.052400116
0.028208433 -0.06560732 -0.08568365 0.03916534 -0.015106267 -0.0012536448 -0.043290537 0.029136073
-0.0572843 -0.01578152 -0.07379146 0.009003149 0.030682651 0.018444454 -0.07060309 0.03193166
-0.07858308 -0.047568258 0.100816384 -0.008525126 -0.00583666 0.019194433 -0.041688405 0.19353603
-0.1161214 -0.13578415 0.056244098 0.058372367 0.10111452 0.071488425 -0.066337936 -0.08049204
-0.03030732 -0.005622957 0.00046423092 -0.05663748 -0.07142844 0.064162225 -0.005706697 -0.031410843
-0.0041862014 -0.05797935 -0.07874256 0.012971493 0.0064425366 -0.018478433 0.01390591 0.0067876824
-0.050893113 -0.011311659 -0.12025172 -0.05436215 -0.09834846 0.023984771 0.031032339 -0.05547493
-0.060754497 -0.03718404 -0.036500484 -0.08166977 0.13266239 0.061479725 0.030797271 0.10501809
-0.08155606 -0.012973381 0.06825955 0.07858395 -0.091041945 0.013867888 -0.13691261 -0.03624494
-0.045870744 -0.07230882 -0.06525286 0.11497329 -0.028562758 0.08499582 0.06954685 0.04242908
-0.008940969 0.020598304 -0.09438929 0.07350649 -0.06985154 -0.04331487 -0.07082283 0.023875376
0.041864254 -0.100106254 -0.069156155 -0.04821446 0.09136443 -0.04883529 -0.057515092 0.06410595
-0.041602608 -0.032285728 -0.12770075 -0.025561936 -0.014105732 -0.15401943 -0.05763331 0.08115829
-0.08561199 -0.0068850084 -0.028822856 -0.1643777 -0.013070213 0.042416252 0.008941714 0.18241614
-0.03515439 0.0017635946 -0.092077814 -0.07529747 -0.092293166 0.099239305 -0.015788795 -0.052337613
0.04814037 0.020877065 -0.10399216 -0.032148324 0.0062660305 0.029904623 -0.05245917 -0.07535642
0.028363243 -0.017025564 -0.10742927 -0.05498537 0.069767095 -0.02830591 -0.15320961 -0.1859862
-0.01917718 -0.09419807 0.03140761 0.051334053 0.028123526 0.11245828 -0.013742525 -0.07427905
0.013424001 0.09223743 -0.051949173 -0.069236144 -0.023665711 -0.027721563 -0.10678443 -0.05785342
0.06013643 -0.008310353 0.0288638 -0.038858045 -0.015617918 0.037281543 0.055517085 0.005301473
-0.04165525 -0.09926362 -0.015701428 0.076558806 -0.0030108362 -0.09630667 -0.02617452 -0.11430579
0.06334279 -0.037967347 -0.03328819 0.035498 0.002646301 -0.025742736 -0.024318011 0.06949
0.024431646 -0.011910881 -0.05564794 -0.044222984 -0.0651502 0.0070778523 0.03243447 0.041432746
0.0036248816 -0.027560506 -0.047756273 0.05680524 0.04087202 -0.027230361 0.009378378 -0.09887026
0.084517986 0.061571334 -0.009798111 -0.06942049 0.013740259 -0.11735047 -0.060642786 -0.038892303
0.02691773 -0.0017935742 -0.013447684 0.17886434 -0.043621104 -0.049650025 0.0040095877 -0.05823617
0.058287352 0.03620915 -0.04048326 -0.06857874 0.086220086 -0.06592381 -0.10107799 -0.06865155
0.10258034 -0.08433116 -0.0584808 0.104800634 -0.03349726 0.040494367 0.010999463 -0.11558631
-0.03183069 0.040382043 0.0343293 -0.076172635 0.015270892 -0.026796428 -0.16286232 -0.091536276
0.034448575 -0.0020518089 0.09599581 -0.021666013 -0.061568275 -0.0045048376 -0.021151282 -0.14439477
00000000: f5df 86bd 6f77 43bd aaa9 51bd d2e2 3cbc
00000010: 5dec babd eb68 2abd 4542 8bbc c3df cd3d
00000020: 6f11 e43b 315c d6ba 347a b03d 9e9d 36bd
00000030: 168e 413e a6eb a13d a871 2cbd 81a1 56bd
00000040: 5f15 e73c 215d 86bd e97a afbd d66b 203d
00000050: 4780 77bc 5751 a4ba 6b51 31bd c6ae ee3c
00000060: f1a2 6abd 3f48 81bc fa1f 97bd f281 133c
00000070: 2f5a fb3c d318 973c 5a98 90bd c6ca 023d
00000080: 2af0 a0bd efd6 42bd d278 ce3d f8ac 0bbc
00000090: 7441 bfbb a53d 9d3c 76c1 2abd 4f2e 463e
000000a0: 0ed1 edbd 000b 0bbe 3660 663d dd17 6f3d
000000b0: 2115 cf3d 8668 923d 2fdc 87bd 03d9 a4bd
000000c0: 0f47 f8bc c840 b8bb 0564 f339 b4fc 67bd
000000d0: 1349 92bd 7c67 833d 3eff babb a8a8 00bd
000000e0: 672c 89bb c17b 6dbd c843 a1bd 6386 543c
000000f0: ea1b d33b 1560 97bc 9dd5 633c 356b de3b
00000100: 4c75 50bd 8954 39bc 8946 f6bd d9aa 5ebd
00000110: eb6a c9bd b67b c43c 8837 fe3c ae39 63bd
00000120: b5d9 78bd 4b4e 18bd 8881 15bd 7b42 a7bd
00000130: a6d8 073e 2ad2 7b3d 8f4a fc3c b913 d73d
00000140: dd06 a7bd 4e8e 54bc aacb 8b3d 9ff0 a03d
00000150: 3374 babd 2336 633c d232 0cbe 9375 14bd
00000160: f6e2 3bbd a616 94bd 4ba3 85bd 1e77 eb3d
00000170: 72fc e9bc 4a12 ae3d 946e 8e3d 1dca 2d3d
00000180: 247d 12bc c6bd a83c 2c4f c1bd 928a 963d
00000190: 530e 8fbd ef6a 31bd 8f0b 91bd 4b96 c33c
000001a0: da79 2b3d 8204 cdbd bea1 8dbd 877c 45bd
000001b0: 461d bb3d 8307 48bd f294 6bbd fb49 833d
000001c0: 7f67 2abd 0a3e 04bd fcc3 02be 4467 d1bc
000001d0: ba1b 67bc 45b7 1dbe e810 6cbd 5136 a63d
000001e0: 5755 afbd a39b e1bb e91d ecbc a152 28be
000001f0: 7224 56bc aabc 2d3d 4480 123c 4ccb 3a3e
00000200: 0dfe 0fbd 6a28 e73a 4b93 bcbd 8f35 9abd
00000210: 3304 bdbd fa3d cb3d 8157 81bc f75f 56bd
00000220: d62e 453d 6106 ab3c d7f9 d4bd f6ad 03bd
00000230: 4653 cd3b 8afa f43c 6ddf 56bd 7754 9abd
00000240: 085a e83c 3279 8bbc e103 dcbd 5738 61bd
00000250: 0de2 8e3d cce1 e7bc fbe2 1cbe 2b73 3ebe
00000260: 7619 9dbc ebea c0bd 44a5 003d a843 523d
00000270: 4f63 e63c 8750 e63d 5428 61bc 9d1f 98bd
00000280: 57f0 5b3c fae6 bc3d a8c8 54bd aecb 8dbd
00000290: 98de c1bc 5518 e3bc ccb1 dabd b5f7 6cbd
000002a0: 9e51 763d 2628 08bc c773 ec3c 9d29 1fbd
000002b0: 4ce2 7fbc 88b4 183d e265 633d fbb7 ad3b
000002c0: b29e 2abd ba4a cbbd 48a0 80bc ddca 9c3d
000002d0: 7351 45bb 6e3c c5bd f26b d6bc 2719 eabd
000002e0: ddb9 813d a683 1bbd 3259 08bd 5a66 113d
000002f0: 906d 2d3b 6ee2 d2bc 9136 c7bc c650 8e3d
00000300: e024 c83c db25 43bc 18ef 63bd 2923 35bd
00000310: 786d 85bd 54ed e73b 02da 043d 62b5 293d
00000320: 6c8f 6d3b 92c6 e1bc 159c 43bd 9dac 683d
00000330: 6b69 273d 3512 dfbc c5a7 193c 7e7c cabd
00000340: c417 ad3d 3932 7c3d 4288 20bc 542c 8ebd
00000350: d31e 613c 7155 f0bd 9264 78bd 894d 1fbd
00000360: 9282 dc3c 5d16 ebba ad53 5cbc 3728 373e
00000370: 0bac 32bd d35d 4bbd dc62 833b 0d89 6ebd
00000380: b8be 6e3d 0c50 143d c6d1 25bd 0373 8cbd
00000390: 2894 b03d 1003 87bd fa01 cfbd 2f99 8cbd
000003a0: a415 d23d d1b5 acbd 9089 6fbd b7a1 d63d
000003b0: 6c34 09bd 6cdd 253d 1737 343c 84b8 ecbd
000003c0: e660 02bd a467 253d e19c 0c3d 6600 9cbd
000003d0: c332 7a3c 2f84 dbbc 61c5 26be 5f77 bbbd
000003e0: f319 0d3d a477 06bb 7499 c43d ec7c b1bc
000003f0: 042f 7cbd 519d 93bb 7445 adbc 39dc 13be

fc1.bias f4 [50]
0.04480956 -0.026877409 0.06559577 -0.033120416 0.059986327 0.0758269 0.10045856 -0.005424115
0.015247386 0.0019347799 0.1014452 -0.05499742 0.16611198 -0.036589414 0.035953082 -0.04871909
-0.004252518 0.023565445 -0.034881253 -0.043819983 -0.014196454 0.07118203 0.12412729 -0.035460163
0.11069568 0.09318225 0.02999669 0.0070725176 0.119852595 -0.022763945 0.07016254 -0.0055832416
-0.030135684 0.06550533 0.07588932 0.02884359 0.12415852 0.055078 0.018714732 0.050693583
0.037514318 -0.053608157 0.04189396 0.0035619852 0.08723393 -0.042531338 -0.027186133 0.015515343
0.019939443 0.08117616
00000000: 3b8a 373d 032e dcbc 1357 863d 46a9 07bd
00000010: 39b4 753d 224b 9b3d 38bd cd3d c6bc b1bb
00000020: 2cd0 793c 7198 fd3a 80c2 cf3d fa44 61bd
00000030: 4219 2a3e c8de 15bd 8a43 133d ab8d 47bd
00000040: b558 8bbb 520c c13c a5df 0ebd 957c 33bd
00000050: 3e98 68bc e2c7 913d 7336 fe3d ad3e 11bd
00000060: 6bb4 e23d 56d6 be3d 9ebb f53c 94c0 e73b
00000070: 4775 f53d 747b babc 61b1 8f3d a0f3 b6bb
00000080: 1cdf f6bc a927 863d dc6b 9b3d 6449 ec3c
00000090: d246 fe3d 7899 613d a34f 993c 13a4 4f3d
000000a0: 9da8 193d 3a94 5bbd 0099 2b3d 3270 693b
000000b0: b4a7 b23d 5735 2ebd 74b5 debc 1134 7e3c
000000c0: 0b58 a33c b03f a63d

fc2.weight f4 [10, 50]
-0.25126714 -0.19432493 -0.11127962 -0.049253844 -0.24134879 -0.10582437 0.009808665 0.257685
0.1873952 0.27156383 -0.21369869 -0.08415547 -0.24168651 -0.2112035 -0.23924898 0.18533453
0.022718942 -0.034140572 -0.11881118 -0.21391277 0.25587207 -0.15019852 -0.18019792 -0.11115137
-0.028789941 0.17677484 0.05282413 0.23070563 -0.20497805 0.18161222 0.23830071 0.25084996
-0.15412857 -0.17580174 -0.325307 0.22316119 -0.32249546 -0.27652773 -0.27620727 -0.19177003
0.13434482 -0.31300047 0.22875406 0.26140198 -0.12223748 -0.17125322 -0.22339448 -0.1099307
0.22404136 -0.21492308 -0.04603583 -0.22942021 -0.13231456 -0.23992354 0.23613402 -0.28895503
-0.0026118895 -0.044190772 -0.12351445 -0.24642165 0.21916176 -0.13509645 0.28735736 -0.1719831
-0.18598771 -0.28093794 -0.22230586 0.09490482 -0.24839783 -0.20496407 -0.15987429 0.27785763
0.19342783 -0.26121983 0.31828004 0.16127849 0.28384045 -0.21275221 0.2015537 -0.11694341
-0.28393632 -0.34139857 -0.014962268 -0.14399634 -0.14986195 -0.050069217 0.36164778 0.22585116
0.20038708 -0.14665945 -0.43325353 -0.19512002 -0.22944361 -0.17151852 0.26174122 -0.24675207
-0.2188399 0.11349167 0.019213116 0.23095593 0.019005759 0.124740355 -0.033536524 -0.15324797
0.30403468 0.10482424 0.24020313 -0.1285786 0.116081156 -0.10869348 0.30772734 -0.008325349
0.1156966 -0.16619873 -0.1318379 -0.064180136 -0.16862327 0.00095273816 -0.0060214605 -0.08666906
0.21115081 0.14225118 0.2763021 0.23346181 -0.0852295 0.00766189 0.018893603 -0.18144575
-0.23938422 -0.3022993 -0.13632761 -0.003374633 -0.014148363 0.21628234 -0.29305947 -0.20073426
-0.25312093 -0.1229949 0.2813249 -0.16664611 -0.07551586 0.19807257 -0.03155814 0.24869184
0.09521874 -0.1487774 0.19358343 0.28174067 0.34769532 -0.29081744 0.28561345 -0.23785917
-0.20831546 -0.048656095 0.33220205 0.28168547 0.015309714 -0.20318677 -0.099006705 -0.1254925
0.27175656 -0.04739215 -0.24628012 -0.09894824 -0.04984158 0.16956311 0.03354508 -0.07033737
0.21625164 -0.11209448 -0.19012864 -0.19193536 0.21951652 -0.18995458 -0.060682192 -0.3312181
0.22887324 -0.18676476 0.20449825 -0.16699298 0.08521111 -0.22161476 -0.04394198 -0.13239348
0.2588715 -0.23654556 -0.2330931 -0.23112415 0.006266826 -0.094005294 0.19329847 0.2463527
0.2022459 -0.0014241759 -0.19495934 0.23614717 -0.063082874 0.3463948 0.017605472 -0.31049865
-0.036504403 0.16057853 0.30418718 -0.050129313 -0.14584586 0.22642033 -0.30242354 0.30768192
-0.22732641 0.19127662 -0.14518015 -0.024389388 -0.06960082 -0.04552178 0.22640483 -0.23467262
-0.20395988 -0.090524286 0.2861103 0.27772027 0.03976491 0.26204923 -0.16564016 0.27313718
0.08566083 -0.05765098 0.055406924 -0.24756196 -0.13706754 -0.15622984 -0.24961413 -0.08127183
-0.05658769 -0.18958208 0.1493419 0.22442742 0.3031191 -0.019172074 -0.24778116 0.22435382
-0.28573173 0.1762485 -0.20241028 -0.100223415 0.22619595 0.11849658 0.15320824 -0.09598702
-0.1920831 0.33038992 0.0539662 0.05685153 0.10573951 0.3082649 -0.19423555 -0.007727866
00000000: 16a6 80be 1dfd 46be 92e6 e3bd 66be 49bd
00000010: 2324 77be 73ba d8bd 86b4 203c 4aef 833e
00000020: 87e4 3f3e 6a0a 8b3e d4d3 5abe b459 acbd
00000030: ab7c 77be bb45 58be affd 74be 56c8 3d3e
00000040: 131d ba3c fcd6 0bbd 4753 f3bd f30b 5bbe
00000050: aa01 833e a4cd 19be ce85 38be 54a3 e3bd
00000060: e2d8 ebbc 7704 353e 1d5e 583d 193e 6c3e
00000070: c4e5 51be 8ef8 393e 1a05 743e 686f 803e
00000080: e1d3 1dbe 5f05 34be a48e a6be 5e84 643e
00000090: 201e a5be 0b95 8dbe 0a6b 8dbe 5d5f 44be
000000a0: b091 093e 9941 a0be 813e 6a3e 7bd6 853e
000000b0: a557 fabd 015d 2fbe 86c1 64be 5923 e1bd
000000c0: 196b 653e cc14 5cbe 1190 3cbd 22ed 6abe
000000d0: 787d 07be 84ae 75be 1ecd 713e eaf1 93be
000000e0: 3c2c 2bbb 6201 35bd 25f5 fcbd f555 7cbe
000000f0: f16b 603e b956 0abe 8120 933e 561c 30be
00000100: 9073 3ebe 19d7 8fbe 26a4 63be 755d c23d
00000110: 005c 7ebe 1ae2 51be 16b6 23be 5b43 8e3e
00000120: f211 463e 9bbe 85be 9af5 a23e 3026 253e
00000130: 8953 913e b7db 59be 1864 4e3e 0780 efbd
00000140: 1a60 91be cbcb aebe 4d24 75bc c773 13be
00000150: 6975 19be 6115 4dbd e629 b93e 8745 673e
00000160: 4532 4d3e e52d 16be 68d3 ddbe 8bcd 47be
00000170: 44f3 6abe 8da2 2fbe f202 863e 93ac 7cbe
00000180: 9117 60be 526e e83d d364 9d3c b67f 6c3e
00000190: f7b1 9b3c df77 ff3d 985d 09bd 09ed 1cbe
000001a0: 6faa 9b3e 17ae d63d cff7 753e 1caa 03be
000001b0: f5bb ed3d b09a debd 708e 9d3e 0b67 08bc
000001c0: 57f2 ec3d 0030 2abe 8400 07be e070 83bd
000001d0: 94ab 2cbe 2dc1 793a ac4f c5bb 8c7f b1bd
000001e0: eb37 583e 4baa 113e 7877 8d3e 9d10 6f3e
000001f0: ce8c aebd 9710 fb3b c2c6 9a3c eacc 39be
00000200: 2321 75be f9c6 9abe 7799 0bbe f228 5dbb
00000210: 89ce 67bc 1e79 5d3e e40b 96be 488d 4dbe
00000220: 1199 81be c0e4 fbbd d109 903e 47a5 2abe
00000230: 0fa8 9abd 89d3 4a3e 1c43 01bd 13a9 7e3e
00000240: 0b02 c33d 1a59 18be bc3a 463e 5040 903e
00000250: 1f05 b23e 06e6 94be ed3b 923e 5b91 73be
00000260: a650 55be 9d4b 47bd 6316 aa3e 1439 903e
00000270: 98d5 7a3c 3110 50be 07c4 cabd 1b81 00be
00000280: ad23 8b3e 451e 42bd db30 7cbe 60a5 cabd
00000290: af26 4cbd f4a1 2d3e 9166 093d 0a0d 90bd
000002a0: 1271 5d3e ca91 e5bd 15b1 42be b48a 44be
000002b0: f0c8 603e 7483 42be e48d 78bd 6b95 a9be
000002c0: bf5d 6a3e 433f 3fbe fd67 513e 3500 2bbe
000002d0: 2a83 ae3d fbee 62be 81fc 33bd 2892 07be
000002e0: ce8a 843e 0039 72be f5af 6ebe cfab 6cbe
000002f0: f259 cd3b d985 c0bd 09f0 453e e243 7c3e
00000300: 8d19 4f3e 6aab baba 6ca3 47be 90d0 713e
00000310: 9831 81bd a95a b13e 5a39 903c aef9 9ebe
00000320: a485 15bd b36e 243e 6cbe 9b3e 6554 4dbd
00000330: 9e58 15be bbda 673e 42d7 9abe 7c88 9d3e
00000340: 41c8 68be 05de 433e 1baa 14be 41cc c7bc
00000350: e08a 8ebd 0c75 3abd abd6 673e 054e 70be
00000360: dcda 50be cc64 b9bd 0d7d 923e 5a31 8e3e
00000370: 88e0 223d 512b 863e 939d 29be a3d8 8b3e
00000380: f26e af3d 6f23 6cbd 5ff2 623d e280 7dbe
00000390: 6f5b 0cbe b7fa 1fbe d99a 7fbe d871 a6bd
000003a0: 7ec8 67bd ce21 42be 15ed 183e 4dd0 653e
000003b0: 6d32 9b3e c10e 9dbc 58ba 7dbe 02bd 653e
000003c0: 6e4b 92be 7d7a 343e a444 4fbe ef41 cdbd
000003d0: e99f 673e 56ae f23d 9fe2 1c3e d894 c4bd
000003e0: 6fb1 44be de28 a93e aa0b 5d3d 26dd 683d
000003f0: f58d d83d e6d4 9d3e afe5 46be 0a3a fdbb

fc2.bias f4 [10]
0.042935498 0.37530345 -0.14538799 0.057048064 -0.28384426 0.003597605 -0.4638888 -0.08442391
0.3440301 -0.23831268
00000000: 22dd 2f3d c627 c03e 97e0 14be 3bab 693d
00000010: 0954 91be ccc5 6b3b d582 edbe 71e6 acbd
00000020: b724 b03e 3d08 74be
